…
      sampler {
        min_scale: 0.3
        max_scale: 1
        min_aspect_ratio: 0.5
        max_aspect_ratio: 2
      }
      sample_constraint {
        min_jaccard_overlap: 0.9
      }
      max_sample: 1
      max_trials: 50
    }
    batch_sampler {
      sampler {
        min_scale: 0.3
        max_scale: 1
        min_aspect_ratio: 0.5
        max_aspect_ratio: 2
      }
      sample_constraint {
        max_jaccard_overlap: 1
      }
      max_sample: 1
      max_trials: 50
    }
    label_map_file: "data/coco/labelmap_coco.prototxt"
  }
}
layer {
  name: "conv1_1"
  type: "Convolution"
  bottom: "data"
  top: "conv1_1"
  param {
    lr_mult: 1
    decay_mult: 1
  }
  param {
    lr_mult: 2
    decay_mult: 0
  }
  convolution_param {
    num_output: 64
    pad: 1
    kernel_size: 3
    weight_filler {
      type: "xavier"
    }
    bias_filler {
      type: "constant"
      value: 0
    }
  }
}
layer {
  name: "relu1_1"
  type: "ReLU"
  bottom: "conv1_1"
  top: "conv1_1"
}
layer {
  name: "conv1_2"
  type: "Convolution"
  bottom: "conv1_1"
  top: "conv1_2"
  param {
    lr_mult: 1
    decay_mult: 1
  }
  param {
    lr_mult: 2
    decay_mult: 0
  }
  convolution_param {
    num_output: 64
    pad: 1
    kernel_size: 3
    weight_filler {
      type: "xavier"
    }
    bias_filler {
      type: "constant"
      value: 0
    }
  }
}
layer {
  name: "relu1_2"
  type: "ReLU"
  bottom: "conv1_2"
  top: "conv1_2"
}
layer {
  name: "pool1"
  type: "Pooling"
  bottom: "conv1_2"
  top: "pool1"
  pooling_param {
    pool: MAX
    kernel_size: 2
    stride: 2
  }
}
layer {
  name: "conv2_1"
  type: "Convolution"
  bottom: "pool1"
  top: "conv2_1"
  param {
    lr_mult: 1
    decay_mult: 1
  }
  param {
    lr_mult: 2
    decay_mult: 0
  }
  convolution_param {
    num_output: 128
    pad: 1
    kernel_size: 3
    weight_filler {
      type: "xavier"
    }
    bias_filler {
      type: "constant"
      value: 0
    }
  }
}
layer {
  name: "relu2_1"
  type: "ReLU"
  bottom: "conv2_1"
  top: "conv2_1"
}
layer {
  name: "conv2_2"
  type: "Convolution"
  bottom: "conv2_1"
  top: "conv2_2"
  param {
    lr_mult: 1
    decay_mult: 1
  }
  param {
    lr_mult: 2
    decay_mult: 0
  }
  convolution_param {
    num_output: 128
    pad: 1
    kernel_size: 3
    weight_filler {
      type: "xavier"
    }
    bias_filler {
      type: "constant"
      value: 0
    }
  }
}
layer {
  name: "relu2_2"
  type: "ReLU"
  bottom: "conv2_2"
  top: "conv2_2"
}
layer {
  name: "pool2"
  type: "Pooling"
  bottom: "conv2_2"
  top: "pool2"
  pooling_param {
    pool: MAX
    kernel_size: 2
    stride: 2
  }
}
layer {
  name: "conv3_1"
  type: "Convolution"
  bottom: "pool2"
  top: "conv3_1"
  param {
    lr_mult: 1
    decay_mult: 1
  }
  param {
    lr_mult: 2
    decay_mult: 0
  }
  convolution_param {
    num_output: 256
    pad: 1
    kernel_size: 3
    weight_filler {
      type: "xavier"
    }
    bias_filler {
      type: "constant"
      value: 0
    }
  }
}
layer {
  name: "relu3_1"
  type: "ReLU"
  bottom: "conv3_1"
  top: "conv3_1"
}
layer {
  name: "conv3_2"
  type: "Convolution"
  bottom: "conv3_1"
  top: "conv3_2"
  param {
    lr_mult: 1
    decay_mult: 1
  }
  param {
    lr_mult: 2
    decay_mult: 0
  }
  convolution_param {
    num_output: 256
    pad: 1
    kernel_size: 3
    weight_filler {
      type: "xavier"
    }
    bias_filler {
      type: "constant"
      value: 0
    }
  }
}
layer {
  name: "relu3_2"
  type: "ReLU"
  bottom: "conv3_2"
  top: "conv3_2"
}
layer {
  name: "conv3_3"
  type: "Convolution"
  bottom: "conv3_2"
  top: "conv3_3"
  param {
    lr_mult: 1
    decay_mult: 1
  }
  param {
    lr_mult: 2
    decay_mult: 0
  }
  convolution_param {
    num_output: 256
    pad: 1
    kernel_size: 3
    weight_filler {
      type: "xavier"
    }
    bias_filler {
      type: "constant"
      value: 0
    }
  }
}
layer {
  name: "relu3_3"
  type: "ReLU"
  bottom: "conv3_3"
  top: "conv3_3"
}
layer {
  name: "pool3"
  type: "Pooling"
  bottom: "conv3_3"
  top: "pool3"
  pooling_param {
    pool: MAX
    kernel_size: 2
    stride: 2
  }
}
layer {
  name: "conv4_1"
  type: "Convolution"
  bottom: "pool3"
  top: "conv4_1"
  param {
    lr_mult: 1
    decay_mult: 1
  }
  param {
    lr_mult: 2
    decay_mult: 0
  }
  convolution_param {
    num_output: 512
    pad: 1
    kernel_size: 3
    weight_filler {
      type: "xavier"
    }
    bias_filler {
      type: "constant"
      value: 0
    }
  }
}
layer {
  name: "relu4_1"
  type: "ReLU"
  bottom: "conv4_1"
  top: "conv4_1"
}
layer {
  name: "conv4_2"
  type: "Convolution"
  bottom: "conv4_1"
  top: "conv4_2"
  param {
    lr_mult: 1
    decay_mult: 1
  }
  param {
    lr_mult: 2
    decay_mult: 0
  }
  convolution_param {
    num_output: 512
    pad: 1
    kernel_size: 3
    weight_filler {
      type: "xavier"
    }
    bias_filler {
      type: "constant"
      value: 0
    }
  }
}
layer {
  name: "relu4_2"
  type: "ReLU"
  bottom: "conv4_2"
  top: "conv4_2"
}
layer {
  name: "conv4_3"
  type: "Convolution"
  bottom: "conv4_2"
  top: "conv4_3"
  param {
    lr_mult: 1
    decay_mult: 1
  }
  param {
    lr_mult: 2
    decay_mult: 0
  }
  convolution_param {
    num_output: 512
    pad: 1
    kernel_size: 3
    weight_filler {
      type: "xavier"
    }
    bias_filler {
      type: "constant"
      value: 0
    }
  }
}
layer {
  name: "relu4_3"
  type: "ReLU"
  bottom: "conv4_3"
  top: "conv4_3"
}
layer {
  name: "pool4"
  type: "Pooling"
  bottom: "conv4_3"
  top: "pool4"
  pooling_param {
    pool: MAX
    kernel_size: 2
    stride: 2
  }
}
layer {
  name: "conv5_1"
  type: "Convolution"
  bottom: "pool4"
  top: "conv5_1"
  param {
    lr_mult: 1
    decay_mult: 1
  }
  param {
    lr_mult: 2
    decay_mult: 0
  }
  convolution_param {
    num_output: 512
    pad: 1
    kernel_size: 3
    weight_filler {
      type: "xavier"
    }
    bias_filler {
      type: "constant"
      value: 0
    }
    dilation: 1
  }
}
layer {
  name: "relu5_1"
  type: "ReLU"
  bottom: "conv5_1"
  top: "conv5_1"
}
layer {
  name: "conv5_2"
  type: "Convolution"
  bottom: "conv5_1"
  top: "conv5_2"
  param {
    lr_mult: 1
    decay_mult: 1
  }
  param {
    lr_mult: 2
    decay_mult: 0
  }
  convolution_param {
    num_output: 512
    pad: 1
    kernel_size: 3
    weight_filler {
      type: "xavier"
    }
    bias_filler {
      type: "constant"
      value: 0
    }
    dilation: 1
  }
}
layer {
  name: "relu5_2"
  type: "ReLU"
  bottom: "conv5_2"
  top: "conv5_2"
}
layer {
  name: "conv5_3"
  type: "Convolution"
  bottom: "conv5_2"
  top: "conv5_3"
  param {
    lr_mult: 1
    decay_mult: 1
  }
  param {
    lr_mult: 2
    decay_mult: 0
  }
  convolution_param {
    num_output: 512
    pad: 1
    kernel_size: 3
    weight_filler {
      type: "xavier"
    }
    bias_filler {
      type: "constant"
      value: 0
    }
    dilation: 1
  }
}
layer {
  name: "relu5_3"
  type: "ReLU"
  bottom: "conv5_3"
  top: "conv5_3"
}
layer {
  name: "pool5"
  type: "Pooling"
  bottom: "conv5_3"
  top: "pool5"
  pooling_param {
    pool: MAX
    kernel_size: 3
    stride: 1
    pad: 1
  }
}
layer {
  name: "fc6"
  type: "Convolution"
  bottom: "pool5"
  top: "fc6"
  param {
    lr_mult: 1
    decay_mult: 1
  }
  param {
    lr_mult: 2
    decay_mult: 0
  }
  convolution_param {
    num_output: 1024
    pad: 6
    kernel_size: 3
    weight_filler {
      type: "xavier"
    }
    bias_filler {
      type: "constant"
      value: 0
    }
    dilation: 6
  }
}
layer {
  name: "relu6"
  type: "ReLU"
  bottom: "fc6"
  top: "fc6"
}
layer {
  name: "fc7"
  type: "Convolution"
  bottom: "fc6"
  top: "fc7"
  param {
    lr_mult: 1
    decay_mult: 1
  }
  param {
    lr_mult: 2
    decay_mult: 0
  }
  convolution_param {
    num_output: 1024
    kernel_size: 1
    weight_filler {
      type: "xavier"
    }
    bias_filler {
      type: "constant"
      value: 0
    }
  }
}
layer {
  name: "relu7"
  type: "ReLU"
  bottom: "fc7"
  top: "fc7"
}
layer {
  name: "conv6_1"
  type: "Convolution"
  bottom: "fc7"
  top: "conv6_1"
  param {
    lr_mult: 1
    decay_mult: 1
  }
  param {
    lr_mult: 2
    decay_mult: 0
  }
  convolution_param {
    num_output: 256
    pad: 0
    kernel_size: 1
    stride: 1
    weight_filler {
      type: "xavier"
    }
    bias_filler {
      type: "constant"
      value: 0
    }
  }
}
layer {
  name: "conv6_1_relu"
  type: "ReLU"
  bottom: "conv6_1"
  top: "conv6_1"
}
layer {
  name: "conv6_2"
  type: "Convolution"
  bottom: "conv6_1"
  top: "conv6_2"
  param {
    lr_mult: 1
    decay_mult: 1
  }
  param {
    lr_mult: 2
    decay_mult: 0
  }
  convolution_param {
    num_output: 512
    pad: 1
    kernel_size: 3
    stride: 2
    weight_filler {
      type: "xavier"
    }
    bias_filler {
      type: "constant"
      value: 0
    }
  }
}
layer {
  name: "conv6_2_relu"
  type: "ReLU"
  bottom: "conv6_2"
  top: "conv6_2"
}
layer {
  name: "conv7_1"
  type: "Convolution"
  bottom: "conv6_2"
  top: "conv7_1"
  param {
    lr_mult: 1
    decay_mult: 1
  }
  param {
    lr_mult: 2
    decay_mult: 0
  }
  convolution_param {
    num_output: 128
    pad: 0
    kernel_size: 1
    stride: 1
    weight_filler {
      type: "xavier"
    }
    bias_filler {
      type: "constant"
      value: 0
    }
  }
}
layer {
  name: "conv7_1_relu"
  type: "ReLU"
  bottom: "conv7_1"
  top: "conv7_1"
}
layer {
  name: "conv7_2"
  type: "Convolution"
  bottom: "conv7_1"
  top: "conv7_2"
  param {
    lr_mult: 1
    decay_mult: 1
  }
  param {
    lr_mult: 2
    decay_mult: 0
  }
  convolution_param {
    num_output: 256
    pad: 1
    kernel_size: 3
    stride: 2
    weight_filler {
      type: "xavier"
    }
    bias_filler {
      type: "constant"
      value: 0
    }
  }
}
layer {
  name: "conv7_2_relu"
  type: "ReLU"
  bottom: "conv7_2"
  top: "conv7_2"
}
layer {
  name: "conv8_1"
  type: "Convolution"
  bottom: "conv7_2"
  top: "conv8_1"
  param {
    lr_mult: 1
    decay_mult: 1
  }
  param {
    lr_mult: 2
    decay_mult: 0
  }
  convolution_param {
    num_output: 128
    pad: 0
    kernel_size: 1
    stride: 1
    weight_filler {
      type: "xavier"
    }
    bias_filler {
      type: "constant"
      value: 0
    }
  }
}
layer {
  name: "conv8_1_relu"
  type: "ReLU"
  bottom: "conv8_1"
  top: "conv8_1"
}
layer {
  name: "conv8_2"
  type: "Convolution"
  bottom: "conv8_1"
  top: "conv8_2"
  param {
    lr_mult: 1
    decay_mult: 1
  }
  param {
    lr_mult: 2
    decay_mult: 0
  }
  convolution_param {
    num_output: 256
    pad: 0
    kernel_size: 3
    stride: 1
    weight_filler {
      type: "xavier"
    }
    bias_filler {
      type: "constant"
      value: 0
    }
  }
}
layer {
  name: "conv8_2_relu"
  type: "ReLU"
  bottom: "conv8_2"
  top: "conv8_2"
}
layer {
  name: "conv9_1"
  type: "Convolution"
  bottom: "conv8_2"
  top: "conv9_1"
  param {
    lr_mult: 1
    decay_mult: 1
  }
  param {
    lr_mult: 2
    decay_mult: 0
  }
  convolution_param {
    num_output: 128
    pad: 0
    kernel_size: 1
    stride: 1
    weight_filler {
      type: "xavier"
    }
    bias_filler {
      type: "constant"
      value: 0
    }
  }
}
layer {
  name: "conv9_1_relu"
  type: "ReLU"
  bottom: "conv9_1"
  top: "conv9_1"
}
layer {
  name: "conv9_2"
  type: "Convolution"
  bottom: "conv9_1"
  top: "conv9_2"
  param {
    lr_mult: 1
    decay_mult: 1
  }
  param {
    lr_mult: 2
    decay_mult: 0
  }
  convolution_param {
    num_output: 256
    pad: 0
    kernel_size: 3
    stride: 1
    weight_filler {
      type: "xavier"
    }
    bias_filler {
      type: "constant"
      value: 0
    }
  }
}
layer {
  name: "conv9_2_relu"
  type: "ReLU"
  bottom: "conv9_2"
  top: "conv9_2"
}
layer {
  name: "conv4_3_norm"
  type: "Normalize"
  bottom: "conv4_3"
  top: "conv4_3_norm"
  norm_param {
    across_spatial: false
    scale_filler {
      type: "constant"
      value: 20
    }
    channel_shared: false
  }
}
layer {
  name: "conv4_3_norm_mbox_loc"
  type: "Convolution"
  bottom: "conv4_3_norm"
  top: "conv4_3_norm_mbox_loc"
  param {
    lr_mult: 1
    decay_mult: 1
  }
  param {
    lr_mult: 2
    decay_mult: 0
  }
  convolution_param {
    num_output: 16
    pad: 1
    kernel_size: 3
    stride: 1
    weight_filler {
      type: "xavier"
    }
    bias_filler {
      type: "constant"
      value: 0
    }
  }
}
layer {
  name: "conv4_3_norm_mbox_loc_perm"
  type: "Permute"
  bottom: "conv4_3_norm_mbox_loc"
  top: "conv4_3_norm_mbox_loc_perm"
  permute_param {
    order: 0
    order: 2
    order: 3
    order: 1
  }
}
layer {
  name: "conv4_3_norm_mbox_loc_flat"
  type: "Flatten"
  bottom: "conv4_3_norm_mbox_loc_perm"
  top: "conv4_3_norm_mbox_loc_flat"
  flatten_param {
    axis: 1
  }
}
layer {
  name: "conv4_3_norm_mbox_conf"
  type: "Convolution"
  bottom: "conv4_3_norm"
  top: "conv4_3_norm_mbox_conf"
  param {
    lr_mult: 1
    decay_mult: 1
  }
  param {
    lr_mult: 2
    decay_mult: 0
  }
  convolution_param {
    num_output: 324
    pad: 1
    kernel_size: 3
    stride: 1
    weight_filler {
      type: "xavier"
    }
    bias_filler {
      type: "constant"
      value: 0
    }
  }
}
layer {
  name: "conv4_3_norm_mbox_conf_perm"
  type: "Permute"
  bottom: "conv4_3_norm_mbox_conf"
  top: "conv4_3_norm_mbox_conf_perm"
  permute_param {
    order: 0
    order: 2
    order: 3
    order: 1
  }
}
layer {
  name: "conv4_3_norm_mbox_conf_flat"
  type: "Flatten"
  bottom: "conv4_3_norm_mbox_conf_perm"
  top: "conv4_3_norm_mbox_conf_flat"
  flatten_param {
    axis: 1
  }
}
layer {
  name: "conv4_3_norm_mbox_mask"
  type: "Convolution"
  bottom: "conv4_3_norm"
  top: "conv4_3_norm_mbox_mask"
  param {
    lr_mult: 1
    decay_mult: 1
  }
  param {
    lr_mult: 2
    decay_mult: 0
  }
  convolution_param {
    num_output: 1764
    pad: 1
    kernel_size: 3
    stride: 1
    weight_filler {
      type: "xavier"
    }
    bias_filler {
      type: "constant"
      value: 0
    }
  }
}
layer {
  name: "conv4_3_norm_mbox_mask_perm"
  type: "Permute"
  bottom: "conv4_3_norm_mbox_mask"
  top: "conv4_3_norm_mbox_mask_perm"
  permute_param {
    order: 0
    order: 2
    order: 3
    order: 1
  }
}
layer {
  name: "conv4_3_norm_mbox_mask_flat"
  type: "Flatten"
  bottom: "conv4_3_norm_mbox_mask_perm"
  top: "conv4_3_norm_mbox_mask_flat"
  flatten_param {
    axis: 1
  }
}
layer {
  name: "conv4_3_norm_mbox_priorbox"
  type: "PriorBox"
  bottom: "conv4_3_norm"
  bottom: "data"
  top: "conv4_3_norm_mbox_priorbox"
  prior_box_param {
    min_size: 21
    max_size: 45
    aspect_ratio: 2
    flip: true
    clip: false
    variance: 0.1
    variance: 0.1
    variance: 0.2
    variance: 0.2
    step: 8
    offset: 0.5
  }
}
layer {
  name: "fc7_mbox_loc"
  type: "Convolution"
  bottom: "fc7"
  top: "fc7_mbox_loc"
  param {
    lr_mult: 1
    decay_mult: 1
  }
  param {
    lr_mult: 2
    decay_mult: 0
  }
  convolution_param {
    num_output: 24
    pad: 1
    kernel_size: 3
    stride: 1
    weight_filler {
      type: "xavier"
    }
    bias_filler {
      type: "constant"
      value: 0
    }
  }
}
layer {
  name: "fc7_mbox_loc_perm"
  type: "Permute"
  bottom: "fc7_mbox_loc"
  top: "fc7_mbox_loc_perm"
  permute_param {
    order: 0
    order: 2
    order: 3
    order: 1
  }
}
layer {
  name: "fc7_mbox_loc_flat"
  type: "Flatten"
  bottom: "fc7_mbox_loc_perm"
  top: "fc7_mbox_loc_flat"
  flatten_param {
    axis: 1
  }
}
layer {
  name: "fc7_mbox_conf"
  type: "Convolution"
  bottom: "fc7"
  top: "fc7_mbox_conf"
  param {
    lr_mult: 1
    decay_mult: 1
  }
  param {
    lr_mult: 2
    decay_mult: 0
  }
  convolution_param {
    num_output: 486
    pad: 1
    kernel_size: 3
    stride: 1
    weight_filler {
      type: "xavier"
    }
    bias_filler {
      type: "constant"
      value: 0
    }
  }
}
layer {
  name: "fc7_mbox_conf_perm"
  type: "Permute"
  bottom: "fc7_mbox_conf"
  top: "fc7_mbox_conf_perm"
  permute_param {
    order: 0
    order: 2
    order: 3
    order: 1
  }
}
layer {
  name: "fc7_mbox_conf_flat"
  type: "Flatten"
  bottom: "fc7_mbox_conf_perm"
  top: "fc7_mbox_conf_flat"
  flatten_param {
    axis: 1
  }
}
layer {
  name: "fc7_mbox_mask"
  type: "Convolution"
  bottom: "fc7"
  top: "fc7_mbox_mask"
  param {
    lr_mult: 1
    decay_mult: 1
  }
  param {
    lr_mult: 2
    decay_mult: 0
  }
  convolution_param {
    num_output: 2646
    pad: 1
    kernel_size: 3
    stride: 1
    weight_filler {
      type: "xavier"
    }
    bias_filler {
      type: "constant"
      value: 0
    }
  }
}
layer {
  name: "fc7_mbox_mask_perm"
  type: "Permute"
  bottom: "fc7_mbox_mask"
  top: "fc7_mbox_mask_perm"
  permute_param {
    order: 0
    order: 2
    order: 3
    order: 1
  }
}
layer {
  name: "fc7_mbox_mask_flat"
  type: "Flatten"
  bottom: "fc7_mbox_mask_perm"
  top: "fc7_mbox_mask_flat"
  flatten_param {
    axis: 1
  }
}
layer {
  name: "fc7_mbox_priorbox"
  type: "PriorBox"
  bottom: "fc7"
  bottom: "data"
  top: "fc7_mbox_priorbox"
  prior_box_param {
    min_size: 45
    max_size: 99
    aspect_ratio: 2
    aspect_ratio: 3
    flip: true
    clip: false
    variance: 0.1
    variance: 0.1
    variance: 0.2
    variance: 0.2
    step: 16
    offset: 0.5
  }
}
layer {
  name: "conv6_2_mbox_loc"
  type: "Convolution"
  bottom: "conv6_2"
  top: "conv6_2_mbox_loc"
  param {
    lr_mult: 1
    decay_mult: 1
  }
  param {
    lr_mult: 2
    decay_mult: 0
  }
  convolution_param {
    num_output: 24
    pad: 1
    kernel_size: 3
    stride: 1
    weight_filler {
      type: "xavier"
    }
    bias_filler {
      type: "constant"
      value: 0
    }
  }
}
layer {
  name: "conv6_2_mbox_loc_perm"
  type: "Permute"
  bottom: "conv6_2_mbox_loc"
  top: "conv6_2_mbox_loc_perm"
  permute_param {
    order: 0
    order: 2
    order: 3
    order: 1
  }
}
layer {
  name: "conv6_2_mbox_loc_flat"
  type: "Flatten"
  bottom: "conv6_2_mbox_loc_perm"
  top: "conv6_2_mbox_loc_flat"
  flatten_param {
    axis: 1
  }
}
layer {
  name: "conv6_2_mbox_conf"
  type: "Convolution"
  bottom: "conv6_2"
  top: "conv6_2_mbox_conf"
  param {
    lr_mult: 1
    decay_mult: 1
  }
  param {
    lr_mult: 2
    decay_mult: 0
  }
  convolution_param {
    num_output: 486
    pad: 1
    kernel_size: 3
    stride: 1
    weight_filler {
      type: "xavier"
    }
    bias_filler {
      type: "constant"
      value: 0
    }
  }
}
layer {
  name: "conv6_2_mbox_conf_perm"
  type: "Permute"
  bottom: "conv6_2_mbox_conf"
  top: "conv6_2_mbox_conf_perm"
  permute_param {
    order: 0
    order: 2
    order: 3
    order: 1
  }
}
layer {
  name: "conv6_2_mbox_conf_flat"
  type: "Flatten"
  bottom: "conv6_2_mbox_conf_perm"
  top: "conv6_2_mbox_conf_flat"
  flatten_param {
    axis: 1
  }
}
layer {
  name: "conv6_2_mbox_mask"
  type: "Convolution"
  bottom: "conv6_2"
  top: "conv6_2_mbox_mask"
  param {
    lr_mult: 1
    decay_mult: 1
  }
  param {
    lr_mult: 2
    decay_mult: 0
  }
  convolution_param {
    num_output: 2646
    pad: 1
    kernel_size: 3
    stride: 1
    weight_filler {
      type: "xavier"
    }
    bias_filler {
      type: "constant"
      value: 0
    }
  }
}
layer {
  name: "conv6_2_mbox_mask_perm"
  type: "Permute"
  bottom: "conv6_2_mbox_mask"
  top: "conv6_2_mbox_mask_perm"
  permute_param {
    order: 0
    order: 2
    order: 3
    order: 1
  }
}
layer {
  name: "conv6_2_mbox_mask_flat"
  type: "Flatten"
  bottom: "conv6_2_mbox_mask_perm"
  top: "conv6_2_mbox_mask_flat"
  flatten_param {
    axis: 1
  }
}
layer {
  name: "conv6_2_mbox_priorbox"
  type: "PriorBox"
  bottom: "conv6_2"
  bottom: "data"
  top: "conv6_2_mbox_priorbox"
  prior_box_param {
    min_size: 99
    max_size: 153
    aspect_ratio: 2
    aspect_ratio: 3
    flip: true
    clip: false
    variance: 0.1
    variance: 0.1
    variance: 0.2
    variance: 0.2
    step: 32
    offset: 0.5
  }
}
layer {
  name: "conv7_2_mbox_loc"
  type: "Convolution"
  bottom: "conv7_2"
  top: "conv7_2_mbox_loc"
  param {
    lr_mult: 1
    decay_mult: 1
  }
  param {
    lr_mult: 2
    decay_mult: 0
  }
  convolution_param {
    num_output: 24
    pad: 1
    kernel_size: 3
    stride: 1
    weight_filler {
      type: "xavier"
    }
    bias_filler {
      type: "constant"
      value: 0
    }
  }
}
layer {
  name: "conv7_2_mbox_loc_perm"
  type: "Permute"
  bottom: "conv7_2_mbox_loc"
  top: "conv7_2_mbox_loc_perm"
  permute_param {
    order: 0
    order: 2
    order: 3
    order: 1
  }
}
layer {
  name: "conv7_2_mbox_loc_flat"
  type: "Flatten"
  bottom: "conv7_2_mbox_loc_perm"
  top: "conv7_2_mbox_loc_flat"
  flatten_param {
    axis: 1
  }
}
layer {
  name: "conv7_2_mbox_conf"
  type: "Convolution"
  bottom: "conv7_2"
  top: "conv7_2_mbox_conf"
  param {
    lr_mult: 1
    decay_mult: 1
  }
  param {
    lr_mult: 2
    decay_mult: 0
  }
  convolution_param {
    num_output: 486
    pad: 1
    kernel_size: 3
    stride: 1
    weight_filler {
      type: "xavier"
    }
    bias_filler {
      type: "constant"
      value: 0
    }
  }
}
layer {
  name: "conv7_2_mbox_conf_perm"
  type: "Permute"
  bottom: "conv7_2_mbox_conf"
  top: "conv7_2_mbox_conf_perm"
  permute_param {
    order: 0
    order: 2
    order: 3
    order: 1
  }
}
layer {
  name: "conv7_2_mbox_conf_flat"
  type: "Flatten"
  bottom: "conv7_2_mbox_conf_perm"
  top: "conv7_2_mbox_conf_flat"
  flatten_param {
    axis: 1
  }
}
layer {
  name: "conv7_2_mbox_mask"
  type: "Convolution"
  bottom: "conv7_2"
  top: "conv7_2_mbox_mask"
  param {
    lr_mult: 1
    decay_mult: 1
  }
  param {
    lr_mult: 2
    decay_mult: 0
  }
  convolution_param {
    num_output: 2646
    pad: 1
    kernel_size: 3
    stride: 1
    weight_filler {
      type: "xavier"
    }
    bias_filler {
      type: "constant"
      value: 0
    }
  }
}
layer {
  name: "conv7_2_mbox_mask_perm"
  type: "Permute"
  bottom: "conv7_2_mbox_mask"
  top: "conv7_2_mbox_mask_perm"
  permute_param {
    order: 0
    order: 2
    order: 3
    order: 1
  }
}
layer {
  name: "conv7_2_mbox_mask_flat"
  type: "Flatten"
  bottom: "conv7_2_mbox_mask_perm"
  top: "conv7_2_mbox_mask_flat"
  flatten_param {
    axis: 1
  }
}
layer {
  name: "conv7_2_mbox_priorbox"
  type: "PriorBox"
  bottom: "conv7_2"
  bottom: "data"
  top: "conv7_2_mbox_priorbox"
  prior_box_param {
    min_size: 153
    max_size: 207
    aspect_ratio: 2
    aspect_ratio: 3
    flip: true
    clip: false
    variance: 0.1
    variance: 0.1
    variance: 0.2
    variance: 0.2
    step: 64
    offset: 0.5
  }
}
layer {
  name: "conv8_2_mbox_loc"
  type: "Convolution"
  bottom: "conv8_2"
  top: "conv8_2_mbox_loc"
  param {
    lr_mult: 1
    decay_mult: 1
  }
  param {
    lr_mult: 2
    decay_mult: 0
  }
  convolution_param {
    num_output: 16
    pad: 1
    kernel_size: 3
    stride: 1
    weight_filler {
      type: "xavier"
    }
    bias_filler {
      type: "constant"
      value: 0
    }
  }
}
layer {
  name: "conv8_2_mbox_loc_perm"
  type: "Permute"
  bottom: "conv8_2_mbox_loc"
  top: "conv8_2_mbox_loc_perm"
  permute_param {
    order: 0
    order: 2
    order: 3
    order: 1
  }
}
layer {
  name: "conv8_2_mbox_loc_flat"
  type: "Flatten"
  bottom: "conv8_2_mbox_loc_perm"
  top: "conv8_2_mbox_loc_flat"
  flatten_param {
    axis: 1
  }
}
layer {
  name: "conv8_2_mbox_conf"
  type: "Convolution"
  bottom: "conv8_2"
  top: "conv8_2_mbox_conf"
  param {
    lr_mult: 1
    decay_mult: 1
  }
  param {
    lr_mult: 2
    decay_mult: 0
  }
  convolution_param {
    num_output: 324
    pad: 1
    kernel_size: 3
    stride: 1
    weight_filler {
      type: "xavier"
    }
    bias_filler {
      type: "constant"
      value: 0
    }
  }
}
layer {
  name: "conv8_2_mbox_conf_perm"
  type: "Permute"
  bottom: "conv8_2_mbox_conf"
  top: "conv8_2_mbox_conf_perm"
  permute_param {
    order: 0
    order: 2
    order: 3
    order: 1
  }
}
layer {
  name: "conv8_2_mbox_conf_flat"
  type: "Flatten"
  bottom: "conv8_2_mbox_conf_perm"
  top: "conv8_2_mbox_conf_flat"
  flatten_param {
    axis: 1
  }
}
layer {
  name: "conv8_2_mbox_mask"
  type: "Convolution"
  bottom: "conv8_2"
  top: "conv8_2_mbox_mask"
  param {
    lr_mult: 1
    decay_mult: 1
  }
  param {
    lr_mult: 2
    decay_mult: 0
  }
  convolution_param {
    num_output: 1764
    pad: 1
    kernel_size: 3
    stride: 1
    weight_filler {
      type: "xavier"
    }
    bias_filler {
      type: "constant"
      value: 0
    }
  }
}
layer {
  name: "conv8_2_mbox_mask_perm"
  type: "Permute"
  bottom: "conv8_2_mbox_mask"
  top: "conv8_2_mbox_mask_perm"
  permute_param {
    order: 0
    order: 2
    order: 3
    order: 1
  }
}
layer {
  name: "conv8_2_mbox_mask_flat"
  type: "Flatten"
  bottom: "conv8_2_mbox_mask_perm"
  top: "conv8_2_mbox_mask_flat"
  flatten_param {
    axis: 1
  }
}
layer {
  name: "conv8_2_mbox_priorbox"
  type: "PriorBox"
  bottom: "conv8_2"
  bottom: "data"
  top: "conv8_2_mbox_priorbox"
  prior_box_param {
    min_size: 207
    max_size: 261
    aspect_ratio: 2
    flip: true
    clip: false
    variance: 0.1
    variance: 0.1
    variance: 0.2
    variance: 0.2
    step: 100
    offset: 0.5
  }
}
layer {
  name: "conv9_2_mbox_loc"
  type: "Convolution"
  bottom: "conv9_2"
  top: "conv9_2_mbox_loc"
  param {
    lr_mult: 1
    decay_mult: 1
  }
  param {
    lr_mult: 2
    decay_mult: 0
  }
  convolution_param {
    num_output: 16
    pad: 1
    kernel_size: 3
    stride: 1
    weight_filler {
      type: "xavier"
    }
    bias_filler {
      type: "constant"
      value: 0
    }
  }
}
layer {
  name: "conv9_2_mbox_loc_perm"
  type: "Permute"
  bottom: "conv9_2_mbox_loc"
  top: "conv9_2_mbox_loc_perm"
  permute_param {
    order: 0
    order: 2
    order: 3
    order: 1
  }
}
layer {
  name: "conv9_2_mbox_loc_flat"
  type: "Flatten"
  bottom: "conv9_2_mbox_loc_perm"
  top: "conv9_2_mbox_loc_flat"
  flatten_param {
    axis: 1
  }
}
layer {
  name: "conv9_2_mbox_conf"
  type: "Convolution"
  bottom: "conv9_2"
  top: "conv9_2_mbox_conf"
  param {
    lr_mult: 1
    decay_mult: 1
  }
  param {
    lr_mult: 2
    decay_mult: 0
  }
  convolution_param {
    num_output: 324
    pad: 1
    kernel_size: 3
    stride: 1
    weight_filler {
      type: "xavier"
    }
    bias_filler {
      type: "constant"
      value: 0
    }
  }
}
layer {
  name: "conv9_2_mbox_conf_perm"
  type: "Permute"
  bottom: "conv9_2_mbox_conf"
  top: "conv9_2_mbox_conf_perm"
  permute_param {
    order: 0
    order: 2
    order: 3
    order: 1
  }
}
layer {
  name: "conv9_2_mbox_conf_flat"
  type: "Flatten"
  bottom: "conv9_2_mbox_conf_perm"
  top: "conv9_2_mbox_conf_flat"
  flatten_param {
    axis: 1
  }
}
layer {
  name: "conv9_2_mbox_mask"
  type: "Convolution"
  bottom: "conv9_2"
  top: "conv9_2_mbox_mask"
  param {
    lr_mult: 1
    decay_mult: 1
  }
  param {
    lr_mult: 2
    decay_mult: 0
  }
  convolution_param {
    num_output: 1764
    pad: 1
    kernel_size: 3
    stride: 1
    weight_filler {
      type: "xavier"
    }
    bias_filler {
      type: "constant"
      value: 0
    }
  }
}
layer {
  name: "conv9_2_mbox_mask_perm"
  type: "Permute"
  bottom: "conv9_2_mbox_mask"
  top: "conv9_2_mbox_mask_perm"
  permute_param {
    order: 0
    order: 2
    order: 3
    order: 1
  }
}
layer {
  name: "conv9_2_mbox_mask_flat"
  type: "Flatten"
  bottom: "conv9_2_mbox_mask_perm"
  top: "conv9_2_mbox_mask_flat"
  flatten_param {
    axis: 1
  }
}
layer {
  name: "conv9_2_mbox_priorbox"
  type: "PriorBox"
  bottom: "conv9_2"
  bottom: "data"
  top: "conv9_2_mbox_priorbox"
  prior_box_param {
    min_size: 261
    max_size: 315
    aspect_ratio: 2
    flip: true
    clip: false
    variance: 0.1
    variance: 0.1
    variance: 0.2
    variance: 0.2
    step: 300
    offset: 0.
I0510 21:36:46.826541 18407 layer_factory.hpp:77] Creating layer data
I0510 21:36:46.826966 18407 net.cpp:100] Creating Layer data
I0510 21:36:46.826977 18407 net.cpp:408] data -> data
…
I0510 21:36:46.844514 18407 base_data_layer.cpp:56] prefetch data reading finished
I0510 21:36:46.844583 18407 base_data_layer.cpp:59] prefetch label reading finished
I0510 21:36:46.844616 18407 base_data_layer.cpp:61] prefetch label mask reading finished
I0510 21:36:46.845619 18407 base_data_layer.cpp:56] prefetch data reading finished
I0510 21:36:46.845674 18407 base_data_layer.cpp:59] prefetch label reading finished
I0510 21:36:46.845690 18407 base_data_layer.cpp:61] prefetch label mask reading finished
I0510 21:36:46.847666 18407 base_data_layer.cpp:79] Prefetch finishaed
I0510 21:36:46.847693 18407 net.cpp:150] Setting up data
I0510 21:36:46.847702 18407 net.cpp:157] Top shape: 4 3 300 300 (1080000)
I0510 21:36:46.847707 18407 net.cpp:157] Top shape: 1 1 3 8 (24)
I0510 21:36:46.847709 18407 net.cpp:157] Top shape: 1 3 10 10 (300)
I0510 21:36:46.847712 18407 net.cpp:165] Memory required for data: 4321296
I0510 21:36:46.847762 18407 layer_factory.hpp:77] Creating layer data_data_0_split
I0510 21:36:46.847772 18407 net.cpp:100] Creating Layer data_data_0_split
I0510 21:36:46.847782 18407 net.cpp:434] data_data_0_split <- data
I0510 21:36:46.847795 18407 net.cpp:408] data_data_0_split -> data_data_0_split_0
I0510 21:36:46.847807 18407 net.cpp:408] data_data_0_split -> data_data_0_split_1
I0510 21:36:46.847815 18407 net.cpp:408] data_data_0_split -> data_data_0_split_2
I0510 21:36:46.847820 18407 net.cpp:408] data_data_0_split -> data_data_0_split_3
I0510 21:36:46.847826 18407 net.cpp:408] data_data_0_split -> data_data_0_split_4
I0510 21:36:46.847831 18407 net.cpp:408] data_data_0_split -> data_data_0_split_5
I0510 21:36:46.847836 18407 net.cpp:408] data_data_0_split -> data_data_0_split_6
I0510 21:36:46.847924 18407 net.cpp:150] Setting up data_data_0_split
I0510 21:36:46.847931 18407 net.cpp:157] Top shape: 4 3 300 300 (1080000)
I0510 21:36:46.847947 18407 net.cpp:157] Top shape: 4 3 300 300 (1080000)
I0510 21:36:46.847950 18407 net.cpp:157] Top shape: 4 3 300 300 (1080000)
I0510 21:36:46.847952 18407 net.cpp:157] Top shape: 4 3 300 300 (1080000)
I0510 21:36:46.847956 18407 net.cpp:157] Top shape: 4 3 300 300 (1080000)
I0510 21:36:46.847978 18407 net.cpp:157] Top shape: 4 3 300 300 (1080000)
I0510 21:36:46.847981 18407 net.cpp:157] Top shape: 4 3 300 300 (1080000)
I0510 21:36:46.847983 18407 net.cpp:165] Memory required for data: 34561296
I0510 21:36:46.847986 18407 layer_factory.hpp:77] Creating layer conv1_1
I0510 21:36:46.848012 18407 net.cpp:100] Creating Layer conv1_1
I0510 21:36:46.848016 18407 net.cpp:434] conv1_1 <- data_data_0_split_0
I0510 21:36:46.848021 18407 net.cpp:408] conv1_1 -> conv1_1
I0510 21:36:46.848917 18407 net.cpp:150] Setting up conv1_1
I0510 21:36:46.848932 18407 net.cpp:157] Top shape: 4 64 300 300 (23040000)
I0510 21:36:46.848933 18407 net.cpp:165] Memory required for data: 126721296
I0510 21:36:46.848964 18407 layer_factory.hpp:77] Creating layer relu1_1
I0510 21:36:46.848979 18407 net.cpp:100] Creating Layer relu1_1
I0510 21:36:46.849001 18407 net.cpp:434] relu1_1 <- conv1_1
I0510 21:36:46.849005 18407 net.cpp:395] relu1_1 -> conv1_1 (in-place)
I0510 21:36:46.849027 18407 net.cpp:150] Setting up relu1_1
I0510 21:36:46.849046 18407 net.cpp:157] Top shape: 4 64 300 300 (23040000)
I0510 21:36:46.849048 18407 net.cpp:165] Memory required for data: 218881296
I0510 21:36:46.849051 18407 layer_factory.hpp:77] Creating layer conv1_2
I0510 21:36:46.849059 18407 net.cpp:100] Creating Layer conv1_2
I0510 21:36:46.849063 18407 net.cpp:434] conv1_2 <- conv1_1
I0510 21:36:46.849067 18407 net.cpp:408] conv1_2 -> conv1_2
I0510 21:36:46.849735 18407 net.cpp:150] Setting up conv1_2
I0510 21:36:46.849745 18407 net.cpp:157] Top shape: 4 64 300 300 (23040000)
I0510 21:36:46.849750 18407 net.cpp:165] Memory required for data: 311041296
I0510 21:36:46.849756 18407 layer_factory.hpp:77] Creating layer relu1_2
I0510 21:36:46.849778 18407 net.cpp:100] Creating Layer relu1_2
I0510 21:36:46.849781 18407 net.cpp:434] relu1_2 <- conv1_2
I0510 21:36:46.849786 18407 net.cpp:395] relu1_2 -> conv1_2 (in-place)
I0510 21:36:46.849792 18407 net.cpp:150] Setting up relu1_2
I0510 21:36:46.849794 18407 net.cpp:157] Top shape: 4 64 300 300 (23040000)
I0510 21:36:46.849797 18407 net.cpp:165] Memory required for data: 403201296
I0510 21:36:46.849799 18407 layer_factory.hpp:77] Creating layer pool1
I0510 21:36:46.849803 18407 net.cpp:100] Creating Layer pool1
I0510 21:36:46.849805 18407 net.cpp:434] pool1 <- conv1_2
I0510 21:36:46.849810 18407 net.cpp:408] pool1 -> pool1
I0510 21:36:46.849858 18407 net.cpp:150] Setting up pool1
I0510 21:36:46.849864 18407 net.cpp:157] Top shape: 4 64 150 150 (5760000)
I0510 21:36:46.849867 18407 net.cpp:165] Memory required for data: 426241296
I0510 21:36:46.849869 18407 layer_factory.hpp:77] Creating layer conv2_1
I0510 21:36:46.849876 18407 net.cpp:100] Creating Layer conv2_1
I0510 21:36:46.849880 18407 net.cpp:434] conv2_1 <- pool1
I0510 21:36:46.849884 18407 net.cpp:408] conv2_1 -> conv2_1
I0510 21:36:46.850391 18407 net.cpp:150] Setting up conv2_1
I0510 21:36:46.850399 18407 net.cpp:157] Top shape: 4 128 150 150 (11520000)
I0510 21:36:46.850401 18407 net.cpp:165] Memory required for data: 472321296
I0510 21:36:46.850410 18407 layer_factory.hpp:77] Creating layer relu2_1
I0510 21:36:46.850435 18407 net.cpp:100] Creating Layer relu2_1
I0510 21:36:46.850440 18407 net.cpp:434] relu2_1 <- conv2_1
I0510 21:36:46.850442 18407 net.cpp:395] relu2_1 -> conv2_1 (in-place)
I0510 21:36:46.850447 18407 net.cpp:150] Setting up relu2_1
I0510 21:36:46.850450 18407 net.cpp:157] Top shape: 4 128 150 150 (11520000)
I0510 21:36:46.850453 18407 net.cpp:165] Memory required for data: 518401296
I0510 21:36:46.850455 18407 layer_factory.hpp:77] Creating layer conv2_2
I0510 21:36:46.850461 18407 net.cpp:100] Creating Layer conv2_2
I0510 21:36:46.850464 18407 net.cpp:434] conv2_2 <- conv2_1
I0510 21:36:46.850469 18407 net.cpp:408] conv2_2 -> conv2_2
I0510 21:36:46.851640 18407 net.cpp:150] Setting up conv2_2
I0510 21:36:46.851651 18407 net.cpp:157] Top shape: 4 128 150 150 (11520000)
I0510 21:36:46.851653 18407 net.cpp:165] Memory required for data: 564481296
I0510 21:36:46.851660 18407 layer_factory.hpp:77] Creating layer relu2_2
I0510 21:36:46.851663 18407 net.cpp:100] Creating Layer relu2_2
I0510 21:36:46.851666 18407 net.cpp:434] relu2_2 <- conv2_2
I0510 21:36:46.851671 18407 net.cpp:395] relu2_2 -> conv2_2 (in-place)
I0510 21:36:46.851676 18407 net.cpp:150] Setting up relu2_2
I0510 21:36:46.851680 18407 net.cpp:157] Top shape: 4 128 150 150 (11520000)
I0510 21:36:46.851681 18407 net.cpp:165] Memory required for data: 610561296
I0510 21:36:46.851683 18407 layer_factory.hpp:77] Creating layer pool2
I0510 21:36:46.851687 18407 net.cpp:100] Creating Layer pool2
I0510 21:36:46.851691 18407 net.cpp:434] pool2 <- conv2_2
I0510 21:36:46.851693 18407 net.cpp:408] pool2 -> pool2
I0510 21:36:46.851722 18407 net.cpp:150] Setting up pool2
I0510 21:36:46.851728 18407 net.cpp:157] Top shape: 4 128 75 75 (2880000)
I0510 21:36:46.851730 18407 net.cpp:165] Memory required for data: 622081296
I0510 21:36:46.851733 18407 layer_factory.hpp:77] Creating layer conv3_1
I0510 21:36:46.851739 18407 net.cpp:100] Creating Layer conv3_1
I0510 21:36:46.851743 18407 net.cpp:434] conv3_1 <- pool2
I0510 21:36:46.851748 18407 net.cpp:408] conv3_1 -> conv3_1
I0510 21:36:46.854526 18407 net.cpp:150] Setting up conv3_1
I0510 21:36:46.854545 18407 net.cpp:157] Top shape: 4 256 75 75 (5760000)
I0510 21:36:46.854548 18407 net.cpp:165] Memory required for data: 645121296
I0510 21:36:46.854560 18407 layer_factory.hpp:77] Creating layer relu3_1
I0510 21:36:46.854567 18407 net.cpp:100] Creating Layer relu3_1
I0510 21:36:46.854569 18407 net.cpp:434] relu3_1 <- conv3_1
I0510 21:36:46.854594 18407 net.cpp:395] relu3_1 -> conv3_1 (in-place)
I0510 21:36:46.854601 18407 net.cpp:150] Setting up relu3_1
I0510 21:36:46.854604 18407 net.cpp:157] Top shape: 4 256 75 75 (5760000)
I0510 21:36:46.854606 18407 net.cpp:165] Memory required for data: 668161296
I0510 21:36:46.854609 18407 layer_factory.hpp:77] Creating layer conv3_2
I0510 21:36:46.854616 18407 net.cpp:100] Creating Layer conv3_2
I0510 21:36:46.854619 18407 net.cpp:434] conv3_2 <- conv3_1
I0510 21:36:46.854637 18407 net.cpp:408] conv3_2 -> conv3_2
I0510 21:36:46.858712 18407 net.cpp:150] Setting up conv3_2
I0510 21:36:46.858736 18407 net.cpp:157] Top shape: 4 256 75 75 (5760000)
I0510 21:36:46.858739 18407 net.cpp:165] Memory required for data: 691201296
I0510 21:36:46.858747 18407 layer_factory.hpp:77] Creating layer relu3_2
I0510 21:36:46.858754 18407 net.cpp:100] Creating Layer relu3_2
I0510 21:36:46.858758 18407 net.cpp:434] relu3_2 <- conv3_2
I0510 21:36:46.858763 18407 net.cpp:395] relu3_2 -> conv3_2 (in-place)
I0510 21:36:46.858788 18407 net.cpp:150] Setting up relu3_2
I0510 21:36:46.858793 18407 net.cpp:157] Top shape: 4 256 75 75 (5760000)
I0510 21:36:46.858794 18407 net.cpp:165] Memory required for data: 714241296
I0510 21:36:46.858796 18407 layer_factory.hpp:77] Creating layer conv3_3
I0510 21:36:46.858808 18407 net.cpp:100] Creating Layer conv3_3
I0510 21:36:46.858836 18407 net.cpp:434] conv3_3 <- conv3_2
I0510 21:36:46.858841 18407 net.cpp:408] conv3_3 -> conv3_3
I0510 21:36:46.862313 18407 net.cpp:150] Setting up conv3_3
I0510 21:36:46.862331 18407 net.cpp:157] Top shape: 4 256 75 75 (5760000)
I0510 21:36:46.862335 18407 net.cpp:165] Memory required for data: 737281296
I0510 21:36:46.862340 18407 layer_factory.hpp:77] Creating layer relu3_3
I0510 21:36:46.862346 18407 net.cpp:100] Creating Layer relu3_3
I0510 21:36:46.862349 18407 net.cpp:434] relu3_3 <- conv3_3
I0510 21:36:46.862373 18407 net.cpp:395] relu3_3 -> conv3_3 (in-place)
I0510 21:36:46.862378 18407 net.cpp:150] Setting up relu3_3
I0510 21:36:46.862381 18407 net.cpp:157] Top shape: 4 256 75 75 (5760000)
I0510 21:36:46.862383 18407 net.cpp:165] Memory required for data: 760321296
I0510 21:36:46.862386 18407 layer_factory.hpp:77] Creating layer pool3
I0510 21:36:46.862392 18407 net.cpp:100] Creating Layer pool3
I0510 21:36:46.862395 18407 net.cpp:434] pool3 <- conv3_3
I0510 21:36:46.862398 18407 net.cpp:408] pool3 -> pool3
I0510 21:36:46.862440 18407 net.cpp:150] Setting up pool3
I0510 21:36:46.862447 18407 net.cpp:157] Top shape: 4 256 38 38 (1478656)
I0510 21:36:46.862449 18407 net.cpp:165] Memory required for data: 766235920
I0510 21:36:46.862452 18407 layer_factory.hpp:77] Creating layer conv4_1
I0510 21:36:46.862458 18407 net.cpp:100] Creating Layer conv4_1
I0510 21:36:46.862462 18407 net.cpp:434] conv4_1 <- pool3
I0510 21:36:46.862467 18407 net.cpp:408] conv4_1 -> conv4_1
I0510 21:36:46.868849 18407 net.cpp:150] Setting up conv4_1
I0510 21:36:46.868872 18407 net.cpp:157] Top shape: 4 512 38 38 (2957312)
I0510 21:36:46.868875 18407 net.cpp:165] Memory required for data: 778065168
I0510 21:36:46.868881 18407 layer_factory.hpp:77] Creating layer relu4_1
I0510 21:36:46.868888 18407 net.cpp:100] Creating Layer relu4_1
I0510 21:36:46.868891 18407 net.cpp:434] relu4_1 <- conv4_1
I0510 21:36:46.868917 18407 net.cpp:395] relu4_1 -> conv4_1 (in-place)
I0510 21:36:46.868924 18407 net.cpp:150] Setting up relu4_1
I0510 21:36:46.868927 18407 net.cpp:157] Top shape: 4 512 38 38 (2957312)
I0510 21:36:46.868930 18407 net.cpp:165] Memory required for data: 789894416
I0510 21:36:46.868932 18407 layer_factory.hpp:77] Creating layer conv4_2
I0510 21:36:46.868940 18407 net.cpp:100] Creating Layer conv4_2
I0510 21:36:46.868942 18407 net.cpp:434] conv4_2 <- conv4_1
I0510 21:36:46.868962 18407 net.cpp:408] conv4_2 -> conv4_2
I0510 21:36:46.881649 18407 net.cpp:150] Setting up conv4_2
I0510 21:36:46.881669 18407 net.cpp:157] Top shape: 4 512 38 38 (2957312)
I0510 21:36:46.881671 18407 net.cpp:165] Memory required for data: 801723664
I0510 21:36:46.881685 18407 layer_factory.hpp:77] Creating layer relu4_2
I0510 21:36:46.881690 18407 net.cpp:100] Creating Layer relu4_2
I0510 21:36:46.881712 18407 net.cpp:434] relu4_2 <- conv4_2
I0510 21:36:46.881717 18407 net.cpp:395] relu4_2 -> conv4_2 (in-place)
I0510 21:36:46.881724 18407 net.cpp:150] Setting up relu4_2
I0510 21:36:46.881728 18407 net.cpp:157] Top shape: 4 512 38 38 (2957312)
I0510 21:36:46.881731 18407 net.cpp:165] Memory required for data: 813552912
I0510 21:36:46.881732 18407 layer_factory.hpp:77] Creating layer conv4_3
I0510 21:36:46.881754 18407 net.cpp:100] Creating Layer conv4_3
I0510 21:36:46.881757 18407 net.cpp:434] conv4_3 <- conv4_2
I0510 21:36:46.881762 18407 net.cpp:408] conv4_3 -> conv4_3
I0510 21:36:46.894963 18407 net.cpp:150] Setting up conv4_3
I0510 21:36:46.894984 18407 net.cpp:157] Top shape: 4 512 38 38 (2957312)
I0510 21:36:46.894987 18407 net.cpp:165] Memory required for data: 825382160
I0510 21:36:46.894994 18407 layer_factory.hpp:77] Creating layer relu4_3
I0510 21:36:46.894999 18407 net.cpp:100] Creating Layer relu4_3
I0510 21:36:46.895004 18407 net.cpp:434] relu4_3 <- conv4_3
I0510 21:36:46.895028 18407 net.cpp:395] relu4_3 -> conv4_3 (in-place)
I0510 21:36:46.895035 18407 net.cpp:150] Setting up relu4_3
I0510 21:36:46.895051 18407 net.cpp:157] Top shape: 4 512 38 38 (2957312)
I0510 21:36:46.895054 18407 net.cpp:165] Memory required for data: 837211408
I0510 21:36:46.895069 18407 layer_factory.hpp:77] Creating layer conv4_3_relu4_3_0_split
I0510 21:36:46.895074 18407 net.cpp:100] Creating Layer conv4_3_relu4_3_0_split
I0510 21:36:46.895076 18407 net.cpp:434] conv4_3_relu4_3_0_split <- conv4_3
I0510 21:36:46.895081 18407 net.cpp:408] conv4_3_relu4_3_0_split -> conv4_3_relu4_3_0_split_0
I0510 21:36:46.895088 18407 net.cpp:408] conv4_3_relu4_3_0_split -> conv4_3_relu4_3_0_split_1
I0510 21:36:46.895120 18407 net.cpp:150] Setting up conv4_3_relu4_3_0_split
I0510 21:36:46.895128 18407 net.cpp:157] Top shape: 4 512 38 38 (2957312)
I0510 21:36:46.895130 18407 net.cpp:157] Top shape: 4 512 38 38 (2957312)
I0510 21:36:46.895133 18407 net.cpp:165] Memory required for data: 860869904
I0510 21:36:46.895135 18407 layer_factory.hpp:77] Creating layer pool4
I0510 21:36:46.895140 18407 net.cpp:100] Creating Layer pool4
I0510 21:36:46.895144 18407 net.cpp:434] pool4 <- conv4_3_relu4_3_0_split_0
I0510 21:36:46.895148 18407 net.cpp:408] pool4 -> pool4
I0510 21:36:46.895175 18407 net.cpp:150] Setting up pool4
I0510 21:36:46.895180 18407 net.cpp:157] Top shape: 4 512 19 19 (739328)
I0510 21:36:46.895184 18407 net.cpp:165] Memory required for data: 863827216
I0510 21:36:46.895186 18407 layer_factory.hpp:77] Creating layer conv5_1
I0510 21:36:46.895193 18407 net.cpp:100] Creating Layer conv5_1
I0510 21:36:46.895196 18407 net.cpp:434] conv5_1 <- pool4
I0510 21:36:46.895207 18407 net.cpp:408] conv5_1 -> conv5_1
I0510 21:36:46.907649 18407 net.cpp:150] Setting up conv5_1
I0510 21:36:46.907671 18407 net.cpp:157] Top shape: 4 512 19 19 (739328)
I0510 21:36:46.907675 18407 net.cpp:165] Memory required for data: 866784528
I0510 21:36:46.907681 18407 layer_factory.hpp:77] Creating layer relu5_1
I0510 21:36:46.907688 18407 net.cpp:100] Creating Layer relu5_1
I0510 21:36:46.907691 18407 net.cpp:434] relu5_1 <- conv5_1
I0510 21:36:46.907716 18407 net.cpp:395] relu5_1 -> conv5_1 (in-place)
I0510 21:36:46.907737 18407 net.cpp:150] Setting up relu5_1
I0510 21:36:46.907740 18407 net.cpp:157] Top shape: 4 512 19 19 (739328)
I0510 21:36:46.907742 18407 net.cpp:165] Memory required for data: 869741840
I0510 21:36:46.907745 18407 layer_factory.hpp:77] Creating layer conv5_2
I0510 21:36:46.907753 18407 net.cpp:100] Creating Layer conv5_2
I0510 21:36:46.907755 18407 net.cpp:434] conv5_2 <- conv5_1
I0510 21:36:46.907760 18407 net.cpp:408] conv5_2 -> conv5_2
I0510 21:36:46.920471 18407 net.cpp:150] Setting up conv5_2
I0510 21:36:46.920493 18407 net.cpp:157] Top shape: 4 512 19 19 (739328)
I0510 21:36:46.920496 18407 net.cpp:165] Memory required for data: 872699152
I0510 21:36:46.920502 18407 layer_factory.hpp:77] Creating layer relu5_2
I0510 21:36:46.920508 18407 net.cpp:100] Creating Layer relu5_2
I0510 21:36:46.920531 18407 net.cpp:434] relu5_2 <- conv5_2
I0510 21:36:46.920536 18407 net.cpp:395] relu5_2 -> conv5_2 (in-place)
I0510 21:36:46.920542 18407 net.cpp:150] Setting up relu5_2
I0510 21:36:46.920544 18407 net.cpp:157] Top shape: 4 512 19 19 (739328)
I0510 21:36:46.920547 18407 net.cpp:165] Memory required for data: 875656464
I0510 21:36:46.920549 18407 layer_factory.hpp:77] Creating layer conv5_3
I0510 21:36:46.920570 18407 net.cpp:100] Creating Layer conv5_3
I0510 21:36:46.920572 18407 net.cpp:434] conv5_3 <- conv5_2
I0510 21:36:46.920578 18407 net.cpp:408] conv5_3 -> conv5_3
I0510 21:36:46.933429 18407 net.cpp:150] Setting up conv5_3
I0510 21:36:46.933449 18407 net.cpp:157] Top shape: 4 512 19 19 (739328)
I0510 21:36:46.933451 18407 net.cpp:165] Memory required for data: 878613776
I0510 21:36:46.933459 18407 layer_factory.hpp:77] Creating layer relu5_3
I0510 21:36:46.933487 18407 net.cpp:100] Creating Layer relu5_3
I0510 21:36:46.933495 18407 net.cpp:434] relu5_3 <- conv5_3
I0510 21:36:46.933501 18407 net.cpp:395] relu5_3 -> conv5_3 (in-place)
I0510 21:36:46.933507 18407 net.cpp:150] Setting up relu5_3
I0510 21:36:46.933511 18407 net.cpp:157] Top shape: 4 512 19 19 (739328)
I0510 21:36:46.933512 18407 net.cpp:165] Memory required for data: 881571088
I0510 21:36:46.933516 18407 layer_factory.hpp:77] Creating layer pool5
I0510 21:36:46.933545 18407 net.cpp:100] Creating Layer pool5
I0510 21:36:46.933548 18407 net.cpp:434] pool5 <- conv5_3
I0510 21:36:46.933552 18407 net.cpp:408] pool5 -> pool5
I0510 21:36:46.933583 18407 net.cpp:150] Setting up pool5
I0510 21:36:46.933590 18407 net.cpp:157] Top shape: 4 512 19 19 (739328)
I0510 21:36:46.933593 18407 net.cpp:165] Memory required for data: 884528400
I0510 21:36:46.933595 18407 layer_factory.hpp:77] Creating layer fc6
I0510 21:36:46.933604 18407 net.cpp:100] Creating Layer fc6
I0510 21:36:46.933606 18407 net.cpp:434] fc6 <- pool5
I0510 21:36:46.933625 18407 net.cpp:408] fc6 -> fc6
I0510 21:36:46.959147 18407 net.cpp:150] Setting up fc6
I0510 21:36:46.959189 18407 net.cpp:157] Top shape: 4 1024 19 19 (1478656)
I0510 21:36:46.959192 18407 net.cpp:165] Memory required for data: 890443024
I0510 21:36:46.959200 18407 layer_factory.hpp:77] Creating layer relu6
I0510 21:36:46.959226 18407 net.cpp:100] Creating Layer relu6
I0510 21:36:46.959230 18407 net.cpp:434] relu6 <- fc6
I0510 21:36:46.959239 18407 net.cpp:395] relu6 -> fc6 (in-place)
I0510 21:36:46.959246 18407 net.cpp:150] Setting up relu6
I0510 21:36:46.959249 18407 net.cpp:157] Top shape: 4 1024 19 19 (1478656)
I0510 21:36:46.959251 18407 net.cpp:165] Memory required for data: 896357648
I0510 21:36:46.959254 18407 layer_factory.hpp:77] Creating layer fc7
I0510 21:36:46.959262 18407 net.cpp:100] Creating Layer fc7
I0510 21:36:46.959265 18407 net.cpp:434] fc7 <- fc6
I0510 21:36:46.959270 18407 net.cpp:408] fc7 -> fc7
I0510 21:36:46.964944 18407 net.cpp:150] Setting up fc7
I0510 21:36:46.964972 18407 net.cpp:157] Top shape: 4 1024 19 19 (1478656)
I0510 21:36:46.964975 18407 net.cpp:165] Memory required for data: 902272272
I0510 21:36:46.964982 18407 layer_factory.hpp:77] Creating layer relu7
I0510 21:36:46.964988 18407 net.cpp:100] Creating Layer relu7
I0510 21:36:46.964993 18407 net.cpp:434] relu7 <- fc7
I0510 21:36:46.965015 18407 net.cpp:395] relu7 -> fc7 (in-place)
I0510 21:36:46.965021 18407 net.cpp:150] Setting up relu7
I0510 21:36:46.965025 18407 net.cpp:157] Top shape: 4 1024 19 19 (1478656)
I0510 21:36:46.965028 18407 net.cpp:165] Memory required for data: 908186896
I0510 21:36:46.965029 18407 layer_factory.hpp:77] Creating layer fc7_relu7_0_split
I0510 21:36:46.965036 18407 net.cpp:100] Creating Layer fc7_relu7_0_split
I0510 21:36:46.965039 18407 net.cpp:434] fc7_relu7_0_split <- fc7
I0510 21:36:46.965044 18407 net.cpp:408] fc7_relu7_0_split -> fc7_relu7_0_split_0
I0510 21:36:46.965054 18407 net.cpp:408] fc7_relu7_0_split -> fc7_relu7_0_split_1
I0510 21:36:46.965073 18407 net.cpp:408] fc7_relu7_0_split -> fc7_relu7_0_split_2
I0510 21:36:46.965080 18407 net.cpp:408] fc7_relu7_0_split -> fc7_relu7_0_split_3
I0510 21:36:46.965083 18407 net.cpp:408] fc7_relu7_0_split -> fc7_relu7_0_split_4
I0510 21:36:46.965137 18407 net.cpp:150] Setting up fc7_relu7_0_split
I0510 21:36:46.965157 18407 net.cpp:157] Top shape: 4 1024 19 19 (1478656)
I0510 21:36:46.965160 18407 net.cpp:157] Top shape: 4 1024 19 19 (1478656)
I0510 21:36:46.965163 18407 net.cpp:157] Top shape: 4 1024 19 19 (1478656)
I0510 21:36:46.965167 18407 net.cpp:157] Top shape: 4 1024 19 19 (1478656)
I0510 21:36:46.965168 18407 net.cpp:157] Top shape: 4 1024 19 19 (1478656)
I0510 21:36:46.965190 18407 net.cpp:165] Memory required for data: 937760016
I0510 21:36:46.965193 18407 layer_factory.hpp:77] Creating layer conv6_1
I0510 21:36:46.965200 18407 net.cpp:100] Creating Layer conv6_1
I0510 21:36:46.965204 18407 net.cpp:434] conv6_1 <- fc7_relu7_0_split_0
I0510 21:36:46.965209 18407 net.cpp:408] conv6_1 -> conv6_1
I0510 21:36:46.966850 18407 net.cpp:150] Setting up conv6_1
I0510 21:36:46.966859 18407 net.cpp:157] Top shape: 4 256 19 19 (369664)
I0510 21:36:46.966862 18407 net.cpp:165] Memory required for data: 939238672
I0510 21:36:46.966867 18407 layer_factory.hpp:77] Creating layer conv6_1_relu
I0510 21:36:46.966872 18407 net.cpp:100] Creating Layer conv6_1_relu
I0510 21:36:46.966876 18407 net.cpp:434] conv6_1_relu <- conv6_1
I0510 21:36:46.966912 18407 net.cpp:395] conv6_1_relu -> conv6_1 (in-place)
I0510 21:36:46.966931 18407 net.cpp:150] Setting up conv6_1_relu
I0510 21:36:46.966934 18407 net.cpp:157] Top shape: 4 256 19 19 (369664)
I0510 21:36:46.966936 18407 net.cpp:165] Memory required for data: 940717328
I0510 21:36:46.966939 18407 layer_factory.hpp:77] Creating layer conv6_2
I0510 21:36:46.966946 18407 net.cpp:100] Creating Layer conv6_2
I0510 21:36:46.966948 18407 net.cpp:434] conv6_2 <- conv6_1
I0510 21:36:46.966954 18407 net.cpp:408] conv6_2 -> conv6_2
I0510 21:36:46.973356 18407 net.cpp:150] Setting up conv6_2
I0510 21:36:46.973381 18407 net.cpp:157] Top shape: 4 512 10 10 (204800)
I0510 21:36:46.973383 18407 net.cpp:165] Memory required for data: 941536528
I0510 21:36:46.973397 18407 layer_factory.hpp:77] Creating layer conv6_2_relu
I0510 21:36:46.973423 18407 net.cpp:100] Creating Layer conv6_2_relu
I0510 21:36:46.973426 18407 net.cpp:434] conv6_2_relu <- conv6_2
I0510 21:36:46.973431 18407 net.cpp:395] conv6_2_relu -> conv6_2 (in-place)
I0510 21:36:46.973438 18407 net.cpp:150] Setting up conv6_2_relu
I0510 21:36:46.973441 18407 net.cpp:157] Top shape: 4 512 10 10 (204800)
I0510 21:36:46.973444 18407 net.cpp:165] Memory required for data: 942355728
I0510 21:36:46.973446 18407 layer_factory.hpp:77] Creating layer conv6_2_conv6_2_relu_0_split
I0510 21:36:46.973451 18407 net.cpp:100] Creating Layer conv6_2_conv6_2_relu_0_split
I0510 21:36:46.973454 18407 net.cpp:434] conv6_2_conv6_2_relu_0_split <- conv6_2
I0510 21:36:46.973459 18407 net.cpp:408] conv6_2_conv6_2_relu_0_split -> conv6_2_conv6_2_relu_0_split_0
I0510 21:36:46.973465 18407 net.cpp:408] conv6_2_conv6_2_relu_0_split -> conv6_2_conv6_2_relu_0_split_1
I0510 21:36:46.973470 18407 net.cpp:408] conv6_2_conv6_2_relu_0_split -> conv6_2_conv6_2_relu_0_split_2
I0510 21:36:46.973474 18407 net.cpp:408] conv6_2_conv6_2_relu_0_split -> conv6_2_conv6_2_relu_0_split_3
I0510 21:36:46.973479 18407 net.cpp:408] conv6_2_conv6_2_relu_0_split -> conv6_2_conv6_2_relu_0_split_4
I0510 21:36:46.973551 18407 net.cpp:150] Setting up conv6_2_conv6_2_relu_0_split
I0510 21:36:46.973558 18407 net.cpp:157] Top shape: 4 512 10 10 (204800)
I0510 21:36:46.973562 18407 net.cpp:157] Top shape: 4 512 10 10 (204800)
I0510 21:36:46.973578 18407 net.cpp:157] Top shape: 4 512 10 10 (204800)
I0510 21:36:46.973580 18407 net.cpp:157] Top shape: 4 512 10 10 (204800)
I0510 21:36:46.973583 18407 net.cpp:157] Top shape: 4 512 10 10 (204800)
I0510 21:36:46.973585 18407 net.cpp:165] Memory required for data: 946451728
I0510 21:36:46.973606 18407 layer_factory.hpp:77] Creating layer conv7_1
I0510 21:36:46.973615 18407 net.cpp:100] Creating Layer conv7_1
I0510 21:36:46.973618 18407 net.cpp:434] conv7_1 <- conv6_2_conv6_2_relu_0_split_0
I0510 21:36:46.973637 18407 net.cpp:408] conv7_1 -> conv7_1
I0510 21:36:46.974103 18407 net.cpp:150] Setting up conv7_1
I0510 21:36:46.974110 18407 net.cpp:157] Top shape: 4 128 10 10 (51200)
I0510 21:36:46.974112 18407 net.cpp:165] Memory required for data: 946656528
I0510 21:36:46.974117 18407 layer_factory.hpp:77] Creating layer conv7_1_relu
I0510 21:36:46.974122 18407 net.cpp:100] Creating Layer conv7_1_relu
I0510 21:36:46.974124 18407 net.cpp:434] conv7_1_relu <- conv7_1
I0510 21:36:46.974148 18407 net.cpp:395] conv7_1_relu -> conv7_1 (in-place)
I0510 21:36:46.974151 18407 net.cpp:150] Setting up conv7_1_relu
I0510 21:36:46.974154 18407 net.cpp:157] Top shape: 4 128 10 10 (51200)
I0510 21:36:46.974158 18407 net.cpp:165] Memory required for data: 946861328
I0510 21:36:46.974159 18407 layer_factory.hpp:77] Creating layer conv7_2
I0510 21:36:46.974165 18407 net.cpp:100] Creating Layer conv7_2
I0510 21:36:46.974169 18407 net.cpp:434] conv7_2 <- conv7_1
I0510 21:36:46.974174 18407 net.cpp:408] conv7_2 -> conv7_2
I0510 21:36:46.975973 18407 net.cpp:150] Setting up conv7_2
I0510 21:36:46.975985 18407 net.cpp:157] Top shape: 4 256 5 5 (25600)
I0510 21:36:46.975987 18407 net.cpp:165] Memory required for data: 946963728
I0510 21:36:46.975994 18407 layer_factory.hpp:77] Creating layer conv7_2_relu
I0510 21:36:46.976030 18407 net.cpp:100] Creating Layer conv7_2_relu
I0510 21:36:46.976047 18407 net.cpp:434] conv7_2_relu <- conv7_2
I0510 21:36:46.976053 18407 net.cpp:395] conv7_2_relu -> conv7_2 (in-place)
I0510 21:36:46.976059 18407 net.cpp:150] Setting up conv7_2_relu
I0510 21:36:46.976063 18407 net.cpp:157] Top shape: 4 256 5 5 (25600)
I0510 21:36:46.976064 18407 net.cpp:165] Memory required for data: 947066128
I0510 21:36:46.976068 18407 layer_factory.hpp:77] Creating layer conv7_2_conv7_2_relu_0_split
I0510 21:36:46.976071 18407 net.cpp:100] Creating Layer conv7_2_conv7_2_relu_0_split
I0510 21:36:46.976073 18407 net.cpp:434] conv7_2_conv7_2_relu_0_split <- conv7_2
I0510 21:36:46.976079 18407 net.cpp:408] conv7_2_conv7_2_relu_0_split -> conv7_2_conv7_2_relu_0_split_0
I0510 21:36:46.976085 18407 net.cpp:408] conv7_2_conv7_2_relu_0_split -> conv7_2_conv7_2_relu_0_split_1
I0510 21:36:46.976090 18407 net.cpp:408] conv7_2_conv7_2_relu_0_split -> conv7_2_conv7_2_relu_0_split_2
I0510 21:36:46.976094 18407 net.cpp:408] conv7_2_conv7_2_relu_0_split -> conv7_2_conv7_2_relu_0_split_3
I0510 21:36:46.976099 18407 net.cpp:408] conv7_2_conv7_2_relu_0_split -> conv7_2_conv7_2_relu_0_split_4
I0510 21:36:46.976156 18407 net.cpp:150] Setting up conv7_2_conv7_2_relu_0_split
I0510 21:36:46.976162 18407 net.cpp:157] Top shape: 4 256 5 5 (25600)
I0510 21:36:46.976166 18407 net.cpp:157] Top shape: 4 256 5 5 (25600)
I0510 21:36:46.976168 18407 net.cpp:157] Top shape: 4 256 5 5 (25600)
I0510 21:36:46.976172 18407 net.cpp:157] Top shape: 4 256 5 5 (25600)
I0510 21:36:46.976187 18407 net.cpp:157] Top shape: 4 256 5 5 (25600)
I0510 21:36:46.976191 18407 net.cpp:165] Memory required for data: 947578128
I0510 21:36:46.976192 18407 layer_factory.hpp:77] Creating layer conv8_1
I0510 21:36:46.976217 18407 net.cpp:100] Creating Layer conv8_1
I0510 21:36:46.976220 18407 net.cpp:434] conv8_1 <- conv7_2_conv7_2_relu_0_split_0
I0510 21:36:46.976227 18407 net.cpp:408] conv8_1 -> conv8_1
I0510 21:36:46.976546 18407 net.cpp:150] Setting up conv8_1
I0510 21:36:46.976552 18407 net.cpp:157] Top shape: 4 128 5 5 (12800)
I0510 21:36:46.976555 18407 net.cpp:165] Memory required for data: 947629328
I0510 21:36:46.976559 18407 layer_factory.hpp:77] Creating layer conv8_1_relu
I0510 21:36:46.976562 18407 net.cpp:100] Creating Layer conv8_1_relu
I0510 21:36:46.976565 18407 net.cpp:434] conv8_1_relu <- conv8_1
I0510 21:36:46.976588 18407 net.cpp:395] conv8_1_relu -> conv8_1 (in-place)
I0510 21:36:46.976593 18407 net.cpp:150] Setting up conv8_1_relu
I0510 21:36:46.976596 18407 net.cpp:157] Top shape: 4 128 5 5 (12800)
I0510 21:36:46.976598 18407 net.cpp:165] Memory required for data: 947680528
I0510 21:36:46.976614 18407 layer_factory.hpp:77] Creating layer conv8_2
I0510 21:36:46.976620 18407 net.cpp:100] Creating Layer conv8_2
I0510 21:36:46.976624 18407 net.cpp:434] conv8_2 <- conv8_1
I0510 21:36:46.976627 18407 net.cpp:408] conv8_2 -> conv8_2
I0510 21:36:46.978473 18407 net.cpp:150] Setting up conv8_2
I0510 21:36:46.978487 18407 net.cpp:157] Top shape: 4 256 3 3 (9216)
I0510 21:36:46.978489 18407 net.cpp:165] Memory required for data: 947717392
I0510 21:36:46.978494 18407 layer_factory.hpp:77] Creating layer conv8_2_relu
I0510 21:36:46.978499 18407 net.cpp:100] Creating Layer conv8_2_relu
I0510 21:36:46.978502 18407 net.cpp:434] conv8_2_relu <- conv8_2
I0510 21:36:46.978524 18407 net.cpp:395] conv8_2_relu -> conv8_2 (in-place)
I0510 21:36:46.978529 18407 net.cpp:150] Setting up conv8_2_relu
I0510 21:36:46.978533 18407 net.cpp:157] Top shape: 4 256 3 3 (9216)
I0510 21:36:46.978534 18407 net.cpp:165] Memory required for data: 947754256
I0510 21:36:46.978549 18407 layer_factory.hpp:77] Creating layer conv8_2_conv8_2_relu_0_split
I0510 21:36:46.978555 18407 net.cpp:100] Creating Layer conv8_2_conv8_2_relu_0_split
I0510 21:36:46.978559 18407 net.cpp:434] conv8_2_conv8_2_relu_0_split <- conv8_2
I0510 21:36:46.978562 18407 net.cpp:408] conv8_2_conv8_2_relu_0_split -> conv8_2_conv8_2_relu_0_split_0
I0510 21:36:46.978569 18407 net.cpp:408] conv8_2_conv8_2_relu_0_split -> conv8_2_conv8_2_relu_0_split_1
I0510 21:36:46.978582 18407 net.cpp:408] conv8_2_conv8_2_relu_0_split -> conv8_2_conv8_2_relu_0_split_2
I0510 21:36:46.978587 18407 net.cpp:408] conv8_2_conv8_2_relu_0_split -> conv8_2_conv8_2_relu_0_split_3
I0510 21:36:46.978591 18407 net.cpp:408] conv8_2_conv8_2_relu_0_split -> conv8_2_conv8_2_relu_0_split_4
I0510 21:36:46.978648 18407 net.cpp:150] Setting up conv8_2_conv8_2_relu_0_split
I0510 21:36:46.978657 18407 net.cpp:157] Top shape: 4 256 3 3 (9216)
I0510 21:36:46.978659 18407 net.cpp:157] Top shape: 4 256 3 3 (9216)
I0510 21:36:46.978662 18407 net.cpp:157] Top shape: 4 256 3 3 (9216)
I0510 21:36:46.978665 18407 net.cpp:157] Top shape: 4 256 3 3 (9216)
I0510 21:36:46.978668 18407 net.cpp:157] Top shape: 4 256 3 3 (9216)
I0510 21:36:46.978670 18407 net.cpp:165] Memory required for data: 947938576
I0510 21:36:46.978672 18407 layer_factory.hpp:77] Creating layer conv9_1
I0510 21:36:46.978679 18407 net.cpp:100] Creating Layer conv9_1
I0510 21:36:46.978704 18407 net.cpp:434] conv9_1 <- conv8_2_conv8_2_relu_0_split_0
I0510 21:36:46.978709 18407 net.cpp:408] conv9_1 -> conv9_1
I0510 21:36:46.979041 18407 net.cpp:150] Setting up conv9_1
I0510 21:36:46.979048 18407 net.cpp:157] Top shape: 4 128 3 3 (4608)
I0510 21:36:46.979050 18407 net.cpp:165] Memory required for data: 947957008
I0510 21:36:46.979054 18407 layer_factory.hpp:77] Creating layer conv9_1_relu
I0510 21:36:46.979058 18407 net.cpp:100] Creating Layer conv9_1_relu
I0510 21:36:46.979060 18407 net.cpp:434] conv9_1_relu <- conv9_1
I0510 21:36:46.979084 18407 net.cpp:395] conv9_1_relu -> conv9_1 (in-place)
I0510 21:36:46.979089 18407 net.cpp:150] Setting up conv9_1_relu
I0510 21:36:46.979092 18407 net.cpp:157] Top shape: 4 128 3 3 (4608)
I0510 21:36:46.979094 18407 net.cpp:165] Memory required for data: 947975440
I0510 21:36:46.979096 18407 layer_factory.hpp:77] Creating layer conv9_2
I0510 21:36:46.979102 18407 net.cpp:100] Creating Layer conv9_2
I0510 21:36:46.979105 18407 net.cpp:434] conv9_2 <- conv9_1
I0510 21:36:46.979110 18407 net.cpp:408] conv9_2 -> conv9_2
I0510 21:36:46.980888 18407 net.cpp:150] Setting up conv9_2
I0510 21:36:46.980898 18407 net.cpp:157] Top shape: 4 256 1 1 (1024)
I0510 21:36:46.980901 18407 net.cpp:165] Memory required for data: 947979536
I0510 21:36:46.980906 18407 layer_factory.hpp:77] Creating layer conv9_2_relu
I0510 21:36:46.980911 18407 net.cpp:100] Creating Layer conv9_2_relu
I0510 21:36:46.980931 18407 net.cpp:434] conv9_2_relu <- conv9_2
I0510 21:36:46.980936 18407 net.cpp:395] conv9_2_relu -> conv9_2 (in-place)
I0510 21:36:46.980940 18407 net.cpp:150] Setting up conv9_2_relu
I0510 21:36:46.980944 18407 net.cpp:157] Top shape: 4 256 1 1 (1024)
I0510 21:36:46.980947 18407 net.cpp:165] Memory required for data: 947983632
I0510 21:36:46.980948 18407 layer_factory.hpp:77] Creating layer conv9_2_conv9_2_relu_0_split
I0510 21:36:46.980953 18407 net.cpp:100] Creating Layer conv9_2_conv9_2_relu_0_split
I0510 21:36:46.980957 18407 net.cpp:434] conv9_2_conv9_2_relu_0_split <- conv9_2
I0510 21:36:46.980959 18407 net.cpp:408] conv9_2_conv9_2_relu_0_split -> conv9_2_conv9_2_relu_0_split_0
I0510 21:36:46.980969 18407 net.cpp:408] conv9_2_conv9_2_relu_0_split -> conv9_2_conv9_2_relu_0_split_1
I0510 21:36:46.980975 18407 net.cpp:408] conv9_2_conv9_2_relu_0_split -> conv9_2_conv9_2_relu_0_split_2
I0510 21:36:46.981000 18407 net.cpp:408] conv9_2_conv9_2_relu_0_split -> conv9_2_conv9_2_relu_0_split_3
I0510 21:36:46.981076 18407 net.cpp:150] Setting up conv9_2_conv9_2_relu_0_split
I0510 21:36:46.981081 18407 net.cpp:157] Top shape: 4 256 1 1 (1024)
I0510 21:36:46.981084 18407 net.cpp:157] Top shape: 4 256 1 1 (1024)
I0510 21:36:46.981088 18407 net.cpp:157] Top shape: 4 256 1 1 (1024)
I0510 21:36:46.981091 18407 net.cpp:157] Top shape: 4 256 1 1 (1024)
I0510 21:36:46.981093 18407 net.cpp:165] Memory required for data: 948000016
I0510 21:36:46.981096 18407 layer_factory.hpp:77] Creating layer conv4_3_norm
I0510 21:36:46.981101 18407 net.cpp:100] Creating Layer conv4_3_norm
I0510 21:36:46.981104 18407 net.cpp:434] conv4_3_norm <- conv4_3_relu4_3_0_split_1
I0510 21:36:46.981120 18407 net.cpp:408] conv4_3_norm -> conv4_3_norm
I0510 21:36:46.981238 18407 net.cpp:150] Setting up conv4_3_norm
I0510 21:36:46.981245 18407 net.cpp:157] Top shape: 4 512 38 38 (2957312)
I0510 21:36:46.981247 18407 net.cpp:165] Memory required for data: 959829264
I0510 21:36:46.981264 18407 layer_factory.hpp:77] Creating layer conv4_3_norm_conv4_3_norm_0_split
I0510 21:36:46.981271 18407 net.cpp:100] Creating Layer conv4_3_norm_conv4_3_norm_0_split
I0510 21:36:46.981292 18407 net.cpp:434] conv4_3_norm_conv4_3_norm_0_split <- conv4_3_norm
I0510 21:36:46.981297 18407 net.cpp:408] conv4_3_norm_conv4_3_norm_0_split -> conv4_3_norm_conv4_3_norm_0_split_0
I0510 21:36:46.981302 18407 net.cpp:408] conv4_3_norm_conv4_3_norm_0_split -> conv4_3_norm_conv4_3_norm_0_split_1
I0510 21:36:46.981305 18407 net.cpp:408] conv4_3_norm_conv4_3_norm_0_split -> conv4_3_norm_conv4_3_norm_0_split_2
I0510 21:36:46.981310 18407 net.cpp:408] conv4_3_norm_conv4_3_norm_0_split -> conv4_3_norm_conv4_3_norm_0_split_3
I0510 21:36:46.981364 18407 net.cpp:150] Setting up conv4_3_norm_conv4_3_norm_0_split
I0510 21:36:46.981369 18407 net.cpp:157] Top shape: 4 512 38 38 (2957312)
I0510 21:36:46.981372 18407 net.cpp:157] Top shape: 4 512 38 38 (2957312)
I0510 21:36:46.981376 18407 net.cpp:157] Top shape: 4 512 38 38 (2957312)
I0510 21:36:46.981379 18407 net.cpp:157] Top shape: 4 512 38 38 (2957312)
I0510 21:36:46.981380 18407 net.cpp:165] Memory required for data: 1007146256
I0510 21:36:46.981384 18407 layer_factory.hpp:77] Creating layer conv4_3_norm_mbox_loc
I0510 21:36:46.981395 18407 net.cpp:100] Creating Layer conv4_3_norm_mbox_loc
I0510 21:36:46.981418 18407 net.cpp:434] conv4_3_norm_mbox_loc <- conv4_3_norm_conv4_3_norm_0_split_0
I0510 21:36:46.981423 18407 net.cpp:408] conv4_3_norm_mbox_loc -> conv4_3_norm_mbox_loc
I0510 21:36:46.981945 18407 net.cpp:150] Setting up conv4_3_norm_mbox_loc
I0510 21:36:46.981951 18407 net.cpp:157] Top shape: 4 16 38 38 (92416)
I0510 21:36:46.981955 18407 net.cpp:165] Memory required for data: 1007515920
I0510 21:36:46.981958 18407 layer_factory.hpp:77] Creating layer conv4_3_norm_mbox_loc_perm
I0510 21:36:46.981963 18407 net.cpp:100] Creating Layer conv4_3_norm_mbox_loc_perm
I0510 21:36:46.981967 18407 net.cpp:434] conv4_3_norm_mbox_loc_perm <- conv4_3_norm_mbox_loc
I0510 21:36:46.981989 18407 net.cpp:408] conv4_3_norm_mbox_loc_perm -> conv4_3_norm_mbox_loc_perm
I0510 21:36:46.982089 18407 net.cpp:150] Setting up conv4_3_norm_mbox_loc_perm
I0510 21:36:46.982095 18407 net.cpp:157] Top shape: 4 38 38 16 (92416)
I0510 21:36:46.982096 18407 net.cpp:165] Memory required for data: 1007885584
I0510 21:36:46.982100 18407 layer_factory.hpp:77] Creating layer conv4_3_norm_mbox_loc_flat
I0510 21:36:46.982103 18407 net.cpp:100] Creating Layer conv4_3_norm_mbox_loc_flat
I0510 21:36:46.982105 18407 net.cpp:434] conv4_3_norm_mbox_loc_flat <- conv4_3_norm_mbox_loc_perm
I0510 21:36:46.982125 18407 net.cpp:408] conv4_3_norm_mbox_loc_flat -> conv4_3_norm_mbox_loc_flat
I0510 21:36:46.982143 18407 net.cpp:150] Setting up conv4_3_norm_mbox_loc_flat
I0510 21:36:46.982148 18407 net.cpp:157] Top shape: 4 23104 (92416)
I0510 21:36:46.982151 18407 net.cpp:165] Memory required for data: 1008255248
I0510 21:36:46.982153 18407 layer_factory.hpp:77] Creating layer conv4_3_norm_mbox_conf
I0510 21:36:46.982182 18407 net.cpp:100] Creating Layer conv4_3_norm_mbox_conf
I0510 21:36:46.982184 18407 net.cpp:434] conv4_3_norm_mbox_conf <- conv4_3_norm_conv4_3_norm_0_split_1
I0510 21:36:46.982189 18407 net.cpp:408] conv4_3_norm_mbox_conf -> conv4_3_norm_mbox_conf
I0510 21:36:46.990545 18407 net.cpp:150] Setting up conv4_3_norm_mbox_conf
I0510 21:36:46.990567 18407 net.cpp:157] Top shape: 4 324 38 38 (1871424)
I0510 21:36:46.990571 18407 net.cpp:165] Memory required for data: 1015740944
I0510 21:36:46.990577 18407 layer_factory.hpp:77] Creating layer conv4_3_norm_mbox_conf_perm
I0510 21:36:46.990586 18407 net.cpp:100] Creating Layer conv4_3_norm_mbox_conf_perm
I0510 21:36:46.990612 18407 net.cpp:434] conv4_3_norm_mbox_conf_perm <- conv4_3_norm_mbox_conf
I0510 21:36:46.990630 18407 net.cpp:408] conv4_3_norm_mbox_conf_perm -> conv4_3_norm_mbox_conf_perm
I0510 21:36:46.990727 18407 net.cpp:150] Setting up conv4_3_norm_mbox_conf_perm
I0510 21:36:46.990734 18407 net.cpp:157] Top shape: 4 38 38 324 (1871424)
I0510 21:36:46.990749 18407 net.cpp:165] Memory required for data: 1023226640
I0510 21:36:46.990751 18407 layer_factory.hpp:77] Creating layer conv4_3_norm_mbox_conf_flat
I0510 21:36:46.990757 18407 net.cpp:100] Creating Layer conv4_3_norm_mbox_conf_flat
I0510 21:36:46.990761 18407 net.cpp:434] conv4_3_norm_mbox_conf_flat <- conv4_3_norm_mbox_conf_perm
I0510 21:36:46.990783 18407 net.cpp:408] conv4_3_norm_mbox_conf_flat -> conv4_3_norm_mbox_conf_flat
I0510 21:36:46.990814 18407 net.cpp:150] Setting up conv4_3_norm_mbox_conf_flat
I0510 21:36:46.990821 18407 net.cpp:157] Top shape: 4 467856 (1871424)
I0510 21:36:46.990824 18407 net.cpp:165] Memory required for data: 1030712336
I0510 21:36:46.990826 18407 layer_factory.hpp:77] Creating layer conv4_3_norm_mbox_mask
I0510 21:36:46.990835 18407 net.cpp:100] Creating Layer conv4_3_norm_mbox_mask
I0510 21:36:46.990839 18407 net.cpp:434] conv4_3_norm_mbox_mask <- conv4_3_norm_conv4_3_norm_0_split_2
I0510 21:36:46.990844 18407 net.cpp:408] conv4_3_norm_mbox_mask -> conv4_3_norm_mbox_mask
I0510 21:36:47.033257 18407 net.cpp:150] Setting up conv4_3_norm_mbox_mask
I0510 21:36:47.033282 18407 net.cpp:157] Top shape: 4 1764 38 38 (10188864)
I0510 21:36:47.033285 18407 net.cpp:165] Memory required for data: 1071467792
I0510 21:36:47.033293 18407 layer_factory.hpp:77] Creating layer conv4_3_norm_mbox_mask_perm
I0510 21:36:47.033301 18407 net.cpp:100] Creating Layer conv4_3_norm_mbox_mask_perm
I0510 21:36:47.033305 18407 net.cpp:434] conv4_3_norm_mbox_mask_perm <- conv4_3_norm_mbox_mask
I0510 21:36:47.033331 18407 net.cpp:408] conv4_3_norm_mbox_mask_perm -> conv4_3_norm_mbox_mask_perm
I0510 21:36:47.033427 18407 net.cpp:150] Setting up conv4_3_norm_mbox_mask_perm
I0510 21:36:47.033433 18407 net.cpp:157] Top shape: 4 38 38 1764 (10188864)
I0510 21:36:47.033435 18407 net.cpp:165] Memory required for data: 1112223248
I0510 21:36:47.033437 18407 layer_factory.hpp:77] Creating layer conv4_3_norm_mbox_mask_flat
I0510 21:36:47.033443 18407 net.cpp:100] Creating Layer conv4_3_norm_mbox_mask_flat
I0510 21:36:47.033447 18407 net.cpp:434] conv4_3_norm_mbox_mask_flat <- conv4_3_norm_mbox_mask_perm
I0510 21:36:47.033452 18407 net.cpp:408] conv4_3_norm_mbox_mask_flat -> conv4_3_norm_mbox_mask_flat
I0510 21:36:47.033488 18407 net.cpp:150] Setting up conv4_3_norm_mbox_mask_flat
I0510 21:36:47.033493 18407 net.cpp:157] Top shape: 4 2547216 (10188864)
I0510 21:36:47.033496 18407 net.cpp:165] Memory required for data: 1152978704
I0510 21:36:47.033499 18407 layer_factory.hpp:77] Creating layer conv4_3_norm_mbox_priorbox
I0510 21:36:47.033525 18407 net.cpp:100] Creating Layer conv4_3_norm_mbox_priorbox
I0510 21:36:47.033547 18407 net.cpp:434] conv4_3_norm_mbox_priorbox <- conv4_3_norm_conv4_3_norm_0_split_3
I0510 21:36:47.033553 18407 net.cpp:434] conv4_3_norm_mbox_priorbox <- data_data_0_split_1
I0510 21:36:47.033560 18407 net.cpp:408] conv4_3_norm_mbox_priorbox -> conv4_3_norm_mbox_priorbox
I0510 21:36:47.033601 18407 net.cpp:150] Setting up conv4_3_norm_mbox_priorbox
I0510 21:36:47.033607 18407 net.cpp:157] Top shape: 1 2 23104 (46208)
I0510 21:36:47.033610 18407 net.cpp:165] Memory required for data: 1153163536
I0510 21:36:47.033612 18407 layer_factory.hpp:77] Creating layer fc7_mbox_loc
I0510 21:36:47.033620 18407 net.cpp:100] Creating Layer fc7_mbox_loc
I0510 21:36:47.033624 18407 net.cpp:434] fc7_mbox_loc <- fc7_relu7_0_split_1
I0510 21:36:47.033629 18407 net.cpp:408] fc7_mbox_loc -> fc7_mbox_loc
I0510 21:36:47.035115 18407 net.cpp:150] Setting up fc7_mbox_loc
I0510 21:36:47.035125 18407 net.cpp:157] Top shape: 4 24 19 19 (34656)
I0510 21:36:47.035128 18407 net.cpp:165] Memory required for data: 1153302160
I0510 21:36:47.035133 18407 layer_factory.hpp:77] Creating layer fc7_mbox_loc_perm
I0510 21:36:47.035138 18407 net.cpp:100] Creating Layer fc7_mbox_loc_perm
I0510 21:36:47.035171 18407 net.cpp:434] fc7_mbox_loc_perm <- fc7_mbox_loc
I0510 21:36:47.035177 18407 net.cpp:408] fc7_mbox_loc_perm -> fc7_mbox_loc_perm
I0510 21:36:47.035265 18407 net.cpp:150] Setting up fc7_mbox_loc_perm
I0510 21:36:47.035271 18407 net.cpp:157] Top shape: 4 19 19 24 (34656)
I0510 21:36:47.035274 18407 net.cpp:165] Memory required for data: 1153440784
I0510 21:36:47.035277 18407 layer_factory.hpp:77] Creating layer fc7_mbox_loc_flat
I0510 21:36:47.035282 18407 net.cpp:100] Creating Layer fc7_mbox_loc_flat
I0510 21:36:47.035284 18407 net.cpp:434] fc7_mbox_loc_flat <- fc7_mbox_loc_perm
I0510 21:36:47.035307 18407 net.cpp:408] fc7_mbox_loc_flat -> fc7_mbox_loc_flat
I0510 21:36:47.035326 18407 net.cpp:150] Setting up fc7_mbox_loc_flat
I0510 21:36:47.035332 18407 net.cpp:157] Top shape: 4 8664 (34656)
I0510 21:36:47.035334 18407 net.cpp:165] Memory required for data: 1153579408
I0510 21:36:47.035336 18407 layer_factory.hpp:77] Creating layer fc7_mbox_conf
I0510 21:36:47.035358 18407 net.cpp:100] Creating Layer fc7_mbox_conf
I0510 21:36:47.035362 18407 net.cpp:434] fc7_mbox_conf <- fc7_relu7_0_split_2
I0510 21:36:47.035367 18407 net.cpp:408] fc7_mbox_conf -> fc7_mbox_conf
I0510 21:36:47.059537 18407 net.cpp:150] Setting up fc7_mbox_conf
I0510 21:36:47.059562 18407 net.cpp:157] Top shape: 4 486 19 19 (701784)
I0510 21:36:47.059564 18407 net.cpp:165] Memory required for data: 1156386544
I0510 21:36:47.059571 18407 layer_factory.hpp:77] Creating layer fc7_mbox_conf_perm
I0510 21:36:47.059579 18407 net.cpp:100] Creating Layer fc7_mbox_conf_perm
I0510 21:36:47.059584 18407 net.cpp:434] fc7_mbox_conf_perm <- fc7_mbox_conf
I0510 21:36:47.059609 18407 net.cpp:408] fc7_mbox_conf_perm -> fc7_mbox_conf_perm
I0510 21:36:47.059703 18407 net.cpp:150] Setting up fc7_mbox_conf_perm
I0510 21:36:47.059710 18407 net.cpp:157] Top shape: 4 19 19 486 (701784)
I0510 21:36:47.059713 18407 net.cpp:165] Memory required for data: 1159193680
I0510 21:36:47.059716 18407 layer_factory.hpp:77] Creating layer fc7_mbox_conf_flat
I0510 21:36:47.059720 18407 net.cpp:100] Creating Layer fc7_mbox_conf_flat
I0510 21:36:47.059723 18407 net.cpp:434] fc7_mbox_conf_flat <- fc7_mbox_conf_perm
I0510 21:36:47.059741 18407 net.cpp:408] fc7_mbox_conf_flat -> fc7_mbox_conf_flat
I0510 21:36:47.059778 18407 net.cpp:150] Setting up fc7_mbox_conf_flat
I0510 21:36:47.059787 18407 net.cpp:157] Top shape: 4 175446 (701784)
I0510 21:36:47.059803 18407 net.cpp:165] Memory required for data: 1162000816
I0510 21:36:47.059805 18407 layer_factory.hpp:77] Creating layer fc7_mbox_mask
I0510 21:36:47.059813 18407 net.cpp:100] Creating Layer fc7_mbox_mask
I0510 21:36:47.059815 18407 net.cpp:434] fc7_mbox_mask <- fc7_relu7_0_split_3
I0510 21:36:47.059825 18407 net.cpp:408] fc7_mbox_mask -> fc7_mbox_mask
I0510 21:36:47.186426 18407 net.cpp:150] Setting up fc7_mbox_mask
I0510 21:36:47.186450 18407 net.cpp:157] Top shape: 4 2646 19 19 (3820824)
I0510 21:36:47.186452 18407 net.cpp:165] Memory required for data: 1177284112
I0510 21:36:47.186460 18407 layer_factory.hpp:77] Creating layer fc7_mbox_mask_perm
I0510 21:36:47.186470 18407 net.cpp:100] Creating Layer fc7_mbox_mask_perm
I0510 21:36:47.186475 18407 net.cpp:434] fc7_mbox_mask_perm <- fc7_mbox_mask
I0510 21:36:47.186498 18407 net.cpp:408] fc7_mbox_mask_perm -> fc7_mbox_mask_perm
I0510 21:36:47.186592 18407 net.cpp:150] Setting up fc7_mbox_mask_perm
I0510 21:36:47.186599 18407 net.cpp:157] Top shape: 4 19 19 2646 (3820824)
I0510 21:36:47.186601 18407 net.cpp:165] Memory required for data: 1192567408
I0510 21:36:47.186604 18407 layer_factory.hpp:77] Creating layer fc7_mbox_mask_flat
I0510 21:36:47.186622 18407 net.cpp:100] Creating Layer fc7_mbox_mask_flat
I0510 21:36:47.186626 18407 net.cpp:434] fc7_mbox_mask_flat <- fc7_mbox_mask_perm
I0510 21:36:47.186630 18407 net.cpp:408] fc7_mbox_mask_flat -> fc7_mbox_mask_flat
I0510 21:36:47.186666 18407 net.cpp:150] Setting up fc7_mbox_mask_flat
I0510 21:36:47.186686 18407 net.cpp:157] Top shape: 4 955206 (3820824)
I0510 21:36:47.186702 18407 net.cpp:165] Memory required for data: 1207850704
I0510 21:36:47.186704 18407 layer_factory.hpp:77] Creating layer fc7_mbox_priorbox
I0510 21:36:47.186712 18407 net.cpp:100] Creating Layer fc7_mbox_priorbox
I0510 21:36:47.186714 18407 net.cpp:434] fc7_mbox_priorbox <- fc7_relu7_0_split_4
I0510 21:36:47.186719 18407 net.cpp:434] fc7_mbox_priorbox <- data_data_0_split_2
I0510 21:36:47.186723 18407 net.cpp:408] fc7_mbox_priorbox -> fc7_mbox_priorbox
I0510 21:36:47.186744 18407 net.cpp:150] Setting up fc7_mbox_priorbox
I0510 21:36:47.186766 18407 net.cpp:157] Top shape: 1 2 8664 (17328)
I0510 21:36:47.186769 18407 net.cpp:165] Memory required for data: 1207920016
I0510 21:36:47.186771 18407 layer_factory.hpp:77] Creating layer conv6_2_mbox_loc
I0510 21:36:47.186795 18407 net.cpp:100] Creating Layer conv6_2_mbox_loc
I0510 21:36:47.186805 18407 net.cpp:434] conv6_2_mbox_loc <- conv6_2_conv6_2_relu_0_split_1
I0510 21:36:47.186810 18407 net.cpp:408] conv6_2_mbox_loc -> conv6_2_mbox_loc
I0510 21:36:47.187829 18407 net.cpp:150] Setting up conv6_2_mbox_loc
I0510 21:36:47.187839 18407 net.cpp:157] Top shape: 4 24 10 10 (9600)
I0510 21:36:47.187842 18407 net.cpp:165] Memory required for data: 1207958416
I0510 21:36:47.187847 18407 layer_factory.hpp:77] Creating layer conv6_2_mbox_loc_perm
I0510 21:36:47.187853 18407 net.cpp:100] Creating Layer conv6_2_mbox_loc_perm
I0510 21:36:47.187875 18407 net.cpp:434] conv6_2_mbox_loc_perm <- conv6_2_mbox_loc
I0510 21:36:47.187880 18407 net.cpp:408] conv6_2_mbox_loc_perm -> conv6_2_mbox_loc_perm
I0510 21:36:47.187968 18407 net.cpp:150] Setting up conv6_2_mbox_loc_perm
I0510 21:36:47.187974 18407 net.cpp:157] Top shape: 4 10 10 24 (9600)
I0510 21:36:47.187978 18407 net.cpp:165] Memory required for data: 1207996816
I0510 21:36:47.187979 18407 layer_factory.hpp:77] Creating layer conv6_2_mbox_loc_flat
I0510 21:36:47.187983 18407 net.cpp:100] Creating Layer conv6_2_mbox_loc_flat
I0510 21:36:47.187986 18407 net.cpp:434] conv6_2_mbox_loc_flat <- conv6_2_mbox_loc_perm
I0510 21:36:47.188009 18407 net.cpp:408] conv6_2_mbox_loc_flat -> conv6_2_mbox_loc_flat
I0510 21:36:47.188027 18407 net.cpp:150] Setting up conv6_2_mbox_loc_flat
I0510 21:36:47.188035 18407 net.cpp:157] Top shape: 4 2400 (9600)
I0510 21:36:47.188037 18407 net.cpp:165] Memory required for data: 1208035216
I0510 21:36:47.188040 18407 layer_factory.hpp:77] Creating layer conv6_2_mbox_conf
I0510 21:36:47.188046 18407 net.cpp:100] Creating Layer conv6_2_mbox_conf
I0510 21:36:47.188050 18407 net.cpp:434] conv6_2_mbox_conf <- conv6_2_conv6_2_relu_0_split_2
I0510 21:36:47.188056 18407 net.cpp:408] conv6_2_mbox_conf -> conv6_2_mbox_conf
I0510 21:36:47.200742 18407 net.cpp:150] Setting up conv6_2_mbox_conf
I0510 21:36:47.200767 18407 net.cpp:157] Top shape: 4 486 10 10 (194400)
I0510 21:36:47.200772 18407 net.cpp:165] Memory required for data: 1208812816
I0510 21:36:47.200778 18407 layer_factory.hpp:77] Creating layer conv6_2_mbox_conf_perm
I0510 21:36:47.200788 18407 net.cpp:100] Creating Layer conv6_2_mbox_conf_perm
I0510 21:36:47.200809 18407 net.cpp:434] conv6_2_mbox_conf_perm <- conv6_2_mbox_conf
I0510 21:36:47.200815 18407 net.cpp:408] conv6_2_mbox_conf_perm -> conv6_2_mbox_conf_perm
I0510 21:36:47.200913 18407 net.cpp:150] Setting up conv6_2_mbox_conf_perm
I0510 21:36:47.200919 18407 net.cpp:157] Top shape: 4 10 10 486 (194400)
I0510 21:36:47.200922 18407 net.cpp:165] Memory required for data: 1209590416
I0510 21:36:47.200925 18407 layer_factory.hpp:77] Creating layer conv6_2_mbox_conf_flat
I0510 21:36:47.200943 18407 net.cpp:100] Creating Layer conv6_2_mbox_conf_flat
I0510 21:36:47.200947 18407 net.cpp:434] conv6_2_mbox_conf_flat <- conv6_2_mbox_conf_perm
I0510 21:36:47.200973 18407 net.cpp:408] conv6_2_mbox_conf_flat -> conv6_2_mbox_conf_flat
I0510 21:36:47.201006 18407 net.cpp:150] Setting up conv6_2_mbox_conf_flat
I0510 21:36:47.201014 18407 net.cpp:157] Top shape: 4 48600 (194400)
I0510 21:36:47.201016 18407 net.cpp:165] Memory required for data: 1210368016
I0510 21:36:47.201019 18407 layer_factory.hpp:77] Creating layer conv6_2_mbox_mask
I0510 21:36:47.201076 18407 net.cpp:100] Creating Layer conv6_2_mbox_mask
I0510 21:36:47.201081 18407 net.cpp:434] conv6_2_mbox_mask <- conv6_2_conv6_2_relu_0_split_3
I0510 21:36:47.201107 18407 net.cpp:408] conv6_2_mbox_mask -> conv6_2_mbox_mask
I0510 21:36:47.265470 18407 net.cpp:150] Setting up conv6_2_mbox_mask
I0510 21:36:47.265498 18407 net.cpp:157] Top shape: 4 2646 10 10 (1058400)
I0510 21:36:47.265521 18407 net.cpp:165] Memory required for data: 1214601616
I0510 21:36:47.265550 18407 layer_factory.hpp:77] Creating layer conv6_2_mbox_mask_perm
I0510 21:36:47.265560 18407 net.cpp:100] Creating Layer conv6_2_mbox_mask_perm
I0510 21:36:47.265565 18407 net.cpp:434] conv6_2_mbox_mask_perm <- conv6_2_mbox_mask
I0510 21:36:47.265591 18407 net.cpp:408] conv6_2_mbox_mask_perm -> conv6_2_mbox_mask_perm
I0510 21:36:47.265722 18407 net.cpp:150] Setting up conv6_2_mbox_mask_perm
I0510 21:36:47.265727 18407 net.cpp:157] Top shape: 4 10 10 2646 (1058400)
I0510 21:36:47.265730 18407 net.cpp:165] Memory required for data: 1218835216
I0510 21:36:47.265733 18407 layer_factory.hpp:77] Creating layer conv6_2_mbox_mask_flat
I0510 21:36:47.265756 18407 net.cpp:100] Creating Layer conv6_2_mbox_mask_flat
I0510 21:36:47.265760 18407 net.cpp:434] conv6_2_mbox_mask_flat <- conv6_2_mbox_mask_perm
I0510 21:36:47.265764 18407 net.cpp:408] conv6_2_mbox_mask_flat -> conv6_2_mbox_mask_flat
I0510 21:36:47.265817 18407 net.cpp:150] Setting up conv6_2_mbox_mask_flat
I0510 21:36:47.265822 18407 net.cpp:157] Top shape: 4 264600 (1058400)
I0510 21:36:47.265825 18407 net.cpp:165] Memory required for data: 1223068816
I0510 21:36:47.265827 18407 layer_factory.hpp:77] Creating layer conv6_2_mbox_priorbox
I0510 21:36:47.265835 18407 net.cpp:100] Creating Layer conv6_2_mbox_priorbox
I0510 21:36:47.265837 18407 net.cpp:434] conv6_2_mbox_priorbox <- conv6_2_conv6_2_relu_0_split_4
I0510 21:36:47.265841 18407 net.cpp:434] conv6_2_mbox_priorbox <- data_data_0_split_3
I0510 21:36:47.265847 18407 net.cpp:408] conv6_2_mbox_priorbox -> conv6_2_mbox_priorbox
I0510 21:36:47.265869 18407 net.cpp:150] Setting up conv6_2_mbox_priorbox
I0510 21:36:47.265888 18407 net.cpp:157] Top shape: 1 2 2400 (4800)
I0510 21:36:47.265892 18407 net.cpp:165] Memory required for data: 1223088016
I0510 21:36:47.265894 18407 layer_factory.hpp:77] Creating layer conv7_2_mbox_loc
I0510 21:36:47.265919 18407 net.cpp:100] Creating Layer conv7_2_mbox_loc
I0510 21:36:47.265923 18407 net.cpp:434] conv7_2_mbox_loc <- conv7_2_conv7_2_relu_0_split_1
I0510 21:36:47.265947 18407 net.cpp:408] conv7_2_mbox_loc -> conv7_2_mbox_loc
I0510 21:36:47.266793 18407 net.cpp:150] Setting up conv7_2_mbox_loc
I0510 21:36:47.266803 18407 net.cpp:157] Top shape: 4 24 5 5 (2400)
I0510 21:36:47.266804 18407 net.cpp:165] Memory required for data: 1223097616
I0510 21:36:47.266809 18407 layer_factory.hpp:77] Creating layer conv7_2_mbox_loc_perm
I0510 21:36:47.266834 18407 net.cpp:100] Creating Layer conv7_2_mbox_loc_perm
I0510 21:36:47.266839 18407 net.cpp:434] conv7_2_mbox_loc_perm <- conv7_2_mbox_loc
I0510 21:36:47.266844 18407 net.cpp:408] conv7_2_mbox_loc_perm -> conv7_2_mbox_loc_perm
I0510 21:36:47.266954 18407 net.cpp:150] Setting up conv7_2_mbox_loc_perm
I0510 21:36:47.266962 18407 net.cpp:157] Top shape: 4 5 5 24 (2400)
I0510 21:36:47.266963 18407 net.cpp:165] Memory required for data: 1223107216
I0510 21:36:47.266965 18407 layer_factory.hpp:77] Creating layer conv7_2_mbox_loc_flat
I0510 21:36:47.266969 18407 net.cpp:100] Creating Layer conv7_2_mbox_loc_flat
I0510 21:36:47.266986 18407 net.cpp:434] conv7_2_mbox_loc_flat <- conv7_2_mbox_loc_perm
I0510 21:36:47.267012 18407 net.cpp:408] conv7_2_mbox_loc_flat -> conv7_2_mbox_loc_flat
I0510 21:36:47.267031 18407 net.cpp:150] Setting up conv7_2_mbox_loc_flat
I0510 21:36:47.267053 18407 net.cpp:157] Top shape: 4 600 (2400)
I0510 21:36:47.267056 18407 net.cpp:165] Memory required for data: 1223116816
I0510 21:36:47.267058 18407 layer_factory.hpp:77] Creating layer conv7_2_mbox_conf
I0510 21:36:47.267079 18407 net.cpp:100] Creating Layer conv7_2_mbox_conf
I0510 21:36:47.267096 18407 net.cpp:434] conv7_2_mbox_conf <- conv7_2_conv7_2_relu_0_split_2
I0510 21:36:47.267105 18407 net.cpp:408] conv7_2_mbox_conf -> conv7_2_mbox_conf
I0510 21:36:47.273111 18407 net.cpp:150] Setting up conv7_2_mbox_conf
I0510 21:36:47.273135 18407 net.cpp:157] Top shape: 4 486 5 5 (48600)
I0510 21:36:47.273138 18407 net.cpp:165] Memory required for data: 1223311216
I0510 21:36:47.273146 18407 layer_factory.hpp:77] Creating layer conv7_2_mbox_conf_perm
I0510 21:36:47.273171 18407 net.cpp:100] Creating Layer conv7_2_mbox_conf_perm
I0510 21:36:47.273176 18407 net.cpp:434] conv7_2_mbox_conf_perm <- conv7_2_mbox_conf
I0510 21:36:47.273181 18407 net.cpp:408] conv7_2_mbox_conf_perm -> conv7_2_mbox_conf_perm
I0510 21:36:47.273320 18407 net.cpp:150] Setting up conv7_2_mbox_conf_perm
I0510 21:36:47.273327 18407 net.cpp:157] Top shape: 4 5 5 486 (48600)
I0510 21:36:47.273329 18407 net.cpp:165] Memory required for data: 1223505616
I0510 21:36:47.273332 18407 layer_factory.hpp:77] Creating layer conv7_2_mbox_conf_flat
I0510 21:36:47.273339 18407 net.cpp:100] Creating Layer conv7_2_mbox_conf_flat
I0510 21:36:47.273355 18407 net.cpp:434] conv7_2_mbox_conf_flat <- conv7_2_mbox_conf_perm
I0510 21:36:47.273358 18407 net.cpp:408] conv7_2_mbox_conf_flat -> conv7_2_mbox_conf_flat
I0510 21:36:47.273396 18407 net.cpp:150] Setting up conv7_2_mbox_conf_flat
I0510 21:36:47.273399 18407 net.cpp:157] Top shape: 4 12150 (48600)
I0510 21:36:47.273421 18407 net.cpp:165] Memory required for data: 1223700016
I0510 21:36:47.273422 18407 layer_factory.hpp:77] Creating layer conv7_2_mbox_mask
I0510 21:36:47.273444 18407 net.cpp:100] Creating Layer conv7_2_mbox_mask
I0510 21:36:47.273448 18407 net.cpp:434] conv7_2_mbox_mask <- conv7_2_conv7_2_relu_0_split_3
I0510 21:36:47.273454 18407 net.cpp:408] conv7_2_mbox_mask -> conv7_2_mbox_mask
I0510 21:36:47.305768 18407 net.cpp:150] Setting up conv7_2_mbox_mask
I0510 21:36:47.305790 18407 net.cpp:157] Top shape: 4 2646 5 5 (264600)
I0510 21:36:47.305812 18407 net.cpp:165] Memory required for data: 1224758416
I0510 21:36:47.305819 18407 layer_factory.hpp:77] Creating layer conv7_2_mbox_mask_perm
I0510 21:36:47.305841 18407 net.cpp:100] Creating Layer conv7_2_mbox_mask_perm
I0510 21:36:47.305845 18407 net.cpp:434] conv7_2_mbox_mask_perm <- conv7_2_mbox_mask
I0510 21:36:47.305852 18407 net.cpp:408] conv7_2_mbox_mask_perm -> conv7_2_mbox_mask_perm
I0510 21:36:47.305974 18407 net.cpp:150] Setting up conv7_2_mbox_mask_perm
I0510 21:36:47.305981 18407 net.cpp:157] Top shape: 4 5 5 2646 (264600)
I0510 21:36:47.305996 18407 net.cpp:165] Memory required for data: 1225816816
I0510 21:36:47.305999 18407 layer_factory.hpp:77] Creating layer conv7_2_mbox_mask_flat
I0510 21:36:47.306004 18407 net.cpp:100] Creating Layer conv7_2_mbox_mask_flat
I0510 21:36:47.306026 18407 net.cpp:434] conv7_2_mbox_mask_flat <- conv7_2_mbox_mask_perm
I0510 21:36:47.306031 18407 net.cpp:408] conv7_2_mbox_mask_flat -> conv7_2_mbox_mask_flat
I0510 21:36:47.306082 18407 net.cpp:150] Setting up conv7_2_mbox_mask_flat
I0510 21:36:47.306087 18407 net.cpp:157] Top shape: 4 66150 (264600)
I0510 21:36:47.306088 18407 net.cpp:165] Memory required for data: 1226875216
I0510 21:36:47.306092 18407 layer_factory.hpp:77] Creating layer conv7_2_mbox_priorbox
I0510 21:36:47.306098 18407 net.cpp:100] Creating Layer conv7_2_mbox_priorbox
I0510 21:36:47.306102 18407 net.cpp:434] conv7_2_mbox_priorbox <- conv7_2_conv7_2_relu_0_split_4
I0510 21:36:47.306105 18407 net.cpp:434] conv7_2_mbox_priorbox <- data_data_0_split_4
I0510 21:36:47.306128 18407 net.cpp:408] conv7_2_mbox_priorbox -> conv7_2_mbox_priorbox
I0510 21:36:47.306156 18407 net.cpp:150] Setting up conv7_2_mbox_priorbox
I0510 21:36:47.306161 18407 net.cpp:157] Top shape: 1 2 600 (1200)
I0510 21:36:47.306164 18407 net.cpp:165] Memory required for data: 1226880016
I0510 21:36:47.306166 18407 layer_factory.hpp:77] Creating layer conv8_2_mbox_loc
I0510 21:36:47.306175 18407 net.cpp:100] Creating Layer conv8_2_mbox_loc
I0510 21:36:47.306179 18407 net.cpp:434] conv8_2_mbox_loc <- conv8_2_conv8_2_relu_0_split_1
I0510 21:36:47.306195 18407 net.cpp:408] conv8_2_mbox_loc -> conv8_2_mbox_loc
I0510 21:36:47.306640 18407 net.cpp:150] Setting up conv8_2_mbox_loc
I0510 21:36:47.306648 18407 net.cpp:157] Top shape: 4 16 3 3 (576)
I0510 21:36:47.306649 18407 net.cpp:165] Memory required for data: 1226882320
I0510 21:36:47.306654 18407 layer_factory.hpp:77] Creating layer conv8_2_mbox_loc_perm
I0510 21:36:47.306677 18407 net.cpp:100] Creating Layer conv8_2_mbox_loc_perm
I0510 21:36:47.306681 18407 net.cpp:434] conv8_2_mbox_loc_perm <- conv8_2_mbox_loc
I0510 21:36:47.306685 18407 net.cpp:408] conv8_2_mbox_loc_perm -> conv8_2_mbox_loc_perm
I0510 21:36:47.306812 18407 net.cpp:150] Setting up conv8_2_mbox_loc_perm
I0510 21:36:47.306818 18407 net.cpp:157] Top shape: 4 3 3 16 (576)
I0510 21:36:47.306819 18407 net.cpp:165] Memory required for data: 1226884624
I0510 21:36:47.306823 18407 layer_factory.hpp:77] Creating layer conv8_2_mbox_loc_flat
I0510 21:36:47.306825 18407 net.cpp:100] Creating Layer conv8_2_mbox_loc_flat
I0510 21:36:47.306828 18407 net.cpp:434] conv8_2_mbox_loc_flat <- conv8_2_mbox_loc_perm
I0510 21:36:47.306833 18407 net.cpp:408] conv8_2_mbox_loc_flat -> conv8_2_mbox_loc_flat
I0510 21:36:47.306869 18407 net.cpp:150] Setting up conv8_2_mbox_loc_flat
I0510 21:36:47.306872 18407 net.cpp:157] Top shape: 4 144 (576)
I0510 21:36:47.306874 18407 net.cpp:165] Memory required for data: 1226886928
I0510 21:36:47.306877 18407 layer_factory.hpp:77] Creating layer conv8_2_mbox_conf
I0510 21:36:47.306902 18407 net.cpp:100] Creating Layer conv8_2_mbox_conf
I0510 21:36:47.306905 18407 net.cpp:434] conv8_2_mbox_conf <- conv8_2_conv8_2_relu_0_split_2
I0510 21:36:47.306911 18407 net.cpp:408] conv8_2_mbox_conf -> conv8_2_mbox_conf
I0510 21:36:47.311041 18407 net.cpp:150] Setting up conv8_2_mbox_conf
I0510 21:36:47.311058 18407 net.cpp:157] Top shape: 4 324 3 3 (11664)
I0510 21:36:47.311061 18407 net.cpp:165] Memory required for data: 1226933584
I0510 21:36:47.311085 18407 layer_factory.hpp:77] Creating layer conv8_2_mbox_conf_perm
I0510 21:36:47.311105 18407 net.cpp:100] Creating Layer conv8_2_mbox_conf_perm
I0510 21:36:47.311115 18407 net.cpp:434] conv8_2_mbox_conf_perm <- conv8_2_mbox_conf
I0510 21:36:47.311121 18407 net.cpp:408] conv8_2_mbox_conf_perm -> conv8_2_mbox_conf_perm
I0510 21:36:47.311239 18407 net.cpp:150] Setting up conv8_2_mbox_conf_perm
I0510 21:36:47.311247 18407 net.cpp:157] Top shape: 4 3 3 324 (11664)
I0510 21:36:47.311249 18407 net.cpp:165] Memory required for data: 1226980240
I0510 21:36:47.311252 18407 layer_factory.hpp:77] Creating layer conv8_2_mbox_conf_flat
I0510 21:36:47.311256 18407 net.cpp:100] Creating Layer conv8_2_mbox_conf_flat
I0510 21:36:47.311259 18407 net.cpp:434] conv8_2_mbox_conf_flat <- conv8_2_mbox_conf_perm
I0510 21:36:47.311264 18407 net.cpp:408] conv8_2_mbox_conf_flat -> conv8_2_mbox_conf_flat
I0510 21:36:47.311282 18407 net.cpp:150] Setting up conv8_2_mbox_conf_flat
I0510 21:36:47.311286 18407 net.cpp:157] Top shape: 4 2916 (11664)
I0510 21:36:47.311290 18407 net.cpp:165] Memory required for data: 1227026896
I0510 21:36:47.311291 18407 layer_factory.hpp:77] Creating layer conv8_2_mbox_mask
I0510 21:36:47.311313 18407 net.cpp:100] Creating Layer conv8_2_mbox_mask
I0510 21:36:47.311316 18407 net.cpp:434] conv8_2_mbox_mask <- conv8_2_conv8_2_relu_0_split_3
I0510 21:36:47.311341 18407 net.cpp:408] conv8_2_mbox_mask -> conv8_2_mbox_mask
I0510 21:36:47.333077 18407 net.cpp:150] Setting up conv8_2_mbox_mask
I0510 21:36:47.333101 18407 net.cpp:157] Top shape: 4 1764 3 3 (63504)
I0510 21:36:47.333103 18407 net.cpp:165] Memory required for data: 1227280912
I0510 21:36:47.333129 18407 layer_factory.hpp:77] Creating layer conv8_2_mbox_mask_perm
I0510 21:36:47.333139 18407 net.cpp:100] Creating Layer conv8_2_mbox_mask_perm
I0510 21:36:47.333143 18407 net.cpp:434] conv8_2_mbox_mask_perm <- conv8_2_mbox_mask
I0510 21:36:47.333148 18407 net.cpp:408] conv8_2_mbox_mask_perm -> conv8_2_mbox_mask_perm
I0510 21:36:47.333300 18407 net.cpp:150] Setting up conv8_2_mbox_mask_perm
I0510 21:36:47.333307 18407 net.cpp:157] Top shape: 4 3 3 1764 (63504)
I0510 21:36:47.333339 18407 net.cpp:165] Memory required for data: 1227534928
I0510 21:36:47.333343 18407 layer_factory.hpp:77] Creating layer conv8_2_mbox_mask_flat
I0510 21:36:47.333362 18407 net.cpp:100] Creating Layer conv8_2_mbox_mask_flat
I0510 21:36:47.333365 18407 net.cpp:434] conv8_2_mbox_mask_flat <- conv8_2_mbox_mask_perm
I0510 21:36:47.333387 18407 net.cpp:408] conv8_2_mbox_mask_flat -> conv8_2_mbox_mask_flat
I0510 21:36:47.333408 18407 net.cpp:150] Setting up conv8_2_mbox_mask_flat
I0510 21:36:47.333415 18407 net.cpp:157] Top shape: 4 15876 (63504)
I0510 21:36:47.333417 18407 net.cpp:165] Memory required for data: 1227788944
I0510 21:36:47.333434 18407 layer_factory.hpp:77] Creating layer conv8_2_mbox_priorbox
I0510 21:36:47.333441 18407 net.cpp:100] Creating Layer conv8_2_mbox_priorbox
I0510 21:36:47.333444 18407 net.cpp:434] conv8_2_mbox_priorbox <- conv8_2_conv8_2_relu_0_split_4
I0510 21:36:47.333448 18407 net.cpp:434] conv8_2_mbox_priorbox <- data_data_0_split_5
I0510 21:36:47.333453 18407 net.cpp:408] conv8_2_mbox_priorbox -> conv8_2_mbox_priorbox
I0510 21:36:47.333477 18407 net.cpp:150] Setting up conv8_2_mbox_priorbox
I0510 21:36:47.333482 18407 net.cpp:157] Top shape: 1 2 144 (288)
I0510 21:36:47.333484 18407 net.cpp:165] Memory required for data: 1227790096
I0510 21:36:47.333487 18407 layer_factory.hpp:77] Creating layer conv9_2_mbox_loc
I0510 21:36:47.333495 18407 net.cpp:100] Creating Layer conv9_2_mbox_loc
I0510 21:36:47.333498 18407 net.cpp:434] conv9_2_mbox_loc <- conv9_2_conv9_2_relu_0_split_0
I0510 21:36:47.333525 18407 net.cpp:408] conv9_2_mbox_loc -> conv9_2_mbox_loc
I0510 21:36:47.333915 18407 net.cpp:150] Setting up conv9_2_mbox_loc
I0510 21:36:47.333922 18407 net.cpp:157] Top shape: 4 16 1 1 (64)
I0510 21:36:47.333925 18407 net.cpp:165] Memory required for data: 1227790352
I0510 21:36:47.333930 18407 layer_factory.hpp:77] Creating layer conv9_2_mbox_loc_perm
I0510 21:36:47.333951 18407 net.cpp:100] Creating Layer conv9_2_mbox_loc_perm
I0510 21:36:47.333955 18407 net.cpp:434] conv9_2_mbox_loc_perm <- conv9_2_mbox_loc
I0510 21:36:47.333973 18407 net.cpp:408] conv9_2_mbox_loc_perm -> conv9_2_mbox_loc_perm
I0510 21:36:47.334084 18407 net.cpp:150] Setting up conv9_2_mbox_loc_perm
I0510 21:36:47.334089 18407 net.cpp:157] Top shape: 4 1 1 16 (64)
I0510 21:36:47.334090 18407 net.cpp:165] Memory required for data: 1227790608
I0510 21:36:47.334094 18407 layer_factory.hpp:77] Creating layer conv9_2_mbox_loc_flat
I0510 21:36:47.334097 18407 net.cpp:100] Creating Layer conv9_2_mbox_loc_flat
I0510 21:36:47.334100 18407 net.cpp:434] conv9_2_mbox_loc_flat <- conv9_2_mbox_loc_perm
I0510 21:36:47.334105 18407 net.cpp:408] conv9_2_mbox_loc_flat -> conv9_2_mbox_loc_flat
I0510 21:36:47.334144 18407 net.cpp:150] Setting up conv9_2_mbox_loc_flat
I0510 21:36:47.334167 18407 net.cpp:157] Top shape: 4 16 (64)
I0510 21:36:47.334168 18407 net.cpp:165] Memory required for data: 1227790864
I0510 21:36:47.334170 18407 layer_factory.hpp:77] Creating layer conv9_2_mbox_conf
I0510 21:36:47.334192 18407 net.cpp:100] Creating Layer conv9_2_mbox_conf
I0510 21:36:47.334197 18407 net.cpp:434] conv9_2_mbox_conf <- conv9_2_conv9_2_relu_0_split_1
I0510 21:36:47.334202 18407 net.cpp:408] conv9_2_mbox_conf -> conv9_2_mbox_conf
I0510 21:36:47.338371 18407 net.cpp:150] Setting up conv9_2_mbox_conf
I0510 21:36:47.338388 18407 net.cpp:157] Top shape: 4 324 1 1 (1296)
I0510 21:36:47.338392 18407 net.cpp:165] Memory required for data: 1227796048
I0510 21:36:47.338415 18407 layer_factory.hpp:77] Creating layer conv9_2_mbox_conf_perm
I0510 21:36:47.338423 18407 net.cpp:100] Creating Layer conv9_2_mbox_conf_perm
I0510 21:36:47.338428 18407 net.cpp:434] conv9_2_mbox_conf_perm <- conv9_2_mbox_conf
I0510 21:36:47.338433 18407 net.cpp:408] conv9_2_mbox_conf_perm -> conv9_2_mbox_conf_perm
I0510 21:36:47.338547 18407 net.cpp:150] Setting up conv9_2_mbox_conf_perm
I0510 21:36:47.338554 18407 net.cpp:157] Top shape: 4 1 1 324 (1296)
I0510 21:36:47.338557 18407 net.cpp:165] Memory required for data: 1227801232
I0510 21:36:47.338600 18407 layer_factory.hpp:77] Creating layer conv9_2_mbox_conf_flat
I0510 21:36:47.338605 18407 net.cpp:100] Creating Layer conv9_2_mbox_conf_flat
I0510 21:36:47.338608 18407 net.cpp:434] conv9_2_mbox_conf_flat <- conv9_2_mbox_conf_perm
I0510 21:36:47.338614 18407 net.cpp:408] conv9_2_mbox_conf_flat -> conv9_2_mbox_conf_flat
I0510 21:36:47.338665 18407 net.cpp:150] Setting up conv9_2_mbox_conf_flat
I0510 21:36:47.338670 18407 net.cpp:157] Top shape: 4 324 (1296)
I0510 21:36:47.338671 18407 net.cpp:165] Memory required for data: 1227806416
I0510 21:36:47.338675 18407 layer_factory.hpp:77] Creating layer conv9_2_mbox_mask
I0510 21:36:47.338682 18407 net.cpp:100] Creating Layer conv9_2_mbox_mask
I0510 21:36:47.338708 18407 net.cpp:434] conv9_2_mbox_mask <- conv9_2_conv9_2_relu_0_split_2
I0510 21:36:47.338716 18407 net.cpp:408] conv9_2_mbox_mask -> conv9_2_mbox_mask
I0510 21:36:47.360491 18407 net.cpp:150] Setting up conv9_2_mbox_mask
I0510 21:36:47.360513 18407 net.cpp:157] Top shape: 4 1764 1 1 (7056)
I0510 21:36:47.360517 18407 net.cpp:165] Memory required for data: 1227834640
I0510 21:36:47.360541 18407 layer_factory.hpp:77] Creating layer conv9_2_mbox_mask_perm
I0510 21:36:47.360549 18407 net.cpp:100] Creating Layer conv9_2_mbox_mask_perm
I0510 21:36:47.360553 18407 net.cpp:434] conv9_2_mbox_mask_perm <- conv9_2_mbox_mask
I0510 21:36:47.360564 18407 net.cpp:408] conv9_2_mbox_mask_perm -> conv9_2_mbox_mask_perm
I0510 21:36:47.360676 18407 net.cpp:150] Setting up conv9_2_mbox_mask_perm
I0510 21:36:47.360683 18407 net.cpp:157] Top shape: 4 1 1 1764 (7056)
I0510 21:36:47.360685 18407 net.cpp:165] Memory required for data: 1227862864
I0510 21:36:47.360687 18407 layer_factory.hpp:77] Creating layer conv9_2_mbox_mask_flat
I0510 21:36:47.360710 18407 net.cpp:100] Creating Layer conv9_2_mbox_mask_flat
I0510 21:36:47.360713 18407 net.cpp:434] conv9_2_mbox_mask_flat <- conv9_2_mbox_mask_perm
I0510 21:36:47.360733 18407 net.cpp:408] conv9_2_mbox_mask_flat -> conv9_2_mbox_mask_flat
I0510 21:36:47.360749 18407 net.cpp:150] Setting up conv9_2_mbox_mask_flat
I0510 21:36:47.360754 18407 net.cpp:157] Top shape: 4 1764 (7056)
I0510 21:36:47.360756 18407 net.cpp:165] Memory required for data: 1227891088
I0510 21:36:47.360759 18407 layer_factory.hpp:77] Creating layer conv9_2_mbox_priorbox
I0510 21:36:47.360765 18407 net.cpp:100] Creating Layer conv9_2_mbox_priorbox
I0510 21:36:47.360769 18407 net.cpp:434] conv9_2_mbox_priorbox <- conv9_2_conv9_2_relu_0_split_3
I0510 21:36:47.360774 18407 net.cpp:434] conv9_2_mbox_priorbox <- data_data_0_split_6
I0510 21:36:47.360779 18407 net.cpp:408] conv9_2_mbox_priorbox -> conv9_2_mbox_priorbox
I0510 21:36:47.360816 18407 net.cpp:150] Setting up conv9_2_mbox_priorbox
I0510 21:36:47.360822 18407 net.cpp:157] Top shape: 1 2 16 (32)
I0510 21:36:47.360826 18407 net.cpp:165] Memory required for data: 1227891216
I0510 21:36:47.360827 18407 layer_factory.hpp:77] Creating layer mbox_loc
I0510 21:36:47.360832 18407 net.cpp:100] Creating Layer mbox_loc
I0510 21:36:47.360836 18407 net.cpp:434] mbox_loc <- conv4_3_norm_mbox_loc_flat
I0510 21:36:47.360841 18407 net.cpp:434] mbox_loc <- fc7_mbox_loc_flat
I0510 21:36:47.360844 18407 net.cpp:434] mbox_loc <- conv6_2_mbox_loc_flat
I0510 21:36:47.360847 18407 net.cpp:434] mbox_loc <- conv7_2_mbox_loc_flat
I0510 21:36:47.360851 18407 net.cpp:434] mbox_loc <- conv8_2_mbox_loc_flat
I0510 21:36:47.360854 18407 net.cpp:434] mbox_loc <- conv9_2_mbox_loc_flat
I0510 21:36:47.360858 18407 net.cpp:408] mbox_loc -> mbox_loc
I0510 21:36:47.360898 18407 net.cpp:150] Setting up mbox_loc
I0510 21:36:47.360903 18407 net.cpp:157] Top shape: 4 34928 (139712)
I0510 21:36:47.360905 18407 net.cpp:165] Memory required for data: 1228450064
I0510 21:36:47.360908 18407 layer_factory.hpp:77] Creating layer mbox_conf
I0510 21:36:47.360910 18407 net.cpp:100] Creating Layer mbox_conf
I0510 21:36:47.360913 18407 net.cpp:434] mbox_conf <- conv4_3_norm_mbox_conf_flat
I0510 21:36:47.360918 18407 net.cpp:434] mbox_conf <- fc7_mbox_conf_flat
I0510 21:36:47.360934 18407 net.cpp:434] mbox_conf <- conv6_2_mbox_conf_flat
I0510 21:36:47.360949 18407 net.cpp:434] mbox_conf <- conv7_2_mbox_conf_flat
I0510 21:36:47.360952 18407 net.cpp:434] mbox_conf <- conv8_2_mbox_conf_flat
I0510 21:36:47.360956 18407 net.cpp:434] mbox_conf <- conv9_2_mbox_conf_flat
I0510 21:36:47.360960 18407 net.cpp:408] mbox_conf -> mbox_conf
I0510 21:36:47.360986 18407 net.cpp:150] Setting up mbox_conf
I0510 21:36:47.360991 18407 net.cpp:157] Top shape: 4 707292 (2829168)
I0510 21:36:47.360994 18407 net.cpp:165] Memory required for data: 1239766736
I0510 21:36:47.360997 18407 layer_factory.hpp:77] Creating layer mbox_priorbox
I0510 21:36:47.361001 18407 net.cpp:100] Creating Layer mbox_priorbox
I0510 21:36:47.361006 18407 net.cpp:434] mbox_priorbox <- conv4_3_norm_mbox_priorbox
I0510 21:36:47.361009 18407 net.cpp:434] mbox_priorbox <- fc7_mbox_priorbox
I0510 21:36:47.361012 18407 net.cpp:434] mbox_priorbox <- conv6_2_mbox_priorbox
I0510 21:36:47.361016 18407 net.cpp:434] mbox_priorbox <- conv7_2_mbox_priorbox
I0510 21:36:47.361019 18407 net.cpp:434] mbox_priorbox <- conv8_2_mbox_priorbox
I0510 21:36:47.361022 18407 net.cpp:434] mbox_priorbox <- conv9_2_mbox_priorbox
I0510 21:36:47.361027 18407 net.cpp:408] mbox_priorbox -> mbox_priorbox
I0510 21:36:47.361045 18407 net.cpp:150] Setting up mbox_priorbox
I0510 21:36:47.361052 18407 net.cpp:157] Top shape: 1 2 34928 (69856)
I0510 21:36:47.361054 18407 net.cpp:165] Memory required for data: 1240046160
I0510 21:36:47.361057 18407 layer_factory.hpp:77] Creating layer mbox_mask
I0510 21:36:47.361060 18407 net.cpp:100] Creating Layer mbox_mask
I0510 21:36:47.361063 18407 net.cpp:434] mbox_mask <- conv4_3_norm_mbox_mask_flat
I0510 21:36:47.361066 18407 net.cpp:434] mbox_mask <- fc7_mbox_mask_flat
I0510 21:36:47.361070 18407 net.cpp:434] mbox_mask <- conv6_2_mbox_mask_flat
I0510 21:36:47.361093 18407 net.cpp:434] mbox_mask <- conv7_2_mbox_mask_flat
I0510 21:36:47.361095 18407 net.cpp:434] mbox_mask <- conv8_2_mbox_mask_flat
I0510 21:36:47.361099 18407 net.cpp:434] mbox_mask <- conv9_2_mbox_mask_flat
I0510 21:36:47.361102 18407 net.cpp:408] mbox_mask -> mbox_mask
I0510 21:36:47.361136 18407 net.cpp:150] Setting up mbox_mask
I0510 21:36:47.361142 18407 net.cpp:157] Top shape: 4 3850812 (15403248)
I0510 21:36:47.361145 18407 net.cpp:165] Memory required for data: 1301659152
I0510 21:36:47.361147 18407 layer_factory.hpp:77] Creating layer mbox_loss
I0510 21:36:47.361155 18407 net.cpp:100] Creating Layer mbox_loss
I0510 21:36:47.361158 18407 net.cpp:434] mbox_loss <- mbox_loc
I0510 21:36:47.361162 18407 net.cpp:434] mbox_loss <- mbox_conf
I0510 21:36:47.361166 18407 net.cpp:434] mbox_loss <- mbox_priorbox
…
  name: "data"
  type: "AnnotatedData"
  top: "data"
  top: "label"
  top: "label_mask"
  include {
    phase: TEST
  }
  transform_param {
    mean_value: 104
    mean_value: 117
    mean_value: 123
    force_color: true
    resize_param {
      prob: 1
      resize_mode: WARP
      height: 300
      width: 300
      interp_mode: LINEAR
    }
  }
  data_param {
    source: "examples/coco/coco_minival_lmdb"
    batch_size: 8
    backend: LMDB
  }
  annotated_data_param {
    batch_sampler {
    }
    label_map_file: "data/coco/labelmap_coco.prototxt"
  }
}
layer {
  name: "conv1_1"
  type: "Convolution"
  bottom: "data"
  top: "conv1_1"
  param {
    lr_mult: 1
    decay_mult: 1
  }
  param {
    lr_mult: 2
    decay_mult: 0
  }
  convolution_param {
    num_output: 64
    pad: 1
    kernel_size: 3
    weight_filler {
      type: "xavier"
    }
    bias_filler {
      type: "constant"
      value: 0
    }
  }
}
layer {
  name: "relu1_1"
  type: "ReLU"
  bottom: "conv1_1"
  top: "conv1_1"
}
layer {
  name: "conv1_2"
  type: "Convolution"
  bottom: "conv1_1"
  top: "conv1_2"
  param {
    lr_mult: 1
    decay_mult: 1
  }
  param {
    lr_mult: 2
    decay_mult: 0
  }
  convolution_param {
    num_output: 64
    pad: 1
    kernel_size: 3
    weight_filler {
      type: "xavier"
    }
    bias_filler {
      type: "constant"
      value: 0
    }
  }
}
layer {
  name: "relu1_2"
  type: "ReLU"
  bottom: "conv1_2"
  top: "conv1_2"
}
layer {
  name: "pool1"
  type: "Pooling"
  bottom: "conv1_2"
  top: "pool1"
  pooling_param {
    pool: MAX
    kernel_size: 2
    stride: 2
  }
}
layer {
  name: "conv2_1"
  type: "Convolution"
  bottom: "pool1"
  top: "conv2_1"
  param {
    lr_mult: 1
    decay_mult: 1
  }
  param {
    lr_mult: 2
    decay_mult: 0
  }
  convolution_param {
    num_output: 128
    pad: 1
    kernel_size: 3
    weight_filler {
      type: "xavier"
    }
    bias_filler {
      type: "constant"
      value: 0
    }
  }
}
layer {
  name: "relu2_1"
  type: "ReLU"
  bottom: "conv2_1"
  top: "conv2_1"
}
layer {
  name: "conv2_2"
  type: "Convolution"
  bottom: "conv2_1"
  top: "conv2_2"
  param {
    lr_mult: 1
    decay_mult: 1
  }
  param {
    lr_mult: 2
    decay_mult: 0
  }
  convolution_param {
    num_output: 128
    pad: 1
    kernel_size: 3
    weight_filler {
      type: "xavier"
    }
    bias_filler {
      type: "constant"
      value: 0
    }
  }
}
layer {
  name: "relu2_2"
  type: "ReLU"
  bottom: "conv2_2"
  top: "conv2_2"
}
layer {
  name: "pool2"
  type: "Pooling"
  bottom: "conv2_2"
  top: "pool2"
  pooling_param {
    pool: MAX
    kernel_size: 2
    stride: 2
  }
}
layer {
  name: "conv3_1"
  type: "Convolution"
  bottom: "pool2"
  top: "conv3_1"
  param {
    lr_mult: 1
    decay_mult: 1
  }
  param {
    lr_mult: 2
    decay_mult: 0
  }
  convolution_param {
    num_output: 256
    pad: 1
    kernel_size: 3
    weight_filler {
      type: "xavier"
    }
    bias_filler {
      type: "constant"
      value: 0
    }
  }
}
layer {
  name: "relu3_1"
  type: "ReLU"
  bottom: "conv3_1"
  top: "conv3_1"
}
layer {
  name: "conv3_2"
  type: "Convolution"
  bottom: "conv3_1"
  top: "conv3_2"
  param {
    lr_mult: 1
    decay_mult: 1
  }
  param {
    lr_mult: 2
    decay_mult: 0
  }
  convolution_param {
    num_output: 256
    pad: 1
    kernel_size: 3
    weight_filler {
      type: "xavier"
    }
    bias_filler {
      type: "constant"
      value: 0
    }
  }
}
layer {
  name: "relu3_2"
  type: "ReLU"
  bottom: "conv3_2"
  top: "conv3_2"
}
layer {
  name: "conv3_3"
  type: "Convolution"
  bottom: "conv3_2"
  top: "conv3_3"
  param {
    lr_mult: 1
    decay_mult: 1
  }
  param {
    lr_mult: 2
    decay_mult: 0
  }
  convolution_param {
    num_output: 256
    pad: 1
    kernel_size: 3
    weight_filler {
      type: "xavier"
    }
    bias_filler {
      type: "constant"
      value: 0
    }
  }
}
layer {
  name: "relu3_3"
  type: "ReLU"
  bottom: "conv3_3"
  top: "conv3_3"
}
layer {
  name: "pool3"
  type: "Pooling"
  bottom: "conv3_3"
  top: "pool3"
  pooling_param {
    pool: MAX
    kernel_size: 2
    stride: 2
  }
}
layer {
  name: "conv4_1"
  type: "Convolution"
  bottom: "pool3"
  top: "conv4_1"
  param {
    lr_mult: 1
    decay_mult: 1
  }
  param {
    lr_mult: 2
    decay_mult: 0
  }
  convolution_param {
    num_output: 512
    pad: 1
    kernel_size: 3
    weight_filler {
      type: "xavier"
    }
    bias_filler {
      type: "constant"
      value: 0
    }
  }
}
layer {
  name: "relu4_1"
  type: "ReLU"
  bottom: "conv4_1"
  top: "conv4_1"
}
layer {
  name: "conv4_2"
  type: "Convolution"
  bottom: "conv4_1"
  top: "conv4_2"
  param {
    lr_mult: 1
    decay_mult: 1
  }
  param {
    lr_mult: 2
    decay_mult: 0
  }
  convolution_param {
    num_output: 512
    pad: 1
    kernel_size: 3
    weight_filler {
      type: "xavier"
    }
    bias_filler {
      type: "constant"
      value: 0
    }
  }
}
layer {
  name: "relu4_2"
  type: "ReLU"
  bottom: "conv4_2"
  top: "conv4_2"
}
layer {
  name: "conv4_3"
  type: "Convolution"
  bottom: "conv4_2"
  top: "conv4_3"
  param {
    lr_mult: 1
    decay_mult: 1
  }
  param {
    lr_mult: 2
    decay_mult: 0
  }
  convolution_param {
    num_output: 512
    pad: 1
    kernel_size: 3
    weight_filler {
      type: "xavier"
    }
    bias_filler {
      type: "constant"
      value: 0
    }
  }
}
layer {
  name: "relu4_3"
  type: "ReLU"
  bottom: "conv4_3"
  top: "conv4_3"
}
layer {
  name: "pool4"
  type: "Pooling"
  bottom: "conv4_3"
  top: "pool4"
  pooling_param {
    pool: MAX
    kernel_size: 2
    stride: 2
  }
}
layer {
  name: "conv5_1"
  type: "Convolution"
  bottom: "pool4"
  top: "conv5_1"
  param {
    lr_mult: 1
    decay_mult: 1
  }
  param {
    lr_mult: 2
    decay_mult: 0
  }
  convolution_param {
    num_output: 512
    pad: 1
    kernel_size: 3
    weight_filler {
      type: "xavier"
    }
    bias_filler {
      type: "constant"
      value: 0
    }
    dilation: 1
  }
}
layer {
  name: "relu5_1"
  type: "ReLU"
  bottom: "conv5_1"
  top: "conv5_1"
}
layer {
  name: "conv5_2"
  type: "Convolution"
  bottom: "conv5_1"
  top: "conv5_2"
  param {
    lr_mult: 1
    decay_mult: 1
  }
  param {
    lr_mult: 2
    decay_mult: 0
  }
  convolution_param {
    num_output: 512
    pad: 1
    kernel_size: 3
    weight_filler {
      type: "xavier"
    }
    bias_filler {
      type: "constant"
      value: 0
    }
    dilation: 1
  }
}
layer {
  name: "relu5_2"
  type: "ReLU"
  bottom: "conv5_2"
  top: "conv5_2"
}
layer {
  name: "conv5_3"
  type: "Convolution"
  bottom: "conv5_2"
  top: "conv5_3"
  param {
    lr_mult: 1
    decay_mult: 1
  }
  param {
    lr_mult: 2
    decay_mult: 0
  }
  convolution_param {
    num_output: 512
    pad: 1
    kernel_size: 3
    weight_filler {
      type: "xavier"
    }
    bias_filler {
      type: "constant"
      value: 0
    }
    dilation: 1
  }
}
layer {
  name: "relu5_3"
  type: "ReLU"
  bottom: "conv5_3"
  top: "conv5_3"
}
layer {
  name: "pool5"
  type: "Pooling"
  bottom: "conv5_3"
  top: "pool5"
  pooling_param {
    pool: MAX
    kernel_size: 3
    stride: 1
    pad: 1
  }
}
layer {
  name: "fc6"
  type: "Convolution"
  bottom: "pool5"
  top: "fc6"
  param {
    lr_mult: 1
    decay_mult: 1
  }
  param {
    lr_mult: 2
    decay_mult: 0
  }
  convolution_param {
    num_output: 1024
    pad: 6
    kernel_size: 3
    weight_filler {
      type: "xavier"
    }
    bias_filler {
      type: "constant"
      value: 0
    }
    dilation: 6
  }
}
layer {
  name: "relu6"
  type: "ReLU"
  bottom: "fc6"
  top: "fc6"
}
layer {
  name: "fc7"
  type: "Convolution"
  bottom: "fc6"
  top: "fc7"
  param {
    lr_mult: 1
    decay_mult: 1
  }
  param {
    lr_mult: 2
    decay_mult: 0
  }
  convolution_param {
    num_output: 1024
    kernel_size: 1
    weight_filler {
      type: "xavier"
    }
    bias_filler {
      type: "constant"
      value: 0
    }
  }
}
layer {
  name: "relu7"
  type: "ReLU"
  bottom: "fc7"
  top: "fc7"
}
layer {
  name: "conv6_1"
  type: "Convolution"
  bottom: "fc7"
  top: "conv6_1"
  param {
    lr_mult: 1
    decay_mult: 1
  }
  param {
    lr_mult: 2
    decay_mult: 0
  }
  convolution_param {
    num_output: 256
    pad: 0
    kernel_size: 1
    stride: 1
    weight_filler {
      type: "xavier"
    }
    bias_filler {
      type: "constant"
      value: 0
    }
  }
}
layer {
  name: "conv6_1_relu"
  type: "ReLU"
  bottom: "conv6_1"
  top: "conv6_1"
}
layer {
  name: "conv6_2"
  type: "Convolution"
  bottom: "conv6_1"
  top: "conv6_2"
  param {
    lr_mult: 1
    decay_mult: 1
  }
  param {
    lr_mult: 2
    decay_mult: 0
  }
  convolution_param {
    num_output: 512
    pad: 1
    kernel_size: 3
    stride: 2
    weight_filler {
      type: "xavier"
    }
    bias_filler {
      type: "constant"
      value: 0
    }
  }
}
layer {
  name: "conv6_2_relu"
  type: "ReLU"
  bottom: "conv6_2"
  top: "conv6_2"
}
layer {
  name: "conv7_1"
  type: "Convolution"
  bottom: "conv6_2"
  top: "conv7_1"
  param {
    lr_mult: 1
    decay_mult: 1
  }
  param {
    lr_mult: 2
    decay_mult: 0
  }
  convolution_param {
    num_output: 128
    pad: 0
    kernel_size: 1
    stride: 1
    weight_filler {
      type: "xavier"
    }
    bias_filler {
      type: "constant"
      value: 0
    }
  }
}
layer {
  name: "conv7_1_relu"
  type: "ReLU"
  bottom: "conv7_1"
  top: "conv7_1"
}
layer {
  name: "conv7_2"
  type: "Convolution"
  bottom: "conv7_1"
  top: "conv7_2"
  param {
    lr_mult: 1
    decay_mult: 1
  }
  param {
    lr_mult: 2
    decay_mult: 0
  }
  convolution_param {
    num_output: 256
    pad: 1
    kernel_size: 3
    stride: 2
    weight_filler {
      type: "xavier"
    }
    bias_filler {
      type: "constant"
      value: 0
    }
  }
}
layer {
  name: "conv7_2_relu"
  type: "ReLU"
  bottom: "conv7_2"
  top: "conv7_2"
}
layer {
  name: "conv8_1"
  type: "Convolution"
  bottom: "conv7_2"
  top: "conv8_1"
  param {
    lr_mult: 1
    decay_mult: 1
  }
  param {
    lr_mult: 2
    decay_mult: 0
  }
  convolution_param {
    num_output: 128
    pad: 0
    kernel_size: 1
    stride: 1
    weight_filler {
      type: "xavier"
    }
    bias_filler {
      type: "constant"
      value: 0
    }
  }
}
layer {
  name: "conv8_1_relu"
  type: "ReLU"
  bottom: "conv8_1"
  top: "conv8_1"
}
layer {
  name: "conv8_2"
  type: "Convolution"
  bottom: "conv8_1"
  top: "conv8_2"
  param {
    lr_mult: 1
    decay_mult: 1
  }
  param {
    lr_mult: 2
    decay_mult: 0
  }
  convolution_param {
    num_output: 256
    pad: 0
    kernel_size: 3
    stride: 1
    weight_filler {
      type: "xavier"
    }
    bias_filler {
      type: "constant"
      value: 0
    }
  }
}
layer {
  name: "conv8_2_relu"
  type: "ReLU"
  bottom: "conv8_2"
  top: "conv8_2"
}
layer {
  name: "conv9_1"
  type: "Convolution"
  bottom: "conv8_2"
  top: "conv9_1"
  param {
    lr_mult: 1
    decay_mult: 1
  }
  param {
    lr_mult: 2
    decay_mult: 0
  }
  convolution_param {
    num_output: 128
    pad: 0
    kernel_size: 1
    stride: 1
    weight_filler {
      type: "xavier"
    }
    bias_filler {
      type: "constant"
      value: 0
    }
  }
}
layer {
  name: "conv9_1_relu"
  type: "ReLU"
  bottom: "conv9_1"
  top: "conv9_1"
}
layer {
  name: "conv9_2"
  type: "Convolution"
  bottom: "conv9_1"
  top: "conv9_2"
  param {
    lr_mult: 1
    decay_mult: 1
  }
  param {
    lr_mult: 2
    decay_mult: 0
  }
  convolution_param {
    num_output: 256
    pad: 0
    kernel_size: 3
    stride: 1
    weight_filler {
      type: "xavier"
    }
    bias_filler {
      type: "constant"
      value: 0
    }
  }
}
layer {
  name: "conv9_2_relu"
  type: "ReLU"
  bottom: "conv9_2"
  top: "conv9_2"
}
layer {
  name: "conv4_3_norm"
  type: "Normalize"
  bottom: "conv4_3"
  top: "conv4_3_norm"
  norm_param {
    across_spatial: false
    scale_filler {
      type: "constant"
      value: 20
    }
    channel_shared: false
  }
}
layer {
  name: "conv4_3_norm_mbox_loc"
  type: "Convolution"
  bottom: "conv4_3_norm"
  top: "conv4_3_norm_mbox_loc"
  param {
    lr_mult: 1
    decay_mult: 1
  }
  param {
    lr_mult: 2
    decay_mult: 0
  }
  convolution_param {
    num_output: 16
    pad: 1
    kernel_size: 3
    stride: 1
    weight_filler {
      type: "xavier"
    }
    bias_filler {
      type: "constant"
      value: 0
    }
  }
}
layer {
  name: "conv4_3_norm_mbox_loc_perm"
  type: "Permute"
  bottom: "conv4_3_norm_mbox_loc"
  top: "conv4_3_norm_mbox_loc_perm"
  permute_param {
    order: 0
    order: 2
    order: 3
    order: 1
  }
}
layer {
  name: "conv4_3_norm_mbox_loc_flat"
  type: "Flatten"
  bottom: "conv4_3_norm_mbox_loc_perm"
  top: "conv4_3_norm_mbox_loc_flat"
  flatten_param {
    axis: 1
  }
}
layer {
  name: "conv4_3_norm_mbox_conf"
  type: "Convolution"
  bottom: "conv4_3_norm"
  top: "conv4_3_norm_mbox_conf"
  param {
    lr_mult: 1
    decay_mult: 1
  }
  param {
    lr_mult: 2
    decay_mult: 0
  }
  convolution_param {
    num_output: 324
    pad: 1
    kernel_size: 3
    stride: 1
    weight_filler {
      type: "xavier"
    }
    bias_filler {
      type: "constant"
      value: 0
    }
  }
}
layer {
  name: "conv4_3_norm_mbox_conf_perm"
  type: "Permute"
  bottom: "conv4_3_norm_mbox_conf"
  top: "conv4_3_norm_mbox_conf_perm"
  permute_param {
    order: 0
    order: 2
    order: 3
    order: 1
  }
}
layer {
  name: "conv4_3_norm_mbox_conf_flat"
  type: "Flatten"
  bottom: "conv4_3_norm_mbox_conf_perm"
  top: "conv4_3_norm_mbox_conf_flat"
  flatten_param {
    axis: 1
  }
}
layer {
  name: "conv4_3_norm_mbox_mask"
  type: "Convolution"
  bottom: "conv4_3_norm"
  top: "conv4_3_norm_mbox_mask"
  param {
    lr_mult: 1
    decay_mult: 1
  }
  param {
    lr_mult: 2
    decay_mult: 0
  }
  convolution_param {
    num_output: 1764
    pad: 1
    kernel_size: 3
    stride: 1
    weight_filler {
      type: "xavier"
    }
    bias_filler {
      type: "constant"
      value: 0
    }
  }
}
layer {
  name: "conv4_3_norm_mbox_mask_perm"
  type: "Permute"
  bottom: "conv4_3_norm_mbox_mask"
  top: "conv4_3_norm_mbox_mask_perm"
  permute_param {
    order: 0
    order: 2
    order: 3
    order: 1
  }
}
layer {
  name: "conv4_3_norm_mbox_mask_flat"
  type: "Flatten"
  bottom: "conv4_3_norm_mbox_mask_perm"
  top: "conv4_3_norm_mbox_mask_flat"
  flatten_param {
    axis: 1
  }
}
layer {
  name: "conv4_3_norm_mbox_priorbox"
  type: "PriorBox"
  bottom: "conv4_3_norm"
  bottom: "data"
  top: "conv4_3_norm_mbox_priorbox"
  prior_box_param {
    min_size: 21
    max_size: 45
    aspect_ratio: 2
    flip: true
    clip: false
    variance: 0.1
    variance: 0.1
    variance: 0.2
    variance: 0.2
    step: 8
    offset: 0.5
  }
}
layer {
  name: "fc7_mbox_loc"
  type: "Convolution"
  bottom: "fc7"
  top: "fc7_mbox_loc"
  param {
    lr_mult: 1
    decay_mult: 1
  }
  param {
    lr_mult: 2
    decay_mult: 0
  }
  convolution_param {
    num_output: 24
    pad: 1
    kernel_size: 3
    stride: 1
    weight_filler {
      type: "xavier"
    }
    bias_filler {
      type: "constant"
      value: 0
    }
  }
}
layer {
  name: "fc7_mbox_loc_perm"
  type: "Permute"
  bottom: "fc7_mbox_loc"
  top: "fc7_mbox_loc_perm"
  permute_param {
    order: 0
    order: 2
    order: 3
    order: 1
  }
}
layer {
  name: "fc7_mbox_loc_flat"
  type: "Flatten"
  bottom: "fc7_mbox_loc_perm"
  top: "fc7_mbox_loc_flat"
  flatten_param {
    axis: 1
  }
}
layer {
  name: "fc7_mbox_conf"
  type: "Convolution"
  bottom: "fc7"
  top: "fc7_mbox_conf"
  param {
    lr_mult: 1
    decay_mult: 1
  }
  param {
    lr_mult: 2
    decay_mult: 0
  }
  convolution_param {
    num_output: 486
    pad: 1
    kernel_size: 3
    stride: 1
    weight_filler {
      type: "xavier"
    }
    bias_filler {
      type: "constant"
      value: 0
    }
  }
}
layer {
  name: "fc7_mbox_conf_perm"
  type: "Permute"
  bottom: "fc7_mbox_conf"
  top: "fc7_mbox_conf_perm"
  permute_param {
    order: 0
    order: 2
    order: 3
    order: 1
  }
}
layer {
  name: "fc7_mbox_conf_flat"
  type: "Flatten"
  bottom: "fc7_mbox_conf_perm"
  top: "fc7_mbox_conf_flat"
  flatten_param {
    axis: 1
  }
}
layer {
  name: "fc7_mbox_mask"
  type: "Convolution"
  bottom: "fc7"
  top: "fc7_mbox_mask"
  param {
    lr_mult: 1
    decay_mult: 1
  }
  param {
    lr_mult: 2
    decay_mult: 0
  }
  convolution_param {
    num_output: 2646
    pad: 1
    kernel_size: 3
    stride: 1
    weight_filler {
      type: "xavier"
    }
    bias_filler {
      type: "constant"
      value: 0
    }
  }
}
layer {
  name: "fc7_mbox_mask_perm"
  type: "Permute"
  bottom: "fc7_mbox_mask"
  top: "fc7_mbox_mask_perm"
  permute_param {
    order: 0
    order: 2
    order: 3
    order: 1
  }
}
layer {
  name: "fc7_mbox_mask_flat"
  type: "Flatten"
  bottom: "fc7_mbox_mask_perm"
  top: "fc7_mbox_mask_flat"
  flatten_param {
    axis: 1
  }
}
layer {
  name: "fc7_mbox_priorbox"
  type: "PriorBox"
  bottom: "fc7"
  bottom: "data"
  top: "fc7_mbox_priorbox"
  prior_box_param {
    min_size: 45
    max_size: 99
    aspect_ratio: 2
    aspect_ratio: 3
    flip: true
    clip: false
    variance: 0.1
    variance: 0.1
    variance: 0.2
    variance: 0.2
    step: 16
    offset: 0.5
  }
}
layer {
  name: "conv6_2_mbox_loc"
  type: "Convolution"
  bottom: "conv6_2"
  top: "conv6_2_mbox_loc"
  param {
    lr_mult: 1
    decay_mult: 1
  }
  param {
    lr_mult: 2
    decay_mult: 0
  }
  convolution_param {
    num_output: 24
    pad: 1
    kernel_size: 3
    stride: 1
    weight_filler {
      type: "xavier"
    }
    bias_filler {
      type: "constant"
      value: 0
    }
  }
}
layer {
  name: "conv6_2_mbox_loc_perm"
  type: "Permute"
  bottom: "conv6_2_mbox_loc"
  top: "conv6_2_mbox_loc_perm"
  permute_param {
    order: 0
    order: 2
    order: 3
    order: 1
  }
}
layer {
  name: "conv6_2_mbox_loc_flat"
  type: "Flatten"
  bottom: "conv6_2_mbox_loc_perm"
  top: "conv6_2_mbox_loc_flat"
  flatten_param {
    axis: 1
  }
}
layer {
  name: "conv6_2_mbox_conf"
  type: "Convolution"
  bottom: "conv6_2"
  top: "conv6_2_mbox_conf"
  param {
    lr_mult: 1
    decay_mult: 1
  }
  param {
    lr_mult: 2
    decay_mult: 0
  }
  convolution_param {
    num_output: 486
    pad: 1
    kernel_size: 3
    stride: 1
    weight_filler {
      type: "xavier"
    }
    bias_filler {
      type: "constant"
      value: 0
    }
  }
}
layer {
  name: "conv6_2_mbox_conf_perm"
  type: "Permute"
  bottom: "conv6_2_mbox_conf"
  top: "conv6_2_mbox_conf_perm"
  permute_param {
    order: 0
    order: 2
    order: 3
    order: 1
  }
}
layer {
  name: "conv6_2_mbox_conf_flat"
  type: "Flatten"
  bottom: "conv6_2_mbox_conf_perm"
  top: "conv6_2_mbox_conf_flat"
  flatten_param {
    axis: 1
  }
}
layer {
  name: "conv6_2_mbox_mask"
  type: "Convolution"
  bottom: "conv6_2"
  top: "conv6_2_mbox_mask"
  param {
    lr_mult: 1
    decay_mult: 1
  }
  param {
    lr_mult: 2
    decay_mult: 0
  }
  convolution_param {
    num_output: 2646
    pad: 1
    kernel_size: 3
    stride: 1
    weight_filler {
      type: "xavier"
    }
    bias_filler {
      type: "constant"
      value: 0
    }
  }
}
layer {
  name: "conv6_2_mbox_mask_perm"
  type: "Permute"
  bottom: "conv6_2_mbox_mask"
  top: "conv6_2_mbox_mask_perm"
  permute_param {
    order: 0
    order: 2
    order: 3
    order: 1
  }
}
layer {
  name: "conv6_2_mbox_mask_flat"
  type: "Flatten"
  bottom: "conv6_2_mbox_mask_perm"
  top: "conv6_2_mbox_mask_flat"
  flatten_param {
    axis: 1
  }
}
layer {
  name: "conv6_2_mbox_priorbox"
  type: "PriorBox"
  bottom: "conv6_2"
  bottom: "data"
  top: "conv6_2_mbox_priorbox"
  prior_box_param {
    min_size: 99
    max_size: 153
    aspect_ratio: 2
    aspect_ratio: 3
    flip: true
    clip: false
    variance: 0.1
    variance: 0.1
    variance: 0.2
    variance: 0.2
    step: 32
    offset: 0.5
  }
}
layer {
  name: "conv7_2_mbox_loc"
  type: "Convolution"
  bottom: "conv7_2"
  top: "conv7_2_mbox_loc"
  param {
    lr_mult: 1
    decay_mult: 1
  }
  param {
    lr_mult: 2
    decay_mult: 0
  }
  convolution_param {
    num_output: 24
    pad: 1
    kernel_size: 3
    stride: 1
    weight_filler {
      type: "xavier"
    }
    bias_filler {
      type: "constant"
      value: 0
    }
  }
}
layer {
  name: "conv7_2_mbox_loc_perm"
  type: "Permute"
  bottom: "conv7_2_mbox_loc"
  top: "conv7_2_mbox_loc_perm"
  permute_param {
    order: 0
    order: 2
    order: 3
    order: 1
  }
}
layer {
  name: "conv7_2_mbox_loc_flat"
  type: "Flatten"
  bottom: "conv7_2_mbox_loc_perm"
  top: "conv7_2_mbox_loc_flat"
  flatten_param {
    axis: 1
  }
}
layer {
  name: "conv7_2_mbox_conf"
  type: "Convolution"
  bottom: "conv7_2"
  top: "conv7_2_mbox_conf"
  param {
    lr_mult: 1
    decay_mult: 1
  }
  param {
    lr_mult: 2
    decay_mult: 0
  }
  convolution_param {
    num_output: 486
    pad: 1
    kernel_size: 3
    stride: 1
    weight_filler {
      type: "xavier"
    }
    bias_filler {
      type: "constant"
      value: 0
    }
  }
}
layer {
  name: "conv7_2_mbox_conf_perm"
  type: "Permute"
  bottom: "conv7_2_mbox_conf"
  top: "conv7_2_mbox_conf_perm"
  permute_param {
    order: 0
    order: 2
    order: 3
    order: 1
  }
}
layer {
  name: "conv7_2_mbox_conf_flat"
  type: "Flatten"
  bottom: "conv7_2_mbox_conf_perm"
  top: "conv7_2_mbox_conf_flat"
  flatten_param {
    axis: 1
  }
}
layer {
  name: "conv7_2_mbox_mask"
  type: "Convolution"
  bottom: "conv7_2"
  top: "conv7_2_mbox_mask"
  param {
    lr_mult: 1
    decay_mult: 1
  }
  param {
    lr_mult: 2
    decay_mult: 0
  }
  convolution_param {
    num_output: 2646
    pad: 1
    kernel_size: 3
    stride: 1
    weight_filler {
      type: "xavier"
    }
    bias_filler {
      type: "constant"
      value: 0
    }
  }
}
layer {
  name: "conv7_2_mbox_mask_perm"
  type: "Permute"
  bottom: "conv7_2_mbox_mask"
  top: "conv7_2_mbox_mask_perm"
  permute_param {
    order: 0
    order: 2
    order: 3
    order: 1
  }
}
layer {
  name: "conv7_2_mbox_mask_flat"
  type: "Flatten"
  bottom: "conv7_2_mbox_mask_perm"
  top: "conv7_2_mbox_mask_flat"
  flatten_param {
    axis: 1
  }
}
layer {
  name: "conv7_2_mbox_priorbox"
  type: "PriorBox"
  bottom: "conv7_2"
  bottom: "data"
  top: "conv7_2_mbox_priorbox"
  prior_box_param {
    min_size: 153
    max_size: 207
    aspect_ratio: 2
    aspect_ratio: 3
    flip: true
    clip: false
    variance: 0.1
    variance: 0.1
    variance: 0.2
    variance: 0.2
    step: 64
    offset: 0.5
  }
}
layer {
  name: "conv8_2_mbox_loc"
  type: "Convolution"
  bottom: "conv8_2"
  top: "conv8_2_mbox_loc"
  param {
    lr_mult: 1
    decay_mult: 1
  }
  param {
    lr_mult: 2
    decay_mult: 0
  }
  convolution_param {
    num_output: 16
    pad: 1
    kernel_size: 3
    stride: 1
    weight_filler {
      type: "xavier"
    }
    bias_filler {
      type: "constant"
      value: 0
    }
  }
}
layer {
  name: "conv8_2_mbox_loc_perm"
  type: "Permute"
  bottom: "conv8_2_mbox_loc"
  top: "conv8_2_mbox_loc_perm"
  permute_param {
    order: 0
    order: 2
    order: 3
    order: 1
  }
}
layer {
  name: "conv8_2_mbox_loc_flat"
  type: "Flatten"
  bottom: "conv8_2_mbox_loc_perm"
  top: "conv8_2_mbox_loc_flat"
  flatten_param {
    axis: 1
  }
}
layer {
  name: "conv8_2_mbox_conf"
  type: "Convolution"
  bottom: "conv8_2"
  top: "conv8_2_mbox_conf"
  param {
    lr_mult: 1
    decay_mult: 1
  }
  param {
    lr_mult: 2
    decay_mult: 0
  }
  convolution_param {
    num_output: 324
    pad: 1
    kernel_size: 3
    stride: 1
    weight_filler {
      type: "xavier"
    }
    bias_filler {
      type: "constant"
      value: 0
    }
  }
}
layer {
  name: "conv8_2_mbox_conf_perm"
  type: "Permute"
  bottom: "conv8_2_mbox_conf"
  top: "conv8_2_mbox_conf_perm"
  permute_param {
    order: 0
    order: 2
    order: 3
    order: 1
  }
}
layer {
  name: "conv8_2_mbox_conf_flat"
  type: "Flatten"
  bottom: "conv8_2_mbox_conf_perm"
  top: "conv8_2_mbox_conf_flat"
  flatten_param {
    axis: 1
  }
}
layer {
  name: "conv8_2_mbox_mask"
  type: "Convolution"
  bottom: "conv8_2"
  top: "conv8_2_mbox_mask"
  param {
    lr_mult: 1
    decay_mult: 1
  }
  param {
    lr_mult: 2
    decay_mult: 0
  }
  convolution_param {
    num_output: 1764
    pad: 1
    kernel_size: 3
    stride: 1
    weight_filler {
      type: "xavier"
    }
    bias_filler {
      type: "constant"
      value: 0
    }
  }
}
layer {
  name: "conv8_2_mbox_mask_perm"
  type: "Permute"
  bottom: "conv8_2_mbox_mask"
  top: "conv8_2_mbox_mask_perm"
  permute_param {
    order: 0
    order: 2
    order: 3
    order: 1
  }
}
layer {
  name: "conv8_2_mbox_mask_flat"
  type: "Flatten"
  bottom: "conv8_2_mbox_mask_perm"
  top: "conv8_2_mbox_mask_flat"
  flatten_param {
    axis: 1
  }
}
layer {
  name: "conv8_2_mbox_priorbox"
  type: "PriorBox"
  bottom: "conv8_2"
  bottom: "data"
  top: "conv8_2_mbox_priorbox"
  prior_box_param {
    min_size: 207
    max_size: 261
    aspect_ratio: 2
    flip: true
    clip: false
    variance: 0.1
    variance: 0.1
    variance: 0.2
    variance: 0.2
    step: 100
    offset: 0.5
  }
}
layer {
  name: "conv9_2_mbox_loc"
  type: "Convolution"
  bottom: "conv9_2"
  top: "conv9_2_mbox_loc"
  param {
    lr_mult: 1
    decay_mult: 1
  }
  param {
    lr_mult: 2
    decay_mult: 0
  }
  convolution_param {
    num_output: 16
    pad: 1
    kernel_size: 3
    stride: 1
    weight_filler {
      type: "xavier"
    }
    bias_filler {
      type: "constant"
      value: 0
    }
  }
}
layer {
  name: "conv9_2_mbox_loc_perm"
  type: "Permute"
  bottom: "conv9_2_mbox_loc"
  top: "conv9_2_mbox_loc_perm"
  permute_param {
    order: 0
    order: 2
    order: 3
    order: 1
  }
}
layer {
  name: "conv9_2_mbox_loc_flat"
  type: "Flatten"
  bottom: "conv9_2_mbox_loc_perm"
  top: "conv9_2_mbox_loc_flat"
  flatten_param {
    axis: 1
  }
}
layer {
  name: "conv9_2_mbox_conf"
  type: "Convolution"
  bottom: "conv9_2"
  top: "conv9_2_mbox_conf"
  param {
    lr_mult: 1
    decay_mult: 1
  }
  param {
    lr_mult: 2
    decay_mult: 0
  }
  convolution_param {
    num_output: 324
    pad: 1
    kernel_size: 3
    stride: 1
    weight_filler {
      type: "xavier"
    }
    bias_filler {
      type: "constant"
      value: 0
    }
  }
}
layer {
  name: "conv9_2_mbox_conf_perm"
  type: "Permute"
  bottom: "conv9_2_mbox_conf"
  top: "conv9_2_mbox_conf_perm"
  permute_param {
    order: 0
    order: 2
    order: 3
    order: 1
  }
}
layer {
  name: "conv9_2_mbox_conf_flat"
  type: "Flatten"
  bottom: "conv9_2_mbox_conf_perm"
  top: "conv9_2_mbox_conf_flat"
  flatten_param {
    axis: 1
  }
}
layer {
  name: "conv9_2_mbox_mask"
  type: "Convolution"
  bottom: "conv9_2"
  top: "conv9_2_mbox_mask"
  param {
    lr_mult: 1
    decay_mult: 1
  }
  param {
    lr_mult: 2
    decay_mult: 0
  }
  convolution_param {
    num_output: 1764
    pad: 1
    kernel_size: 3
    stride: 1
    weight_filler {
      type: "xavier"
    }
    bias_filler {
      type: "constant"
      value: 0
    }
  }
}
layer {
  name: "conv9_2_mbox_mask_perm"
  type: "Permute"
  bottom: "conv9_2_mbox_mask"
  top: "conv9_2_mbox_mask_perm"
  permute_param {
    order: 0
    order: 2
    order: 3
    order: 1
  }
}
layer {
  name: "conv9_2_mbox_mask_flat"
  type: "Flatten"
  bottom: "conv9_2_mbox_mask_perm"
  top: "conv9_2_mbox_mask_flat"
  flatten_param {
    axis: 1
  }
}
layer {
  name: "conv9_2_mbox_priorbox"
  type: "PriorBox"
  bottom: "conv9_2"
  bottom: "data"
  top: "conv9_2_mbox_priorbox"
  prior_box_param {
    min_size: 261
    max_size: 315
    aspect_ratio: 2
    flip: true
    clip: false
    variance: 0.1
    variance: 0.1
    variance: 0.2
    variance: 0.2
    step: 300
    offset: 0.5
  }
}
layer {
  name: "mbox_loc"
  type: "Concat"
  bottom: "conv4_3_norm_mbox_loc_flat"
  bottom: "fc7_mbox_loc_flat"
  bottom: "conv6_2_mbox_loc_flat"
  bottom: "conv7_2_mbox_loc_flat"
  bottom: "conv8_2_mbox_loc_flat"
  bottom: "conv9_2_mbox_loc_flat"
  top: "mbox_loc"
  concat_param {
    axis: 1
  }
}
layer {
  name: "mbox_conf"
  type: "Concat"
  bottom: "conv4_3_norm_mbox_conf_flat"
  bottom: "fc7_mbox_conf_flat"
  bottom: "conv6_2_mbox_conf_flat"
  bottom: "conv7_2_mbox_conf_flat"
  bottom: "conv8_2_mbox_conf_flat"
  bottom: "conv9_2_mbox_conf_flat"
  top: "mbox_conf"
  concat_param {
    axis: 1
  }
}
layer {
  name: "mbox_priorbox"
  type: "Concat"
  bottom: "conv4_3_norm_mbox_priorbox"
  bottom: "fc7_mbox_priorbox"
  bottom: "conv6_2_mbox_priorbox"
  bottom: "conv7_2_mbox_priorbox"
  bottom: "conv8_2_mbox_priorbox"
  bottom: "conv9_2_mbox_priorbox"
  top: "mbox_priorbox"
  concat_param {
    axis: 2
  }
}
layer {
  name: "mbox_mask"
  type: "Concat"
  bottom: "conv4_3_norm_mbox_mask_flat"
  bottom: "fc7_mbox_mask_flat"
  bottom: "conv6_2_mbox_mask_flat"
  bottom: "conv7_2_mbox_mask_flat"
  bottom: "conv8_2_mbox_mask_flat"
  bottom: "conv9_2_mbox_mask_flat"
  top: "mbox_mask"
  concat_param {
    axis: 1
  }
}
layer {
  name: "mbox_conf_reshape"
  type: "Reshape"
  bottom: "mbox_conf"
  top: "mbox_conf_reshape"
  reshape_param {
    shape {
      dim: 0
      dim: -1
      dim: 81
    }
  }
}
layer {
  name: "mbox_conf_softmax"
  type: "Softmax"
  bottom: "mbox_conf_reshape"
  top: "mbox_conf_softmax"
  softmax_param {
    axis: 2
  }
}
layer {
  name: "mbox_conf_flatten"
  type: "Flatten"
  bottom: "mbox_conf_softmax"
  top: "mbox_conf_flatten"
  flatten_param {
    axis: 1
  }
}
layer {
  name: "detection_out"
  type: "DetectionOutput"
  bottom: "mbox_loc"
  bottom: "mbox_conf_flatten"
  bottom: "mbox_priorbox"
  bottom: "mbox_mask"
  top: "detection_out"
  include {
    phase: TEST
  }
  detection_output_param {
    num_classes: 81
    share_location: true
    background_label_id: 0
    nms_param {
      nms_threshold: 0.45
      top_k: 400
    }
    save_output_param {
      output_directory: "/home/gaopeng/data/msc
I0510 21:36:47.364202 18407 layer_factory.hpp:77] Creating layer data
I0510 21:36:47.364251 18407 net.cpp:100] Creating Layer data
…
I0510 21:36:47.373594 18407 base_data_layer.cpp:56] prefetch data reading finished
I0510 21:36:47.373702 18407 base_data_layer.cpp:59] prefetch label reading finished
I0510 21:36:47.373754 18407 base_data_layer.cpp:61] prefetch label mask reading finished
I0510 21:36:47.375905 18407 base_data_layer.cpp:56] prefetch data reading finished
I0510 21:36:47.375983 18407 base_data_layer.cpp:59] prefetch label reading finished
I0510 21:36:47.376039 18407 base_data_layer.cpp:61] prefetch label mask reading finished
I0510 21:36:47.379238 18407 base_data_layer.cpp:79] Prefetch finishaed
I0510 21:36:47.379269 18407 net.cpp:150] Setting up data
I0510 21:36:47.379290 18407 net.cpp:157] Top shape: 8 3 300 300 (2160000)
I0510 21:36:47.379307 18407 net.cpp:157] Top shape: 1 1 20 8 (160)
I0510 21:36:47.379321 18407 net.cpp:157] Top shape: 1 20 10 10 (2000)
I0510 21:36:47.379335 18407 net.cpp:165] Memory required for data: 8648640
I0510 21:36:47.379353 18407 layer_factory.hpp:77] Creating layer data_data_0_split
I0510 21:36:47.379374 18407 net.cpp:100] Creating Layer data_data_0_split
I0510 21:36:47.379390 18407 net.cpp:434] data_data_0_split <- data
I0510 21:36:47.379407 18407 net.cpp:408] data_data_0_split -> data_data_0_split_0
I0510 21:36:47.379428 18407 net.cpp:408] data_data_0_split -> data_data_0_split_1
I0510 21:36:47.379448 18407 net.cpp:408] data_data_0_split -> data_data_0_split_2
I0510 21:36:47.379467 18407 net.cpp:408] data_data_0_split -> data_data_0_split_3
I0510 21:36:47.379483 18407 net.cpp:408] data_data_0_split -> data_data_0_split_4
I0510 21:36:47.379501 18407 net.cpp:408] data_data_0_split -> data_data_0_split_5
I0510 21:36:47.379520 18407 net.cpp:408] data_data_0_split -> data_data_0_split_6
I0510 21:36:47.379652 18407 net.cpp:150] Setting up data_data_0_split
I0510 21:36:47.379672 18407 net.cpp:157] Top shape: 8 3 300 300 (2160000)
I0510 21:36:47.379686 18407 net.cpp:157] Top shape: 8 3 300 300 (2160000)
I0510 21:36:47.379703 18407 net.cpp:157] Top shape: 8 3 300 300 (2160000)
I0510 21:36:47.379717 18407 net.cpp:157] Top shape: 8 3 300 300 (2160000)
I0510 21:36:47.379732 18407 net.cpp:157] Top shape: 8 3 300 300 (2160000)
I0510 21:36:47.379747 18407 net.cpp:157] Top shape: 8 3 300 300 (2160000)
I0510 21:36:47.379762 18407 net.cpp:157] Top shape: 8 3 300 300 (2160000)
I0510 21:36:47.379776 18407 net.cpp:165] Memory required for data: 69128640
I0510 21:36:47.379789 18407 layer_factory.hpp:77] Creating layer conv1_1
I0510 21:36:47.379812 18407 net.cpp:100] Creating Layer conv1_1
I0510 21:36:47.379827 18407 net.cpp:434] conv1_1 <- data_data_0_split_0
I0510 21:36:47.379844 18407 net.cpp:408] conv1_1 -> conv1_1
I0510 21:36:47.380270 18407 net.cpp:150] Setting up conv1_1
I0510 21:36:47.380297 18407 net.cpp:157] Top shape: 8 64 300 300 (46080000)
I0510 21:36:47.380312 18407 net.cpp:165] Memory required for data: 253448640
I0510 21:36:47.380333 18407 layer_factory.hpp:77] Creating layer relu1_1
I0510 21:36:47.380352 18407 net.cpp:100] Creating Layer relu1_1
I0510 21:36:47.380367 18407 net.cpp:434] relu1_1 <- conv1_1
I0510 21:36:47.380375 18407 net.cpp:395] relu1_1 -> conv1_1 (in-place)
I0510 21:36:47.380383 18407 net.cpp:150] Setting up relu1_1
I0510 21:36:47.380390 18407 net.cpp:157] Top shape: 8 64 300 300 (46080000)
I0510 21:36:47.380394 18407 net.cpp:165] Memory required for data: 437768640
I0510 21:36:47.380399 18407 layer_factory.hpp:77] Creating layer conv1_2
I0510 21:36:47.380410 18407 net.cpp:100] Creating Layer conv1_2
I0510 21:36:47.380419 18407 net.cpp:434] conv1_2 <- conv1_1
I0510 21:36:47.380427 18407 net.cpp:408] conv1_2 -> conv1_2
I0510 21:36:47.381278 18407 net.cpp:150] Setting up conv1_2
I0510 21:36:47.381307 18407 net.cpp:157] Top shape: 8 64 300 300 (46080000)
I0510 21:36:47.381314 18407 net.cpp:165] Memory required for data: 622088640
I0510 21:36:47.381327 18407 layer_factory.hpp:77] Creating layer relu1_2
I0510 21:36:47.381338 18407 net.cpp:100] Creating Layer relu1_2
I0510 21:36:47.381345 18407 net.cpp:434] relu1_2 <- conv1_2
I0510 21:36:47.381355 18407 net.cpp:395] relu1_2 -> conv1_2 (in-place)
I0510 21:36:47.381364 18407 net.cpp:150] Setting up relu1_2
I0510 21:36:47.381372 18407 net.cpp:157] Top shape: 8 64 300 300 (46080000)
I0510 21:36:47.381376 18407 net.cpp:165] Memory required for data: 806408640
I0510 21:36:47.381381 18407 layer_factory.hpp:77] Creating layer pool1
I0510 21:36:47.381388 18407 net.cpp:100] Creating Layer pool1
I0510 21:36:47.381392 18407 net.cpp:434] pool1 <- conv1_2
I0510 21:36:47.381399 18407 net.cpp:408] pool1 -> pool1
I0510 21:36:47.381454 18407 net.cpp:150] Setting up pool1
I0510 21:36:47.381463 18407 net.cpp:157] Top shape: 8 64 150 150 (11520000)
I0510 21:36:47.381466 18407 net.cpp:165] Memory required for data: 852488640
I0510 21:36:47.381470 18407 layer_factory.hpp:77] Creating layer conv2_1
I0510 21:36:47.381484 18407 net.cpp:100] Creating Layer conv2_1
I0510 21:36:47.381489 18407 net.cpp:434] conv2_1 <- pool1
I0510 21:36:47.381497 18407 net.cpp:408] conv2_1 -> conv2_1
I0510 21:36:47.382072 18407 net.cpp:150] Setting up conv2_1
I0510 21:36:47.382082 18407 net.cpp:157] Top shape: 8 128 150 150 (23040000)
I0510 21:36:47.382087 18407 net.cpp:165] Memory required for data: 944648640
I0510 21:36:47.382097 18407 layer_factory.hpp:77] Creating layer relu2_1
I0510 21:36:47.382107 18407 net.cpp:100] Creating Layer relu2_1
I0510 21:36:47.382113 18407 net.cpp:434] relu2_1 <- conv2_1
I0510 21:36:47.382119 18407 net.cpp:395] relu2_1 -> conv2_1 (in-place)
I0510 21:36:47.382128 18407 net.cpp:150] Setting up relu2_1
I0510 21:36:47.382133 18407 net.cpp:157] Top shape: 8 128 150 150 (23040000)
I0510 21:36:47.382138 18407 net.cpp:165] Memory required for data: 1036808640
I0510 21:36:47.382143 18407 layer_factory.hpp:77] Creating layer conv2_2
I0510 21:36:47.382153 18407 net.cpp:100] Creating Layer conv2_2
I0510 21:36:47.382158 18407 net.cpp:434] conv2_2 <- conv2_1
I0510 21:36:47.382165 18407 net.cpp:408] conv2_2 -> conv2_2
I0510 21:36:47.383422 18407 net.cpp:150] Setting up conv2_2
I0510 21:36:47.383440 18407 net.cpp:157] Top shape: 8 128 150 150 (23040000)
I0510 21:36:47.383445 18407 net.cpp:165] Memory required for data: 1128968640
I0510 21:36:47.383453 18407 layer_factory.hpp:77] Creating layer relu2_2
I0510 21:36:47.383461 18407 net.cpp:100] Creating Layer relu2_2
I0510 21:36:47.383466 18407 net.cpp:434] relu2_2 <- conv2_2
I0510 21:36:47.383473 18407 net.cpp:395] relu2_2 -> conv2_2 (in-place)
I0510 21:36:47.383482 18407 net.cpp:150] Setting up relu2_2
I0510 21:36:47.383488 18407 net.cpp:157] Top shape: 8 128 150 150 (23040000)
I0510 21:36:47.383492 18407 net.cpp:165] Memory required for data: 1221128640
I0510 21:36:47.383497 18407 layer_factory.hpp:77] Creating layer pool2
I0510 21:36:47.383504 18407 net.cpp:100] Creating Layer pool2
I0510 21:36:47.383508 18407 net.cpp:434] pool2 <- conv2_2
I0510 21:36:47.383517 18407 net.cpp:408] pool2 -> pool2
I0510 21:36:47.383569 18407 net.cpp:150] Setting up pool2
I0510 21:36:47.383576 18407 net.cpp:157] Top shape: 8 128 75 75 (5760000)
I0510 21:36:47.383580 18407 net.cpp:165] Memory required for data: 1244168640
I0510 21:36:47.383584 18407 layer_factory.hpp:77] Creating layer conv3_1
I0510 21:36:47.383595 18407 net.cpp:100] Creating Layer conv3_1
I0510 21:36:47.383601 18407 net.cpp:434] conv3_1 <- pool2
I0510 21:36:47.383608 18407 net.cpp:408] conv3_1 -> conv3_1
I0510 21:36:47.386082 18407 net.cpp:150] Setting up conv3_1
I0510 21:36:47.386106 18407 net.cpp:157] Top shape: 8 256 75 75 (11520000)
I0510 21:36:47.386111 18407 net.cpp:165] Memory required for data: 1290248640
I0510 21:36:47.386126 18407 layer_factory.hpp:77] Creating layer relu3_1
I0510 21:36:47.386137 18407 net.cpp:100] Creating Layer relu3_1
I0510 21:36:47.386158 18407 net.cpp:434] relu3_1 <- conv3_1
I0510 21:36:47.386168 18407 net.cpp:395] relu3_1 -> conv3_1 (in-place)
I0510 21:36:47.386180 18407 net.cpp:150] Setting up relu3_1
I0510 21:36:47.386188 18407 net.cpp:157] Top shape: 8 256 75 75 (11520000)
I0510 21:36:47.386193 18407 net.cpp:165] Memory required for data: 1336328640
I0510 21:36:47.386198 18407 layer_factory.hpp:77] Creating layer conv3_2
I0510 21:36:47.386210 18407 net.cpp:100] Creating Layer conv3_2
I0510 21:36:47.386215 18407 net.cpp:434] conv3_2 <- conv3_1
I0510 21:36:47.386224 18407 net.cpp:408] conv3_2 -> conv3_2
I0510 21:36:47.390030 18407 net.cpp:150] Setting up conv3_2
I0510 21:36:47.390059 18407 net.cpp:157] Top shape: 8 256 75 75 (11520000)
I0510 21:36:47.390064 18407 net.cpp:165] Memory required for data: 1382408640
I0510 21:36:47.390074 18407 layer_factory.hpp:77] Creating layer relu3_2
I0510 21:36:47.390086 18407 net.cpp:100] Creating Layer relu3_2
I0510 21:36:47.390092 18407 net.cpp:434] relu3_2 <- conv3_2
I0510 21:36:47.390100 18407 net.cpp:395] relu3_2 -> conv3_2 (in-place)
I0510 21:36:47.390111 18407 net.cpp:150] Setting up relu3_2
I0510 21:36:47.390120 18407 net.cpp:157] Top shape: 8 256 75 75 (11520000)
I0510 21:36:47.390125 18407 net.cpp:165] Memory required for data: 1428488640
I0510 21:36:47.390130 18407 layer_factory.hpp:77] Creating layer conv3_3
I0510 21:36:47.390144 18407 net.cpp:100] Creating Layer conv3_3
I0510 21:36:47.390151 18407 net.cpp:434] conv3_3 <- conv3_2
I0510 21:36:47.390159 18407 net.cpp:408] conv3_3 -> conv3_3
I0510 21:36:47.393761 18407 net.cpp:150] Setting up conv3_3
I0510 21:36:47.393784 18407 net.cpp:157] Top shape: 8 256 75 75 (11520000)
I0510 21:36:47.393788 18407 net.cpp:165] Memory required for data: 1474568640
I0510 21:36:47.393800 18407 layer_factory.hpp:77] Creating layer relu3_3
I0510 21:36:47.393810 18407 net.cpp:100] Creating Layer relu3_3
I0510 21:36:47.393816 18407 net.cpp:434] relu3_3 <- conv3_3
I0510 21:36:47.393826 18407 net.cpp:395] relu3_3 -> conv3_3 (in-place)
I0510 21:36:47.393836 18407 net.cpp:150] Setting up relu3_3
I0510 21:36:47.393843 18407 net.cpp:157] Top shape: 8 256 75 75 (11520000)
I0510 21:36:47.393848 18407 net.cpp:165] Memory required for data: 1520648640
I0510 21:36:47.393853 18407 layer_factory.hpp:77] Creating layer pool3
I0510 21:36:47.393860 18407 net.cpp:100] Creating Layer pool3
I0510 21:36:47.393864 18407 net.cpp:434] pool3 <- conv3_3
I0510 21:36:47.393872 18407 net.cpp:408] pool3 -> pool3
I0510 21:36:47.393920 18407 net.cpp:150] Setting up pool3
I0510 21:36:47.393929 18407 net.cpp:157] Top shape: 8 256 38 38 (2957312)
I0510 21:36:47.393934 18407 net.cpp:165] Memory required for data: 1532477888
I0510 21:36:47.393937 18407 layer_factory.hpp:77] Creating layer conv4_1
I0510 21:36:47.393949 18407 net.cpp:100] Creating Layer conv4_1
I0510 21:36:47.393954 18407 net.cpp:434] conv4_1 <- pool3
I0510 21:36:47.393961 18407 net.cpp:408] conv4_1 -> conv4_1
I0510 21:36:47.401257 18407 net.cpp:150] Setting up conv4_1
I0510 21:36:47.401304 18407 net.cpp:157] Top shape: 8 512 38 38 (5914624)
I0510 21:36:47.401319 18407 net.cpp:165] Memory required for data: 1556136384
I0510 21:36:47.401338 18407 layer_factory.hpp:77] Creating layer relu4_1
I0510 21:36:47.401357 18407 net.cpp:100] Creating Layer relu4_1
I0510 21:36:47.401372 18407 net.cpp:434] relu4_1 <- conv4_1
I0510 21:36:47.401389 18407 net.cpp:395] relu4_1 -> conv4_1 (in-place)
I0510 21:36:47.401408 18407 net.cpp:150] Setting up relu4_1
I0510 21:36:47.401423 18407 net.cpp:157] Top shape: 8 512 38 38 (5914624)
I0510 21:36:47.401437 18407 net.cpp:165] Memory required for data: 1579794880
I0510 21:36:47.401451 18407 layer_factory.hpp:77] Creating layer conv4_2
I0510 21:36:47.401470 18407 net.cpp:100] Creating Layer conv4_2
I0510 21:36:47.401484 18407 net.cpp:434] conv4_2 <- conv4_1
I0510 21:36:47.401500 18407 net.cpp:408] conv4_2 -> conv4_2
I0510 21:36:47.415004 18407 net.cpp:150] Setting up conv4_2
I0510 21:36:47.415047 18407 net.cpp:157] Top shape: 8 512 38 38 (5914624)
I0510 21:36:47.415051 18407 net.cpp:165] Memory required for data: 1603453376
I0510 21:36:47.415079 18407 layer_factory.hpp:77] Creating layer relu4_2
I0510 21:36:47.415088 18407 net.cpp:100] Creating Layer relu4_2
I0510 21:36:47.415091 18407 net.cpp:434] relu4_2 <- conv4_2
I0510 21:36:47.415110 18407 net.cpp:395] relu4_2 -> conv4_2 (in-place)
I0510 21:36:47.415117 18407 net.cpp:150] Setting up relu4_2
I0510 21:36:47.415122 18407 net.cpp:157] Top shape: 8 512 38 38 (5914624)
I0510 21:36:47.415123 18407 net.cpp:165] Memory required for data: 1627111872
I0510 21:36:47.415127 18407 layer_factory.hpp:77] Creating layer conv4_3
I0510 21:36:47.415132 18407 net.cpp:100] Creating Layer conv4_3
I0510 21:36:47.415136 18407 net.cpp:434] conv4_3 <- conv4_2
I0510 21:36:47.415140 18407 net.cpp:408] conv4_3 -> conv4_3
I0510 21:36:47.430197 18407 net.cpp:150] Setting up conv4_3
I0510 21:36:47.430220 18407 net.cpp:157] Top shape: 8 512 38 38 (5914624)
I0510 21:36:47.430224 18407 net.cpp:165] Memory required for data: 1650770368
I0510 21:36:47.430249 18407 layer_factory.hpp:77] Creating layer relu4_3
I0510 21:36:47.430256 18407 net.cpp:100] Creating Layer relu4_3
I0510 21:36:47.430260 18407 net.cpp:434] relu4_3 <- conv4_3
I0510 21:36:47.430265 18407 net.cpp:395] relu4_3 -> conv4_3 (in-place)
I0510 21:36:47.430271 18407 net.cpp:150] Setting up relu4_3
I0510 21:36:47.430275 18407 net.cpp:157] Top shape: 8 512 38 38 (5914624)
I0510 21:36:47.430292 18407 net.cpp:165] Memory required for data: 1674428864
I0510 21:36:47.430295 18407 layer_factory.hpp:77] Creating layer conv4_3_relu4_3_0_split
I0510 21:36:47.430299 18407 net.cpp:100] Creating Layer conv4_3_relu4_3_0_split
I0510 21:36:47.430301 18407 net.cpp:434] conv4_3_relu4_3_0_split <- conv4_3
I0510 21:36:47.430306 18407 net.cpp:408] conv4_3_relu4_3_0_split -> conv4_3_relu4_3_0_split_0
I0510 21:36:47.430312 18407 net.cpp:408] conv4_3_relu4_3_0_split -> conv4_3_relu4_3_0_split_1
I0510 21:36:47.430346 18407 net.cpp:150] Setting up conv4_3_relu4_3_0_split
I0510 21:36:47.430352 18407 net.cpp:157] Top shape: 8 512 38 38 (5914624)
I0510 21:36:47.430356 18407 net.cpp:157] Top shape: 8 512 38 38 (5914624)
I0510 21:36:47.430358 18407 net.cpp:165] Memory required for data: 1721745856
I0510 21:36:47.430361 18407 layer_factory.hpp:77] Creating layer pool4
I0510 21:36:47.430366 18407 net.cpp:100] Creating Layer pool4
I0510 21:36:47.430367 18407 net.cpp:434] pool4 <- conv4_3_relu4_3_0_split_0
I0510 21:36:47.430372 18407 net.cpp:408] pool4 -> pool4
I0510 21:36:47.430402 18407 net.cpp:150] Setting up pool4
I0510 21:36:47.430408 18407 net.cpp:157] Top shape: 8 512 19 19 (1478656)
I0510 21:36:47.430410 18407 net.cpp:165] Memory required for data: 1727660480
I0510 21:36:47.430413 18407 layer_factory.hpp:77] Creating layer conv5_1
I0510 21:36:47.430419 18407 net.cpp:100] Creating Layer conv5_1
I0510 21:36:47.430423 18407 net.cpp:434] conv5_1 <- pool4
I0510 21:36:47.430426 18407 net.cpp:408] conv5_1 -> conv5_1
I0510 21:36:47.443554 18407 net.cpp:150] Setting up conv5_1
I0510 21:36:47.443577 18407 net.cpp:157] Top shape: 8 512 19 19 (1478656)
I0510 21:36:47.443580 18407 net.cpp:165] Memory required for data: 1733575104
I0510 21:36:47.443586 18407 layer_factory.hpp:77] Creating layer relu5_1
I0510 21:36:47.443594 18407 net.cpp:100] Creating Layer relu5_1
I0510 21:36:47.443598 18407 net.cpp:434] relu5_1 <- conv5_1
I0510 21:36:47.443603 18407 net.cpp:395] relu5_1 -> conv5_1 (in-place)
I0510 21:36:47.443609 18407 net.cpp:150] Setting up relu5_1
I0510 21:36:47.443614 18407 net.cpp:157] Top shape: 8 512 19 19 (1478656)
I0510 21:36:47.443615 18407 net.cpp:165] Memory required for data: 1739489728
I0510 21:36:47.443617 18407 layer_factory.hpp:77] Creating layer conv5_2
I0510 21:36:47.443624 18407 net.cpp:100] Creating Layer conv5_2
I0510 21:36:47.443627 18407 net.cpp:434] conv5_2 <- conv5_1
I0510 21:36:47.443631 18407 net.cpp:408] conv5_2 -> conv5_2
I0510 21:36:47.456866 18407 net.cpp:150] Setting up conv5_2
I0510 21:36:47.456887 18407 net.cpp:157] Top shape: 8 512 19 19 (1478656)
I0510 21:36:47.456892 18407 net.cpp:165] Memory required for data: 1745404352
I0510 21:36:47.456923 18407 layer_factory.hpp:77] Creating layer relu5_2
I0510 21:36:47.456946 18407 net.cpp:100] Creating Layer relu5_2
I0510 21:36:47.456950 18407 net.cpp:434] relu5_2 <- conv5_2
I0510 21:36:47.456955 18407 net.cpp:395] relu5_2 -> conv5_2 (in-place)
I0510 21:36:47.456981 18407 net.cpp:150] Setting up relu5_2
I0510 21:36:47.456985 18407 net.cpp:157] Top shape: 8 512 19 19 (1478656)
I0510 21:36:47.456987 18407 net.cpp:165] Memory required for data: 1751318976
I0510 21:36:47.456990 18407 layer_factory.hpp:77] Creating layer conv5_3
I0510 21:36:47.456997 18407 net.cpp:100] Creating Layer conv5_3
I0510 21:36:47.457000 18407 net.cpp:434] conv5_3 <- conv5_2
I0510 21:36:47.457003 18407 net.cpp:408] conv5_3 -> conv5_3
I0510 21:36:47.469909 18407 net.cpp:150] Setting up conv5_3
I0510 21:36:47.469933 18407 net.cpp:157] Top shape: 8 512 19 19 (1478656)
I0510 21:36:47.469935 18407 net.cpp:165] Memory required for data: 1757233600
I0510 21:36:47.469961 18407 layer_factory.hpp:77] Creating layer relu5_3
I0510 21:36:47.469986 18407 net.cpp:100] Creating Layer relu5_3
I0510 21:36:47.469990 18407 net.cpp:434] relu5_3 <- conv5_3
I0510 21:36:47.469995 18407 net.cpp:395] relu5_3 -> conv5_3 (in-place)
I0510 21:36:47.470001 18407 net.cpp:150] Setting up relu5_3
I0510 21:36:47.470005 18407 net.cpp:157] Top shape: 8 512 19 19 (1478656)
I0510 21:36:47.470007 18407 net.cpp:165] Memory required for data: 1763148224
I0510 21:36:47.470010 18407 layer_factory.hpp:77] Creating layer pool5
I0510 21:36:47.470015 18407 net.cpp:100] Creating Layer pool5
I0510 21:36:47.470017 18407 net.cpp:434] pool5 <- conv5_3
I0510 21:36:47.470021 18407 net.cpp:408] pool5 -> pool5
I0510 21:36:47.470054 18407 net.cpp:150] Setting up pool5
I0510 21:36:47.470062 18407 net.cpp:157] Top shape: 8 512 19 19 (1478656)
I0510 21:36:47.470065 18407 net.cpp:165] Memory required for data: 1769062848
I0510 21:36:47.470068 18407 layer_factory.hpp:77] Creating layer fc6
I0510 21:36:47.470075 18407 net.cpp:100] Creating Layer fc6
I0510 21:36:47.470077 18407 net.cpp:434] fc6 <- pool5
I0510 21:36:47.470082 18407 net.cpp:408] fc6 -> fc6
I0510 21:36:47.495599 18407 net.cpp:150] Setting up fc6
I0510 21:36:47.495622 18407 net.cpp:157] Top shape: 8 1024 19 19 (2957312)
I0510 21:36:47.495625 18407 net.cpp:165] Memory required for data: 1780892096
I0510 21:36:47.495651 18407 layer_factory.hpp:77] Creating layer relu6
I0510 21:36:47.495658 18407 net.cpp:100] Creating Layer relu6
I0510 21:36:47.495661 18407 net.cpp:434] relu6 <- fc6
I0510 21:36:47.495666 18407 net.cpp:395] relu6 -> fc6 (in-place)
I0510 21:36:47.495674 18407 net.cpp:150] Setting up relu6
I0510 21:36:47.495695 18407 net.cpp:157] Top shape: 8 1024 19 19 (2957312)
I0510 21:36:47.495697 18407 net.cpp:165] Memory required for data: 1792721344
I0510 21:36:47.495700 18407 layer_factory.hpp:77] Creating layer fc7
I0510 21:36:47.495708 18407 net.cpp:100] Creating Layer fc7
I0510 21:36:47.495724 18407 net.cpp:434] fc7 <- fc6
…
I0510 21:36:47.518695 18407 net.cpp:408] conv7_2_conv7_2_relu_0_split -> conv7_2_conv7_2_relu_0_split_0
I0510 21:36:47.518702 18407 net.cpp:408] conv7_2_conv7_2_relu_0_split -> conv7_2_conv7_2_relu_0_split_1
I0510 21:36:47.518707 18407 net.cpp:408] conv7_2_conv7_2_relu_0_split -> conv7_2_conv7_2_relu_0_split_2
I0510 21:36:47.518712 18407 net.cpp:408] conv7_2_conv7_2_relu_0_split -> conv7_2_conv7_2_relu_0_split_3
I0510 21:36:47.518717 18407 net.cpp:408] conv7_2_conv7_2_relu_0_split -> conv7_2_conv7_2_relu_0_split_4
I0510 21:36:47.518817 18407 net.cpp:150] Setting up conv7_2_conv7_2_relu_0_split
I0510 21:36:47.518837 18407 net.cpp:157] Top shape: 8 256 5 5 (51200)
I0510 21:36:47.518841 18407 net.cpp:157] Top shape: 8 256 5 5 (51200)
I0510 21:36:47.518842 18407 net.cpp:157] Top shape: 8 256 5 5 (51200)
I0510 21:36:47.518846 18407 net.cpp:157] Top shape: 8 256 5 5 (51200)
I0510 21:36:47.518867 18407 net.cpp:157] Top shape: 8 256 5 5 (51200)
I0510 21:36:47.518869 18407 net.cpp:165] Memory required for data: 1895162304
I0510 21:36:47.518872 18407 layer_factory.hpp:77] Creating layer conv8_1
I0510 21:36:47.518893 18407 net.cpp:100] Creating Layer conv8_1
I0510 21:36:47.518895 18407 net.cpp:434] conv8_1 <- conv7_2_conv7_2_relu_0_split_0
I0510 21:36:47.518919 18407 net.cpp:408] conv8_1 -> conv8_1
I0510 21:36:47.519316 18407 net.cpp:150] Setting up conv8_1
I0510 21:36:47.519323 18407 net.cpp:157] Top shape: 8 128 5 5 (25600)
I0510 21:36:47.519326 18407 net.cpp:165] Memory required for data: 1895264704
I0510 21:36:47.519330 18407 layer_factory.hpp:77] Creating layer conv8_1_relu
I0510 21:36:47.519335 18407 net.cpp:100] Creating Layer conv8_1_relu
I0510 21:36:47.519356 18407 net.cpp:434] conv8_1_relu <- conv8_1
I0510 21:36:47.519361 18407 net.cpp:395] conv8_1_relu -> conv8_1 (in-place)
I0510 21:36:47.519364 18407 net.cpp:150] Setting up conv8_1_relu
I0510 21:36:47.519367 18407 net.cpp:157] Top shape: 8 128 5 5 (25600)
I0510 21:36:47.519369 18407 net.cpp:165] Memory required for data: 1895367104
I0510 21:36:47.519418 18407 layer_factory.hpp:77] Creating layer conv8_2
I0510 21:36:47.519423 18407 net.cpp:100] Creating Layer conv8_2
I0510 21:36:47.519440 18407 net.cpp:434] conv8_2 <- conv8_1
I0510 21:36:47.519445 18407 net.cpp:408] conv8_2 -> conv8_2
I0510 21:36:47.521257 18407 net.cpp:150] Setting up conv8_2
I0510 21:36:47.521267 18407 net.cpp:157] Top shape: 8 256 3 3 (18432)
I0510 21:36:47.521270 18407 net.cpp:165] Memory required for data: 1895440832
I0510 21:36:47.521293 18407 layer_factory.hpp:77] Creating layer conv8_2_relu
I0510 21:36:47.521298 18407 net.cpp:100] Creating Layer conv8_2_relu
I0510 21:36:47.521301 18407 net.cpp:434] conv8_2_relu <- conv8_2
I0510 21:36:47.521306 18407 net.cpp:395] conv8_2_relu -> conv8_2 (in-place)
I0510 21:36:47.521309 18407 net.cpp:150] Setting up conv8_2_relu
I0510 21:36:47.521313 18407 net.cpp:157] Top shape: 8 256 3 3 (18432)
I0510 21:36:47.521316 18407 net.cpp:165] Memory required for data: 1895514560
I0510 21:36:47.521337 18407 layer_factory.hpp:77] Creating layer conv8_2_conv8_2_relu_0_split
I0510 21:36:47.521342 18407 net.cpp:100] Creating Layer conv8_2_conv8_2_relu_0_split
I0510 21:36:47.521358 18407 net.cpp:434] conv8_2_conv8_2_relu_0_split <- conv8_2
I0510 21:36:47.521363 18407 net.cpp:408] conv8_2_conv8_2_relu_0_split -> conv8_2_conv8_2_relu_0_split_0
I0510 21:36:47.521368 18407 net.cpp:408] conv8_2_conv8_2_relu_0_split -> conv8_2_conv8_2_relu_0_split_1
I0510 21:36:47.521373 18407 net.cpp:408] conv8_2_conv8_2_relu_0_split -> conv8_2_conv8_2_relu_0_split_2
I0510 21:36:47.521378 18407 net.cpp:408] conv8_2_conv8_2_relu_0_split -> conv8_2_conv8_2_relu_0_split_3
I0510 21:36:47.521384 18407 net.cpp:408] conv8_2_conv8_2_relu_0_split -> conv8_2_conv8_2_relu_0_split_4
I0510 21:36:47.521461 18407 net.cpp:150] Setting up conv8_2_conv8_2_relu_0_split
I0510 21:36:47.521466 18407 net.cpp:157] Top shape: 8 256 3 3 (18432)
I0510 21:36:47.521469 18407 net.cpp:157] Top shape: 8 256 3 3 (18432)
I0510 21:36:47.521472 18407 net.cpp:157] Top shape: 8 256 3 3 (18432)
I0510 21:36:47.521476 18407 net.cpp:157] Top shape: 8 256 3 3 (18432)
I0510 21:36:47.521478 18407 net.cpp:157] Top shape: 8 256 3 3 (18432)
I0510 21:36:47.521481 18407 net.cpp:165] Memory required for data: 1895883200
I0510 21:36:47.521483 18407 layer_factory.hpp:77] Creating layer conv9_1
I0510 21:36:47.521489 18407 net.cpp:100] Creating Layer conv9_1
I0510 21:36:47.521492 18407 net.cpp:434] conv9_1 <- conv8_2_conv8_2_relu_0_split_0
I0510 21:36:47.521515 18407 net.cpp:408] conv9_1 -> conv9_1
I0510 21:36:47.521904 18407 net.cpp:150] Setting up conv9_1
I0510 21:36:47.521910 18407 net.cpp:157] Top shape: 8 128 3 3 (9216)
I0510 21:36:47.521914 18407 net.cpp:165] Memory required for data: 1895920064
I0510 21:36:47.521917 18407 layer_factory.hpp:77] Creating layer conv9_1_relu
I0510 21:36:47.521939 18407 net.cpp:100] Creating Layer conv9_1_relu
I0510 21:36:47.521942 18407 net.cpp:434] conv9_1_relu <- conv9_1
I0510 21:36:47.521946 18407 net.cpp:395] conv9_1_relu -> conv9_1 (in-place)
I0510 21:36:47.521951 18407 net.cpp:150] Setting up conv9_1_relu
I0510 21:36:47.521955 18407 net.cpp:157] Top shape: 8 128 3 3 (9216)
I0510 21:36:47.521956 18407 net.cpp:165] Memory required for data: 1895956928
I0510 21:36:47.521958 18407 layer_factory.hpp:77] Creating layer conv9_2
I0510 21:36:47.521983 18407 net.cpp:100] Creating Layer conv9_2
I0510 21:36:47.521986 18407 net.cpp:434] conv9_2 <- conv9_1
I0510 21:36:47.521991 18407 net.cpp:408] conv9_2 -> conv9_2
I0510 21:36:47.523803 18407 net.cpp:150] Setting up conv9_2
I0510 21:36:47.523813 18407 net.cpp:157] Top shape: 8 256 1 1 (2048)
I0510 21:36:47.523816 18407 net.cpp:165] Memory required for data: 1895965120
I0510 21:36:47.523839 18407 layer_factory.hpp:77] Creating layer conv9_2_relu
I0510 21:36:47.523845 18407 net.cpp:100] Creating Layer conv9_2_relu
I0510 21:36:47.523849 18407 net.cpp:434] conv9_2_relu <- conv9_2
I0510 21:36:47.523852 18407 net.cpp:395] conv9_2_relu -> conv9_2 (in-place)
I0510 21:36:47.523857 18407 net.cpp:150] Setting up conv9_2_relu
I0510 21:36:47.523903 18407 net.cpp:157] Top shape: 8 256 1 1 (2048)
I0510 21:36:47.523906 18407 net.cpp:165] Memory required for data: 1895973312
I0510 21:36:47.523908 18407 layer_factory.hpp:77] Creating layer conv9_2_conv9_2_relu_0_split
I0510 21:36:47.523926 18407 net.cpp:100] Creating Layer conv9_2_conv9_2_relu_0_split
I0510 21:36:47.523929 18407 net.cpp:434] conv9_2_conv9_2_relu_0_split <- conv9_2
I0510 21:36:47.523934 18407 net.cpp:408] conv9_2_conv9_2_relu_0_split -> conv9_2_conv9_2_relu_0_split_0
I0510 21:36:47.523939 18407 net.cpp:408] conv9_2_conv9_2_relu_0_split -> conv9_2_conv9_2_relu_0_split_1
I0510 21:36:47.523944 18407 net.cpp:408] conv9_2_conv9_2_relu_0_split -> conv9_2_conv9_2_relu_0_split_2
I0510 21:36:47.523950 18407 net.cpp:408] conv9_2_conv9_2_relu_0_split -> conv9_2_conv9_2_relu_0_split_3
I0510 21:36:47.524003 18407 net.cpp:150] Setting up conv9_2_conv9_2_relu_0_split
I0510 21:36:47.524009 18407 net.cpp:157] Top shape: 8 256 1 1 (2048)
I0510 21:36:47.524013 18407 net.cpp:157] Top shape: 8 256 1 1 (2048)
I0510 21:36:47.524015 18407 net.cpp:157] Top shape: 8 256 1 1 (2048)
I0510 21:36:47.524019 18407 net.cpp:157] Top shape: 8 256 1 1 (2048)
I0510 21:36:47.524021 18407 net.cpp:165] Memory required for data: 1896006080
I0510 21:36:47.524024 18407 layer_factory.hpp:77] Creating layer conv4_3_norm
I0510 21:36:47.524030 18407 net.cpp:100] Creating Layer conv4_3_norm
I0510 21:36:47.524034 18407 net.cpp:434] conv4_3_norm <- conv4_3_relu4_3_0_split_1
I0510 21:36:47.524060 18407 net.cpp:408] conv4_3_norm -> conv4_3_norm
I0510 21:36:47.524253 18407 net.cpp:150] Setting up conv4_3_norm
I0510 21:36:47.524260 18407 net.cpp:157] Top shape: 8 512 38 38 (5914624)
I0510 21:36:47.524262 18407 net.cpp:165] Memory required for data: 1919664576
I0510 21:36:47.524266 18407 layer_factory.hpp:77] Creating layer conv4_3_norm_conv4_3_norm_0_split
I0510 21:36:47.524291 18407 net.cpp:100] Creating Layer conv4_3_norm_conv4_3_norm_0_split
I0510 21:36:47.524293 18407 net.cpp:434] conv4_3_norm_conv4_3_norm_0_split <- conv4_3_norm
I0510 21:36:47.524297 18407 net.cpp:408] conv4_3_norm_conv4_3_norm_0_split -> conv4_3_norm_conv4_3_norm_0_split_0
I0510 21:36:47.524302 18407 net.cpp:408] conv4_3_norm_conv4_3_norm_0_split -> conv4_3_norm_conv4_3_norm_0_split_1
I0510 21:36:47.524307 18407 net.cpp:408] conv4_3_norm_conv4_3_norm_0_split -> conv4_3_norm_conv4_3_norm_0_split_2
I0510 21:36:47.524332 18407 net.cpp:408] conv4_3_norm_conv4_3_norm_0_split -> conv4_3_norm_conv4_3_norm_0_split_3
I0510 21:36:47.524394 18407 net.cpp:150] Setting up conv4_3_norm_conv4_3_norm_0_split
I0510 21:36:47.524401 18407 net.cpp:157] Top shape: 8 512 38 38 (5914624)
I0510 21:36:47.524405 18407 net.cpp:157] Top shape: 8 512 38 38 (5914624)
I0510 21:36:47.524407 18407 net.cpp:157] Top shape: 8 512 38 38 (5914624)
I0510 21:36:47.524410 18407 net.cpp:157] Top shape: 8 512 38 38 (5914624)
I0510 21:36:47.524413 18407 net.cpp:165] Memory required for data: 2014298560
I0510 21:36:47.524415 18407 layer_factory.hpp:77] Creating layer conv4_3_norm_mbox_loc
I0510 21:36:47.524422 18407 net.cpp:100] Creating Layer conv4_3_norm_mbox_loc
I0510 21:36:47.524425 18407 net.cpp:434] conv4_3_norm_mbox_loc <- conv4_3_norm_conv4_3_norm_0_split_0
I0510 21:36:47.524430 18407 net.cpp:408] conv4_3_norm_mbox_loc -> conv4_3_norm_mbox_loc
I0510 21:36:47.525043 18407 net.cpp:150] Setting up conv4_3_norm_mbox_loc
I0510 21:36:47.525049 18407 net.cpp:157] Top shape: 8 16 38 38 (184832)
I0510 21:36:47.525053 18407 net.cpp:165] Memory required for data: 2015037888
I0510 21:36:47.525056 18407 layer_factory.hpp:77] Creating layer conv4_3_norm_mbox_loc_perm
I0510 21:36:47.525081 18407 net.cpp:100] Creating Layer conv4_3_norm_mbox_loc_perm
I0510 21:36:47.525084 18407 net.cpp:434] conv4_3_norm_mbox_loc_perm <- conv4_3_norm_mbox_loc
I0510 21:36:47.525089 18407 net.cpp:408] conv4_3_norm_mbox_loc_perm -> conv4_3_norm_mbox_loc_perm
I0510 21:36:47.525225 18407 net.cpp:150] Setting up conv4_3_norm_mbox_loc_perm
I0510 21:36:47.525231 18407 net.cpp:157] Top shape: 8 38 38 16 (184832)
I0510 21:36:47.525233 18407 net.cpp:165] Memory required for data: 2015777216
I0510 21:36:47.525243 18407 layer_factory.hpp:77] Creating layer conv4_3_norm_mbox_loc_flat
I0510 21:36:47.525248 18407 net.cpp:100] Creating Layer conv4_3_norm_mbox_loc_flat
I0510 21:36:47.525250 18407 net.cpp:434] conv4_3_norm_mbox_loc_flat <- conv4_3_norm_mbox_loc_perm
I0510 21:36:47.525255 18407 net.cpp:408] conv4_3_norm_mbox_loc_flat -> conv4_3_norm_mbox_loc_flat
I0510 21:36:47.525290 18407 net.cpp:150] Setting up conv4_3_norm_mbox_loc_flat
I0510 21:36:47.525308 18407 net.cpp:157] Top shape: 8 23104 (184832)
I0510 21:36:47.525311 18407 net.cpp:165] Memory required for data: 2016516544
I0510 21:36:47.525313 18407 layer_factory.hpp:77] Creating layer conv4_3_norm_mbox_conf
I0510 21:36:47.525352 18407 net.cpp:100] Creating Layer conv4_3_norm_mbox_conf
I0510 21:36:47.525373 18407 net.cpp:434] conv4_3_norm_mbox_conf <- conv4_3_norm_conv4_3_norm_0_split_1
I0510 21:36:47.525378 18407 net.cpp:408] conv4_3_norm_mbox_conf -> conv4_3_norm_mbox_conf
I0510 21:36:47.533478 18407 net.cpp:150] Setting up conv4_3_norm_mbox_conf
I0510 21:36:47.533504 18407 net.cpp:157] Top shape: 8 324 38 38 (3742848)
I0510 21:36:47.533527 18407 net.cpp:165] Memory required for data: 2031487936
I0510 21:36:47.533540 18407 layer_factory.hpp:77] Creating layer conv4_3_norm_mbox_conf_perm
I0510 21:36:47.533550 18407 net.cpp:100] Creating Layer conv4_3_norm_mbox_conf_perm
I0510 21:36:47.533567 18407 net.cpp:434] conv4_3_norm_mbox_conf_perm <- conv4_3_norm_mbox_conf
I0510 21:36:47.533574 18407 net.cpp:408] conv4_3_norm_mbox_conf_perm -> conv4_3_norm_mbox_conf_perm
I0510 21:36:47.533707 18407 net.cpp:150] Setting up conv4_3_norm_mbox_conf_perm
I0510 21:36:47.533726 18407 net.cpp:157] Top shape: 8 38 38 324 (3742848)
I0510 21:36:47.533730 18407 net.cpp:165] Memory required for data: 2046459328
I0510 21:36:47.533731 18407 layer_factory.hpp:77] Creating layer conv4_3_norm_mbox_conf_flat
I0510 21:36:47.533756 18407 net.cpp:100] Creating Layer conv4_3_norm_mbox_conf_flat
I0510 21:36:47.533758 18407 net.cpp:434] conv4_3_norm_mbox_conf_flat <- conv4_3_norm_mbox_conf_perm
I0510 21:36:47.533763 18407 net.cpp:408] conv4_3_norm_mbox_conf_flat -> conv4_3_norm_mbox_conf_flat
I0510 21:36:47.533816 18407 net.cpp:150] Setting up conv4_3_norm_mbox_conf_flat
I0510 21:36:47.533825 18407 net.cpp:157] Top shape: 8 467856 (3742848)
I0510 21:36:47.533828 18407 net.cpp:165] Memory required for data: 2061430720
I0510 21:36:47.533831 18407 layer_factory.hpp:77] Creating layer conv4_3_norm_mbox_mask
I0510 21:36:47.533854 18407 net.cpp:100] Creating Layer conv4_3_norm_mbox_mask
I0510 21:36:47.533860 18407 net.cpp:434] conv4_3_norm_mbox_mask <- conv4_3_norm_conv4_3_norm_0_split_2
I0510 21:36:47.533866 18407 net.cpp:408] conv4_3_norm_mbox_mask -> conv4_3_norm_mbox_mask
I0510 21:36:47.576326 18407 net.cpp:150] Setting up conv4_3_norm_mbox_mask
I0510 21:36:47.576349 18407 net.cpp:157] Top shape: 8 1764 38 38 (20377728)
I0510 21:36:47.576370 18407 net.cpp:165] Memory required for data: 2142941632
I0510 21:36:47.576376 18407 layer_factory.hpp:77] Creating layer conv4_3_norm_mbox_mask_perm
I0510 21:36:47.576385 18407 net.cpp:100] Creating Layer conv4_3_norm_mbox_mask_perm
I0510 21:36:47.576390 18407 net.cpp:434] conv4_3_norm_mbox_mask_perm <- conv4_3_norm_mbox_mask
I0510 21:36:47.576395 18407 net.cpp:408] conv4_3_norm_mbox_mask_perm -> conv4_3_norm_mbox_mask_perm
I0510 21:36:47.576540 18407 net.cpp:150] Setting up conv4_3_norm_mbox_mask_perm
I0510 21:36:47.576546 18407 net.cpp:157] Top shape: 8 38 38 1764 (20377728)
I0510 21:36:47.576550 18407 net.cpp:165] Memory required for data: 2224452544
I0510 21:36:47.576551 18407 layer_factory.hpp:77] Creating layer conv4_3_norm_mbox_mask_flat
I0510 21:36:47.576570 18407 net.cpp:100] Creating Layer conv4_3_norm_mbox_mask_flat
I0510 21:36:47.576572 18407 net.cpp:434] conv4_3_norm_mbox_mask_flat <- conv4_3_norm_mbox_mask_perm
I0510 21:36:47.576596 18407 net.cpp:408] conv4_3_norm_mbox_mask_flat -> conv4_3_norm_mbox_mask_flat
I0510 21:36:47.576635 18407 net.cpp:150] Setting up conv4_3_norm_mbox_mask_flat
I0510 21:36:47.576670 18407 net.cpp:157] Top shape: 8 2547216 (20377728)
I0510 21:36:47.576674 18407 net.cpp:165] Memory required for data: 2305963456
I0510 21:36:47.576678 18407 layer_factory.hpp:77] Creating layer conv4_3_norm_mbox_priorbox
I0510 21:36:47.576696 18407 net.cpp:100] Creating Layer conv4_3_norm_mbox_priorbox
I0510 21:36:47.576700 18407 net.cpp:434] conv4_3_norm_mbox_priorbox <- conv4_3_norm_conv4_3_norm_0_split_3
I0510 21:36:47.576705 18407 net.cpp:434] conv4_3_norm_mbox_priorbox <- data_data_0_split_1
I0510 21:36:47.576711 18407 net.cpp:408] conv4_3_norm_mbox_priorbox -> conv4_3_norm_mbox_priorbox
I0510 21:36:47.576740 18407 net.cpp:150] Setting up conv4_3_norm_mbox_priorbox
I0510 21:36:47.576746 18407 net.cpp:157] Top shape: 1 2 23104 (46208)
I0510 21:36:47.576750 18407 net.cpp:165] Memory required for data: 2306148288
I0510 21:36:47.576751 18407 layer_factory.hpp:77] Creating layer fc7_mbox_loc
I0510 21:36:47.576759 18407 net.cpp:100] Creating Layer fc7_mbox_loc
I0510 21:36:47.576762 18407 net.cpp:434] fc7_mbox_loc <- fc7_relu7_0_split_1
I0510 21:36:47.576768 18407 net.cpp:408] fc7_mbox_loc -> fc7_mbox_loc
I0510 21:36:47.578680 18407 net.cpp:150] Setting up fc7_mbox_loc
I0510 21:36:47.578698 18407 net.cpp:157] Top shape: 8 24 19 19 (69312)
I0510 21:36:47.578701 18407 net.cpp:165] Memory required for data: 2306425536
I0510 21:36:47.578727 18407 layer_factory.hpp:77] Creating layer fc7_mbox_loc_perm
I0510 21:36:47.578737 18407 net.cpp:100] Creating Layer fc7_mbox_loc_perm
I0510 21:36:47.578740 18407 net.cpp:434] fc7_mbox_loc_perm <- fc7_mbox_loc
I0510 21:36:47.578763 18407 net.cpp:408] fc7_mbox_loc_perm -> fc7_mbox_loc_perm
I0510 21:36:47.578867 18407 net.cpp:150] Setting up fc7_mbox_loc_perm
I0510 21:36:47.578873 18407 net.cpp:157] Top shape: 8 19 19 24 (69312)
I0510 21:36:47.578878 18407 net.cpp:165] Memory required for data: 2306702784
I0510 21:36:47.578881 18407 layer_factory.hpp:77] Creating layer fc7_mbox_loc_flat
I0510 21:36:47.578904 18407 net.cpp:100] Creating Layer fc7_mbox_loc_flat
I0510 21:36:47.578907 18407 net.cpp:434] fc7_mbox_loc_flat <- fc7_mbox_loc_perm
I0510 21:36:47.578912 18407 net.cpp:408] fc7_mbox_loc_flat -> fc7_mbox_loc_flat
I0510 21:36:47.578933 18407 net.cpp:150] Setting up fc7_mbox_loc_flat
I0510 21:36:47.578938 18407 net.cpp:157] Top shape: 8 8664 (69312)
I0510 21:36:47.578941 18407 net.cpp:165] Memory required for data: 2306980032
I0510 21:36:47.578943 18407 layer_factory.hpp:77] Creating layer fc7_mbox_conf
I0510 21:36:47.578965 18407 net.cpp:100] Creating Layer fc7_mbox_conf
I0510 21:36:47.578971 18407 net.cpp:434] fc7_mbox_conf <- fc7_relu7_0_split_2
I0510 21:36:47.578979 18407 net.cpp:408] fc7_mbox_conf -> fc7_mbox_conf
I0510 21:36:47.602599 18407 net.cpp:150] Setting up fc7_mbox_conf
I0510 21:36:47.602620 18407 net.cpp:157] Top shape: 8 486 19 19 (1403568)
I0510 21:36:47.602643 18407 net.cpp:165] Memory required for data: 2312594304
I0510 21:36:47.602649 18407 layer_factory.hpp:77] Creating layer fc7_mbox_conf_perm
I0510 21:36:47.602658 18407 net.cpp:100] Creating Layer fc7_mbox_conf_perm
I0510 21:36:47.602661 18407 net.cpp:434] fc7_mbox_conf_perm <- fc7_mbox_conf
I0510 21:36:47.602669 18407 net.cpp:408] fc7_mbox_conf_perm -> fc7_mbox_conf_perm
I0510 21:36:47.602789 18407 net.cpp:150] Setting up fc7_mbox_conf_perm
I0510 21:36:47.602797 18407 net.cpp:157] Top shape: 8 19 19 486 (1403568)
I0510 21:36:47.602799 18407 net.cpp:165] Memory required for data: 2318208576
I0510 21:36:47.602802 18407 layer_factory.hpp:77] Creating layer fc7_mbox_conf_flat
I0510 21:36:47.602824 18407 net.cpp:100] Creating Layer fc7_mbox_conf_flat
I0510 21:36:47.602828 18407 net.cpp:434] fc7_mbox_conf_flat <- fc7_mbox_conf_perm
I0510 21:36:47.602847 18407 net.cpp:408] fc7_mbox_conf_flat -> fc7_mbox_conf_flat
I0510 21:36:47.602867 18407 net.cpp:150] Setting up fc7_mbox_conf_flat
I0510 21:36:47.602874 18407 net.cpp:157] Top shape: 8 175446 (1403568)
I0510 21:36:47.602875 18407 net.cpp:165] Memory required for data: 2323822848
I0510 21:36:47.602877 18407 layer_factory.hpp:77] Creating layer fc7_mbox_mask
I0510 21:36:47.602898 18407 net.cpp:100] Creating Layer fc7_mbox_mask
I0510 21:36:47.602901 18407 net.cpp:434] fc7_mbox_mask <- fc7_relu7_0_split_3
I0510 21:36:47.602906 18407 net.cpp:408] fc7_mbox_mask -> fc7_mbox_mask
I0510 21:36:47.728468 18407 net.cpp:150] Setting up fc7_mbox_mask
I0510 21:36:47.728490 18407 net.cpp:157] Top shape: 8 2646 19 19 (7641648)
I0510 21:36:47.728513 18407 net.cpp:165] Memory required for data: 2354389440
I0510 21:36:47.728519 18407 layer_factory.hpp:77] Creating layer fc7_mbox_mask_perm
I0510 21:36:47.728528 18407 net.cpp:100] Creating Layer fc7_mbox_mask_perm
I0510 21:36:47.728533 18407 net.cpp:434] fc7_mbox_mask_perm <- fc7_mbox_mask
I0510 21:36:47.728539 18407 net.cpp:408] fc7_mbox_mask_perm -> fc7_mbox_mask_perm
I0510 21:36:47.728660 18407 net.cpp:150] Setting up fc7_mbox_mask_perm
I0510 21:36:47.728667 18407 net.cpp:157] Top shape: 8 19 19 2646 (7641648)
I0510 21:36:47.728669 18407 net.cpp:165] Memory required for data: 2384956032
I0510 21:36:47.728672 18407 layer_factory.hpp:77] Creating layer fc7_mbox_mask_flat
I0510 21:36:47.728696 18407 net.cpp:100] Creating Layer fc7_mbox_mask_flat
I0510 21:36:47.728699 18407 net.cpp:434] fc7_mbox_mask_flat <- fc7_mbox_mask_perm
I0510 21:36:47.728718 18407 net.cpp:408] fc7_mbox_mask_flat -> fc7_mbox_mask_flat
I0510 21:36:47.728739 18407 net.cpp:150] Setting up fc7_mbox_mask_flat
I0510 21:36:47.728742 18407 net.cpp:157] Top shape: 8 955206 (7641648)
I0510 21:36:47.728744 18407 net.cpp:165] Memory required for data: 2415522624
I0510 21:36:47.728747 18407 layer_factory.hpp:77] Creating layer fc7_mbox_priorbox
I0510 21:36:47.728754 18407 net.cpp:100] Creating Layer fc7_mbox_priorbox
I0510 21:36:47.728757 18407 net.cpp:434] fc7_mbox_priorbox <- fc7_relu7_0_split_4
I0510 21:36:47.728771 18407 net.cpp:434] fc7_mbox_priorbox <- data_data_0_split_2
I0510 21:36:47.728775 18407 net.cpp:408] fc7_mbox_priorbox -> fc7_mbox_priorbox
I0510 21:36:47.728799 18407 net.cpp:150] Setting up fc7_mbox_priorbox
I0510 21:36:47.728806 18407 net.cpp:157] Top shape: 1 2 8664 (17328)
I0510 21:36:47.728807 18407 net.cpp:165] Memory required for data: 2415591936
I0510 21:36:47.728811 18407 layer_factory.hpp:77] Creating layer conv6_2_mbox_loc
I0510 21:36:47.728818 18407 net.cpp:100] Creating Layer conv6_2_mbox_loc
I0510 21:36:47.728822 18407 net.cpp:434] conv6_2_mbox_loc <- conv6_2_conv6_2_relu_0_split_1
I0510 21:36:47.728829 18407 net.cpp:408] conv6_2_mbox_loc -> conv6_2_mbox_loc
I0510 21:36:47.729928 18407 net.cpp:150] Setting up conv6_2_mbox_loc
I0510 21:36:47.729938 18407 net.cpp:157] Top shape: 8 24 10 10 (19200)
I0510 21:36:47.729941 18407 net.cpp:165] Memory required for data: 2415668736
I0510 21:36:47.729964 18407 layer_factory.hpp:77] Creating layer conv6_2_mbox_loc_perm
I0510 21:36:47.729969 18407 net.cpp:100] Creating Layer conv6_2_mbox_loc_perm
I0510 21:36:47.729974 18407 net.cpp:434] conv6_2_mbox_loc_perm <- conv6_2_mbox_loc
I0510 21:36:47.729979 18407 net.cpp:408] conv6_2_mbox_loc_perm -> conv6_2_mbox_loc_perm
I0510 21:36:47.730080 18407 net.cpp:150] Setting up conv6_2_mbox_loc_perm
I0510 21:36:47.730088 18407 net.cpp:157] Top shape: 8 10 10 24 (19200)
I0510 21:36:47.730090 18407 net.cpp:165] Memory required for data: 2415745536
I0510 21:36:47.730093 18407 layer_factory.hpp:77] Creating layer conv6_2_mbox_loc_flat
I0510 21:36:47.730096 18407 net.cpp:100] Creating Layer conv6_2_mbox_loc_flat
I0510 21:36:47.730100 18407 net.cpp:434] conv6_2_mbox_loc_flat <- conv6_2_mbox_loc_perm
I0510 21:36:47.730104 18407 net.cpp:408] conv6_2_mbox_loc_flat -> conv6_2_mbox_loc_flat
I0510 21:36:47.730145 18407 net.cpp:150] Setting up conv6_2_mbox_loc_flat
I0510 21:36:47.730150 18407 net.cpp:157] Top shape: 8 2400 (19200)
I0510 21:36:47.730154 18407 net.cpp:165] Memory required for data: 2415822336
I0510 21:36:47.730155 18407 layer_factory.hpp:77] Creating layer conv6_2_mbox_conf
I0510 21:36:47.730176 18407 net.cpp:100] Creating Layer conv6_2_mbox_conf
I0510 21:36:47.730180 18407 net.cpp:434] conv6_2_mbox_conf <- conv6_2_conv6_2_relu_0_split_2
I0510 21:36:47.730185 18407 net.cpp:408] conv6_2_mbox_conf -> conv6_2_mbox_conf
I0510 21:36:47.742610 18407 net.cpp:150] Setting up conv6_2_mbox_conf
I0510 21:36:47.742631 18407 net.cpp:157] Top shape: 8 486 10 10 (388800)
I0510 21:36:47.742635 18407 net.cpp:165] Memory required for data: 2417377536
I0510 21:36:47.742642 18407 layer_factory.hpp:77] Creating layer conv6_2_mbox_conf_perm
I0510 21:36:47.742651 18407 net.cpp:100] Creating Layer conv6_2_mbox_conf_perm
I0510 21:36:47.742655 18407 net.cpp:434] conv6_2_mbox_conf_perm <- conv6_2_mbox_conf
I0510 21:36:47.742678 18407 net.cpp:408] conv6_2_mbox_conf_perm -> conv6_2_mbox_conf_perm
I0510 21:36:47.742810 18407 net.cpp:150] Setting up conv6_2_mbox_conf_perm
I0510 21:36:47.742830 18407 net.cpp:157] Top shape: 8 10 10 486 (388800)
I0510 21:36:47.742831 18407 net.cpp:165] Memory required for data: 2418932736
I0510 21:36:47.742835 18407 layer_factory.hpp:77] Creating layer conv6_2_mbox_conf_flat
I0510 21:36:47.742857 18407 net.cpp:100] Creating Layer conv6_2_mbox_conf_flat
I0510 21:36:47.742861 18407 net.cpp:434] conv6_2_mbox_conf_flat <- conv6_2_mbox_conf_perm
I0510 21:36:47.742866 18407 net.cpp:408] conv6_2_mbox_conf_flat -> conv6_2_mbox_conf_flat
I0510 21:36:47.742899 18407 net.cpp:150] Setting up conv6_2_mbox_conf_flat
I0510 21:36:47.742905 18407 net.cpp:157] Top shape: 8 48600 (388800)
I0510 21:36:47.742908 18407 net.cpp:165] Memory required for data: 2420487936
I0510 21:36:47.742909 18407 layer_factory.hpp:77] Creating layer conv6_2_mbox_mask
I0510 21:36:47.742918 18407 net.cpp:100] Creating Layer conv6_2_mbox_mask
I0510 21:36:47.742921 18407 net.cpp:434] conv6_2_mbox_mask <- conv6_2_conv6_2_relu_0_split_3
I0510 21:36:47.742926 18407 net.cpp:408] conv6_2_mbox_mask -> conv6_2_mbox_mask
I0510 21:36:47.805479 18407 net.cpp:150] Setting up conv6_2_mbox_mask
I0510 21:36:47.805501 18407 net.cpp:157] Top shape: 8 2646 10 10 (2116800)
I0510 21:36:47.805522 18407 net.cpp:165] Memory required for data: 2428955136
I0510 21:36:47.805538 18407 layer_factory.hpp:77] Creating layer conv6_2_mbox_mask_perm
I0510 21:36:47.805548 18407 net.cpp:100] Creating Layer conv6_2_mbox_mask_perm
I0510 21:36:47.805552 18407 net.cpp:434] conv6_2_mbox_mask_perm <- conv6_2_mbox_mask
I0510 21:36:47.805572 18407 net.cpp:408] conv6_2_mbox_mask_perm -> conv6_2_mbox_mask_perm
I0510 21:36:47.805678 18407 net.cpp:150] Setting up conv6_2_mbox_mask_perm
I0510 21:36:47.805685 18407 net.cpp:157] Top shape: 8 10 10 2646 (2116800)
I0510 21:36:47.805687 18407 net.cpp:165] Memory required for data: 2437422336
I0510 21:36:47.805691 18407 layer_factory.hpp:77] Creating layer conv6_2_mbox_mask_flat
I0510 21:36:47.805713 18407 net.cpp:100] Creating Layer conv6_2_mbox_mask_flat
I0510 21:36:47.805716 18407 net.cpp:434] conv6_2_mbox_mask_flat <- conv6_2_mbox_mask_perm
I0510 21:36:47.805721 18407 net.cpp:408] conv6_2_mbox_mask_flat -> conv6_2_mbox_mask_flat
I0510 21:36:47.805745 18407 net.cpp:150] Setting up conv6_2_mbox_mask_flat
I0510 21:36:47.805750 18407 net.cpp:157] Top shape: 8 264600 (2116800)
I0510 21:36:47.805752 18407 net.cpp:165] Memory required for data: 2445889536
I0510 21:36:47.805754 18407 layer_factory.hpp:77] Creating layer conv6_2_mbox_priorbox
I0510 21:36:47.805773 18407 net.cpp:100] Creating Layer conv6_2_mbox_priorbox
I0510 21:36:47.805776 18407 net.cpp:434] conv6_2_mbox_priorbox <- conv6_2_conv6_2_relu_0_split_4
I0510 21:36:47.805780 18407 net.cpp:434] conv6_2_mbox_priorbox <- data_data_0_split_3
I0510 21:36:47.805785 18407 net.cpp:408] conv6_2_mbox_priorbox -> conv6_2_mbox_priorbox
I0510 21:36:47.805810 18407 net.cpp:150] Setting up conv6_2_mbox_priorbox
I0510 21:36:47.805816 18407 net.cpp:157] Top shape: 1 2 2400 (4800)
I0510 21:36:47.805819 18407 net.cpp:165] Memory required for data: 2445908736
I0510 21:36:47.805820 18407 layer_factory.hpp:77] Creating layer conv7_2_mbox_loc
I0510 21:36:47.805829 18407 net.cpp:100] Creating Layer conv7_2_mbox_loc
I0510 21:36:47.805831 18407 net.cpp:434] conv7_2_mbox_loc <- conv7_2_conv7_2_relu_0_split_1
I0510 21:36:47.805852 18407 net.cpp:408] conv7_2_mbox_loc -> conv7_2_mbox_loc
I0510 21:36:47.806421 18407 net.cpp:150] Setting up conv7_2_mbox_loc
I0510 21:36:47.806429 18407 net.cpp:157] Top shape: 8 24 5 5 (4800)
I0510 21:36:47.806432 18407 net.cpp:165] Memory required for data: 2445927936
I0510 21:36:47.806435 18407 layer_factory.hpp:77] Creating layer conv7_2_mbox_loc_perm
I0510 21:36:47.806458 18407 net.cpp:100] Creating Layer conv7_2_mbox_loc_perm
I0510 21:36:47.806463 18407 net.cpp:434] conv7_2_mbox_loc_perm <- conv7_2_mbox_loc
I0510 21:36:47.806480 18407 net.cpp:408] conv7_2_mbox_loc_perm -> conv7_2_mbox_loc_perm
I0510 21:36:47.806597 18407 net.cpp:150] Setting up conv7_2_mbox_loc_perm
I0510 21:36:47.806602 18407 net.cpp:157] Top shape: 8 5 5 24 (4800)
I0510 21:36:47.806605 18407 net.cpp:165] Memory required for data: 2445947136
I0510 21:36:47.806607 18407 layer_factory.hpp:77] Creating layer conv7_2_mbox_loc_flat
I0510 21:36:47.806628 18407 net.cpp:100] Creating Layer conv7_2_mbox_loc_flat
I0510 21:36:47.806632 18407 net.cpp:434] conv7_2_mbox_loc_flat <- conv7_2_mbox_loc_perm
I0510 21:36:47.806637 18407 net.cpp:408] conv7_2_mbox_loc_flat -> conv7_2_mbox_loc_flat
I0510 21:36:47.806655 18407 net.cpp:150] Setting up conv7_2_mbox_loc_flat
I0510 21:36:47.806658 18407 net.cpp:157] Top shape: 8 600 (4800)
I0510 21:36:47.806660 18407 net.cpp:165] Memory required for data: 2445966336
I0510 21:36:47.806676 18407 layer_factory.hpp:77] Creating layer conv7_2_mbox_conf
I0510 21:36:47.806684 18407 net.cpp:100] Creating Layer conv7_2_mbox_conf
I0510 21:36:47.806686 18407 net.cpp:434] conv7_2_mbox_conf <- conv7_2_conv7_2_relu_0_split_2
I0510 21:36:47.806692 18407 net.cpp:408] conv7_2_mbox_conf -> conv7_2_mbox_conf
I0510 21:36:47.812649 18407 net.cpp:150] Setting up conv7_2_mbox_conf
I0510 21:36:47.812669 18407 net.cpp:157] Top shape: 8 486 5 5 (97200)
I0510 21:36:47.812671 18407 net.cpp:165] Memory required for data: 2446355136
I0510 21:36:47.812697 18407 layer_factory.hpp:77] Creating layer conv7_2_mbox_conf_perm
I0510 21:36:47.812721 18407 net.cpp:100] Creating Layer conv7_2_mbox_conf_perm
I0510 21:36:47.812726 18407 net.cpp:434] conv7_2_mbox_conf_perm <- conv7_2_mbox_conf
I0510 21:36:47.812731 18407 net.cpp:408] conv7_2_mbox_conf_perm -> conv7_2_mbox_conf_perm
I0510 21:36:47.812825 18407 net.cpp:150] Setting up conv7_2_mbox_conf_perm
I0510 21:36:47.812832 18407 net.cpp:157] Top shape: 8 5 5 486 (97200)
I0510 21:36:47.812835 18407 net.cpp:165] Memory required for data: 2446743936
I0510 21:36:47.812850 18407 layer_factory.hpp:77] Creating layer conv7_2_mbox_conf_flat
I0510 21:36:47.812855 18407 net.cpp:100] Creating Layer conv7_2_mbox_conf_flat
I0510 21:36:47.812857 18407 net.cpp:434] conv7_2_mbox_conf_flat <- conv7_2_mbox_conf_perm
I0510 21:36:47.812880 18407 net.cpp:408] conv7_2_mbox_conf_flat -> conv7_2_mbox_conf_flat
I0510 21:36:47.812914 18407 net.cpp:150] Setting up conv7_2_mbox_conf_flat
I0510 21:36:47.812918 18407 net.cpp:157] Top shape: 8 12150 (97200)
I0510 21:36:47.812921 18407 net.cpp:165] Memory required for data: 2447132736
I0510 21:36:47.812922 18407 layer_factory.hpp:77] Creating layer conv7_2_mbox_mask
I0510 21:36:47.812930 18407 net.cpp:100] Creating Layer conv7_2_mbox_mask
I0510 21:36:47.812933 18407 net.cpp:434] conv7_2_mbox_mask <- conv7_2_conv7_2_relu_0_split_3
I0510 21:36:47.812939 18407 net.cpp:408] conv7_2_mbox_mask -> conv7_2_mbox_mask
I0510 21:36:47.844200 18407 net.cpp:150] Setting up conv7_2_mbox_mask
I0510 21:36:47.844223 18407 net.cpp:157] Top shape: 8 2646 5 5 (529200)
I0510 21:36:47.844226 18407 net.cpp:165] Memory required for data: 2449249536
I0510 21:36:47.844252 18407 layer_factory.hpp:77] Creating layer conv7_2_mbox_mask_perm
I0510 21:36:47.844261 18407 net.cpp:100] Creating Layer conv7_2_mbox_mask_perm
I0510 21:36:47.844266 18407 net.cpp:434] conv7_2_mbox_mask_perm <- conv7_2_mbox_mask
I0510 21:36:47.844271 18407 net.cpp:408] conv7_2_mbox_mask_perm -> conv7_2_mbox_mask_perm
I0510 21:36:47.844395 18407 net.cpp:150] Setting up conv7_2_mbox_mask_perm
I0510 21:36:47.844400 18407 net.cpp:157] Top shape: 8 5 5 2646 (529200)
I0510 21:36:47.844403 18407 net.cpp:165] Memory required for data: 2451366336
I0510 21:36:47.844449 18407 layer_factory.hpp:77] Creating layer conv7_2_mbox_mask_flat
I0510 21:36:47.844455 18407 net.cpp:100] Creating Layer conv7_2_mbox_mask_flat
I0510 21:36:47.844457 18407 net.cpp:434] conv7_2_mbox_mask_flat <- conv7_2_mbox_mask_perm
I0510 21:36:47.844463 18407 net.cpp:408] conv7_2_mbox_mask_flat -> conv7_2_mbox_mask_flat
I0510 21:36:47.844490 18407 net.cpp:150] Setting up conv7_2_mbox_mask_flat
I0510 21:36:47.844494 18407 net.cpp:157] Top shape: 8 66150 (529200)
I0510 21:36:47.844496 18407 net.cpp:165] Memory required for data: 2453483136
I0510 21:36:47.844498 18407 layer_factory.hpp:77] Creating layer conv7_2_mbox_priorbox
I0510 21:36:47.844503 18407 net.cpp:100] Creating Layer conv7_2_mbox_priorbox
I0510 21:36:47.844507 18407 net.cpp:434] conv7_2_mbox_priorbox <- conv7_2_conv7_2_relu_0_split_4
I0510 21:36:47.844511 18407 net.cpp:434] conv7_2_mbox_priorbox <- data_data_0_split_4
I0510 21:36:47.844517 18407 net.cpp:408] conv7_2_mbox_priorbox -> conv7_2_mbox_priorbox
I0510 21:36:47.844543 18407 net.cpp:150] Setting up conv7_2_mbox_priorbox
I0510 21:36:47.844549 18407 net.cpp:157] Top shape: 1 2 600 (1200)
I0510 21:36:47.844552 18407 net.cpp:165] Memory required for data: 2453487936
I0510 21:36:47.844554 18407 layer_factory.hpp:77] Creating layer conv8_2_mbox_loc
I0510 21:36:47.844568 18407 net.cpp:100] Creating Layer conv8_2_mbox_loc
I0510 21:36:47.844575 18407 net.cpp:434] conv8_2_mbox_loc <- conv8_2_conv8_2_relu_0_split_1
I0510 21:36:47.844581 18407 net.cpp:408] conv8_2_mbox_loc -> conv8_2_mbox_loc
I0510 21:36:47.844955 18407 net.cpp:150] Setting up conv8_2_mbox_loc
I0510 21:36:47.844961 18407 net.cpp:157] Top shape: 8 16 3 3 (1152)
I0510 21:36:47.844965 18407 net.cpp:165] Memory required for data: 2453492544
I0510 21:36:47.844991 18407 layer_factory.hpp:77] Creating layer conv8_2_mbox_loc_perm
I0510 21:36:47.844997 18407 net.cpp:100] Creating Layer conv8_2_mbox_loc_perm
I0510 21:36:47.845000 18407 net.cpp:434] conv8_2_mbox_loc_perm <- conv8_2_mbox_loc
I0510 21:36:47.845019 18407 net.cpp:408] conv8_2_mbox_loc_perm -> conv8_2_mbox_loc_perm
I0510 21:36:47.845125 18407 net.cpp:150] Setting up conv8_2_mbox_loc_perm
I0510 21:36:47.845131 18407 net.cpp:157] Top shape: 8 3 3 16 (1152)
I0510 21:36:47.845134 18407 net.cpp:165] Memory required for data: 2453497152
I0510 21:36:47.845136 18407 layer_factory.hpp:77] Creating layer conv8_2_mbox_loc_flat
I0510 21:36:47.845158 18407 net.cpp:100] Creating Layer conv8_2_mbox_loc_flat
I0510 21:36:47.845161 18407 net.cpp:434] conv8_2_mbox_loc_flat <- conv8_2_mbox_loc_perm
I0510 21:36:47.845165 18407 net.cpp:408] conv8_2_mbox_loc_flat -> conv8_2_mbox_loc_flat
I0510 21:36:47.845187 18407 net.cpp:150] Setting up conv8_2_mbox_loc_flat
I0510 21:36:47.845191 18407 net.cpp:157] Top shape: 8 144 (1152)
I0510 21:36:47.845193 18407 net.cpp:165] Memory required for data: 2453501760
I0510 21:36:47.845196 18407 layer_factory.hpp:77] Creating layer conv8_2_mbox_conf
I0510 21:36:47.845203 18407 net.cpp:100] Creating Layer conv8_2_mbox_conf
I0510 21:36:47.845206 18407 net.cpp:434] conv8_2_mbox_conf <- conv8_2_conv8_2_relu_0_split_2
I0510 21:36:47.845211 18407 net.cpp:408] conv8_2_mbox_conf -> conv8_2_mbox_conf
I0510 21:36:47.849139 18407 net.cpp:150] Setting up conv8_2_mbox_conf
I0510 21:36:47.849156 18407 net.cpp:157] Top shape: 8 324 3 3 (23328)
I0510 21:36:47.849159 18407 net.cpp:165] Memory required for data: 2453595072
I0510 21:36:47.849182 18407 layer_factory.hpp:77] Creating layer conv8_2_mbox_conf_perm
I0510 21:36:47.849189 18407 net.cpp:100] Creating Layer conv8_2_mbox_conf_perm
I0510 21:36:47.849195 18407 net.cpp:434] conv8_2_mbox_conf_perm <- conv8_2_mbox_conf
I0510 21:36:47.849200 18407 net.cpp:408] conv8_2_mbox_conf_perm -> conv8_2_mbox_conf_perm
I0510 21:36:47.849305 18407 net.cpp:150] Setting up conv8_2_mbox_conf_perm
I0510 21:36:47.849311 18407 net.cpp:157] Top shape: 8 3 3 324 (23328)
I0510 21:36:47.849314 18407 net.cpp:165] Memory required for data: 2453688384
I0510 21:36:47.849316 18407 layer_factory.hpp:77] Creating layer conv8_2_mbox_conf_flat
I0510 21:36:47.849347 18407 net.cpp:100] Creating Layer conv8_2_mbox_conf_flat
I0510 21:36:47.849350 18407 net.cpp:434] conv8_2_mbox_conf_flat <- conv8_2_mbox_conf_perm
I0510 21:36:47.849356 18407 net.cpp:408] conv8_2_mbox_conf_flat -> conv8_2_mbox_conf_flat
I0510 21:36:47.849378 18407 net.cpp:150] Setting up conv8_2_mbox_conf_flat
I0510 21:36:47.849382 18407 net.cpp:157] Top shape: 8 2916 (23328)
I0510 21:36:47.849385 18407 net.cpp:165] Memory required for data: 2453781696
I0510 21:36:47.849386 18407 layer_factory.hpp:77] Creating layer conv8_2_mbox_mask
I0510 21:36:47.849395 18407 net.cpp:100] Creating Layer conv8_2_mbox_mask
I0510 21:36:47.849397 18407 net.cpp:434] conv8_2_mbox_mask <- conv8_2_conv8_2_relu_0_split_3
I0510 21:36:47.849416 18407 net.cpp:408] conv8_2_mbox_mask -> conv8_2_mbox_mask
I0510 21:36:47.871080 18407 net.cpp:150] Setting up conv8_2_mbox_mask
I0510 21:36:47.871104 18407 net.cpp:157] Top shape: 8 1764 3 3 (127008)
I0510 21:36:47.871106 18407 net.cpp:165] Memory required for data: 2454289728
I0510 21:36:47.871141 18407 layer_factory.hpp:77] Creating layer conv8_2_mbox_mask_perm
I0510 21:36:47.871150 18407 net.cpp:100] Creating Layer conv8_2_mbox_mask_perm
I0510 21:36:47.871168 18407 net.cpp:434] conv8_2_mbox_mask_perm <- conv8_2_mbox_mask
I0510 21:36:47.871173 18407 net.cpp:408] conv8_2_mbox_mask_perm -> conv8_2_mbox_mask_perm
I0510 21:36:47.871273 18407 net.cpp:150] Setting up conv8_2_mbox_mask_perm
I0510 21:36:47.871292 18407 net.cpp:157] Top shape: 8 3 3 1764 (127008)
I0510 21:36:47.871294 18407 net.cpp:165] Memory required for data: 2454797760
I0510 21:36:47.871296 18407 layer_factory.hpp:77] Creating layer conv8_2_mbox_mask_flat
I0510 21:36:47.871320 18407 net.cpp:100] Creating Layer conv8_2_mbox_mask_flat
I0510 21:36:47.871323 18407 net.cpp:434] conv8_2_mbox_mask_flat <- conv8_2_mbox_mask_perm
I0510 21:36:47.871327 18407 net.cpp:408] conv8_2_mbox_mask_flat -> conv8_2_mbox_mask_flat
I0510 21:36:47.871362 18407 net.cpp:150] Setting up conv8_2_mbox_mask_flat
I0510 21:36:47.871366 18407 net.cpp:157] Top shape: 8 15876 (127008)
I0510 21:36:47.871369 18407 net.cpp:165] Memory required for data: 2455305792
I0510 21:36:47.871371 18407 layer_factory.hpp:77] Creating layer conv8_2_mbox_priorbox
I0510 21:36:47.871378 18407 net.cpp:100] Creating Layer conv8_2_mbox_priorbox
I0510 21:36:47.871381 18407 net.cpp:434] conv8_2_mbox_priorbox <- conv8_2_conv8_2_relu_0_split_4
I0510 21:36:47.871386 18407 net.cpp:434] conv8_2_mbox_priorbox <- data_data_0_split_5
I0510 21:36:47.871389 18407 net.cpp:408] conv8_2_mbox_priorbox -> conv8_2_mbox_priorbox
I0510 21:36:47.871414 18407 net.cpp:150] Setting up conv8_2_mbox_priorbox
I0510 21:36:47.871419 18407 net.cpp:157] Top shape: 1 2 144 (288)
I0510 21:36:47.871423 18407 net.cpp:165] Memory required for data: 2455306944
I0510 21:36:47.871424 18407 layer_factory.hpp:77] Creating layer conv9_2_mbox_loc
I0510 21:36:47.871433 18407 net.cpp:100] Creating Layer conv9_2_mbox_loc
I0510 21:36:47.871436 18407 net.cpp:434] conv9_2_mbox_loc <- conv9_2_conv9_2_relu_0_split_0
I0510 21:36:47.871443 18407 net.cpp:408] conv9_2_mbox_loc -> conv9_2_mbox_loc
I0510 21:36:47.871832 18407 net.cpp:150] Setting up conv9_2_mbox_loc
I0510 21:36:47.871839 18407 net.cpp:157] Top shape: 8 16 1 1 (128)
I0510 21:36:47.871840 18407 net.cpp:165] Memory required for data: 2455307456
I0510 21:36:47.871845 18407 layer_factory.hpp:77] Creating layer conv9_2_mbox_loc_perm
I0510 21:36:47.871867 18407 net.cpp:100] Creating Layer conv9_2_mbox_loc_perm
I0510 21:36:47.871870 18407 net.cpp:434] conv9_2_mbox_loc_perm <- conv9_2_mbox_loc
I0510 21:36:47.871876 18407 net.cpp:408] conv9_2_mbox_loc_perm -> conv9_2_mbox_loc_perm
I0510 21:36:47.871973 18407 net.cpp:150] Setting up conv9_2_mbox_loc_perm
I0510 21:36:47.871979 18407 net.cpp:157] Top shape: 8 1 1 16 (128)
I0510 21:36:47.871981 18407 net.cpp:165] Memory required for data: 2455307968
I0510 21:36:47.871984 18407 layer_factory.hpp:77] Creating layer conv9_2_mbox_loc_flat
I0510 21:36:47.871987 18407 net.cpp:100] Creating Layer conv9_2_mbox_loc_flat
I0510 21:36:47.871990 18407 net.cpp:434] conv9_2_mbox_loc_flat <- conv9_2_mbox_loc_perm
I0510 21:36:47.872026 18407 net.cpp:408] conv9_2_mbox_loc_flat -> conv9_2_mbox_loc_flat
I0510 21:36:47.872046 18407 net.cpp:150] Setting up conv9_2_mbox_loc_flat
I0510 21:36:47.872051 18407 net.cpp:157] Top shape: 8 16 (128)
I0510 21:36:47.872054 18407 net.cpp:165] Memory required for data: 2455308480
I0510 21:36:47.872069 18407 layer_factory.hpp:77] Creating layer conv9_2_mbox_conf
I0510 21:36:47.872081 18407 net.cpp:100] Creating Layer conv9_2_mbox_conf
I0510 21:36:47.872086 18407 net.cpp:434] conv9_2_mbox_conf <- conv9_2_conv9_2_relu_0_split_1
I0510 21:36:47.872090 18407 net.cpp:408] conv9_2_mbox_conf -> conv9_2_mbox_conf
I0510 21:36:47.876092 18407 net.cpp:150] Setting up conv9_2_mbox_conf
I0510 21:36:47.876108 18407 net.cpp:157] Top shape: 8 324 1 1 (2592)
I0510 21:36:47.876111 18407 net.cpp:165] Memory required for data: 2455318848
I0510 21:36:47.876135 18407 layer_factory.hpp:77] Creating layer conv9_2_mbox_conf_perm
I0510 21:36:47.876142 18407 net.cpp:100] Creating Layer conv9_2_mbox_conf_perm
I0510 21:36:47.876147 18407 net.cpp:434] conv9_2_mbox_conf_perm <- conv9_2_mbox_conf
I0510 21:36:47.876152 18407 net.cpp:408] conv9_2_mbox_conf_perm -> conv9_2_mbox_conf_perm
I0510 21:36:47.876253 18407 net.cpp:150] Setting up conv9_2_mbox_conf_perm
I0510 21:36:47.876260 18407 net.cpp:157] Top shape: 8 1 1 324 (2592)
I0510 21:36:47.876261 18407 net.cpp:165] Memory required for data: 2455329216
I0510 21:36:47.876265 18407 layer_factory.hpp:77] Creating layer conv9_2_mbox_conf_flat
I0510 21:36:47.876268 18407 net.cpp:100] Creating Layer conv9_2_mbox_conf_flat
I0510 21:36:47.876271 18407 net.cpp:434] conv9_2_mbox_conf_flat <- conv9_2_mbox_conf_perm
I0510 21:36:47.876276 18407 net.cpp:408] conv9_2_mbox_conf_flat -> conv9_2_mbox_conf_flat
I0510 21:36:47.876297 18407 net.cpp:150] Setting up conv9_2_mbox_conf_flat
I0510 21:36:47.876302 18407 net.cpp:157] Top shape: 8 324 (2592)
I0510 21:36:47.876303 18407 net.cpp:165] Memory required for data: 2455339584
I0510 21:36:47.876305 18407 layer_factory.hpp:77] Creating layer conv9_2_mbox_mask
I0510 21:36:47.876312 18407 net.cpp:100] Creating Layer conv9_2_mbox_mask
I0510 21:36:47.876315 18407 net.cpp:434] conv9_2_mbox_mask <- conv9_2_conv9_2_relu_0_split_2
I0510 21:36:47.876320 18407 net.cpp:408] conv9_2_mbox_mask -> conv9_2_mbox_mask
I0510 21:36:47.897776 18407 net.cpp:150] Setting up conv9_2_mbox_mask
I0510 21:36:47.897800 18407 net.cpp:157] Top shape: 8 1764 1 1 (14112)
I0510 21:36:47.897802 18407 net.cpp:165] Memory required for data: 2455396032
I0510 21:36:47.897828 18407 layer_factory.hpp:77] Creating layer conv9_2_mbox_mask_perm
I0510 21:36:47.897836 18407 net.cpp:100] Creating Layer conv9_2_mbox_mask_perm
I0510 21:36:47.897841 18407 net.cpp:434] conv9_2_mbox_mask_perm <- conv9_2_mbox_mask
I0510 21:36:47.897847 18407 net.cpp:408] conv9_2_mbox_mask_perm -> conv9_2_mbox_mask_perm
I0510 21:36:47.897955 18407 net.cpp:150] Setting up conv9_2_mbox_mask_perm
I0510 21:36:47.897976 18407 net.cpp:157] Top shape: 8 1 1 1764 (14112)
I0510 21:36:47.897979 18407 net.cpp:165] Memory required for data: 2455452480
I0510 21:36:47.897981 18407 layer_factory.hpp:77] Creating layer conv9_2_mbox_mask_flat
I0510 21:36:47.898005 18407 net.cpp:100] Creating Layer conv9_2_mbox_mask_flat
I0510 21:36:47.898007 18407 net.cpp:434] conv9_2_mbox_mask_flat <- conv9_2_mbox_mask_perm
I0510 21:36:47.898012 18407 net.cpp:408] conv9_2_mbox_mask_flat -> conv9_2_mbox_mask_flat
I0510 21:36:47.898046 18407 net.cpp:150] Setting up conv9_2_mbox_mask_flat
I0510 21:36:47.898051 18407 net.cpp:157] Top shape: 8 1764 (14112)
I0510 21:36:47.898052 18407 net.cpp:165] Memory required for data: 2455508928
I0510 21:36:47.898056 18407 layer_factory.hpp:77] Creating layer conv9_2_mbox_priorbox
I0510 21:36:47.898061 18407 net.cpp:100] Creating Layer conv9_2_mbox_priorbox
I0510 21:36:47.898064 18407 net.cpp:434] conv9_2_mbox_priorbox <- conv9_2_conv9_2_relu_0_split_3
I0510 21:36:47.898068 18407 net.cpp:434] conv9_2_mbox_priorbox <- data_data_0_split_6
I0510 21:36:47.898092 18407 net.cpp:408] conv9_2_mbox_priorbox -> conv9_2_mbox_priorbox
I0510 21:36:47.898133 18407 net.cpp:150] Setting up conv9_2_mbox_priorbox
I0510 21:36:47.898139 18407 net.cpp:157] Top shape: 1 2 16 (32)
I0510 21:36:47.898141 18407 net.cpp:165] Memory required for data: 2455509056
I0510 21:36:47.898144 18407 layer_factory.hpp:77] Creating layer mbox_loc
I0510 21:36:47.898149 18407 net.cpp:100] Creating Layer mbox_loc
I0510 21:36:47.898152 18407 net.cpp:434] mbox_loc <- conv4_3_norm_mbox_loc_flat
I0510 21:36:47.898155 18407 net.cpp:434] mbox_loc <- fc7_mbox_loc_flat
I0510 21:36:47.898160 18407 net.cpp:434] mbox_loc <- conv6_2_mbox_loc_flat
I0510 21:36:47.898164 18407 net.cpp:434] mbox_loc <- conv7_2_mbox_loc_flat
I0510 21:36:47.898166 18407 net.cpp:434] mbox_loc <- conv8_2_mbox_loc_flat
I0510 21:36:47.898169 18407 net.cpp:434] mbox_loc <- conv9_2_mbox_loc_flat
I0510 21:36:47.898195 18407 net.cpp:408] mbox_loc -> mbox_loc
I0510 21:36:47.898216 18407 net.cpp:150] Setting up mbox_loc
I0510 21:36:47.898219 18407 net.cpp:157] Top shape: 8 34928 (279424)
I0510 21:36:47.898221 18407 net.cpp:165] Memory required for data: 2456626752
I0510 21:36:47.898224 18407 layer_factory.hpp:77] Creating layer mbox_conf
I0510 21:36:47.898228 18407 net.cpp:100] Creating Layer mbox_conf
I0510 21:36:47.898231 18407 net.cpp:434] mbox_conf <- conv4_3_norm_mbox_conf_flat
I0510 21:36:47.898234 18407 net.cpp:434] mbox_conf <- fc7_mbox_conf_flat
I0510 21:36:47.898238 18407 net.cpp:434] mbox_conf <- conv6_2_mbox_conf_flat
I0510 21:36:47.898241 18407 net.cpp:434] mbox_conf <- conv7_2_mbox_conf_flat
I0510 21:36:47.898244 18407 net.cpp:434] mbox_conf <- conv8_2_mbox_conf_flat
I0510 21:36:47.898247 18407 net.cpp:434] mbox_conf <- conv9_2_mbox_conf_flat
I0510 21:36:47.898252 18407 net.cpp:408] mbox_conf -> mbox_conf
I0510 21:36:47.898285 18407 net.cpp:150] Setting up mbox_conf
I0510 21:36:47.898290 18407 net.cpp:157] Top shape: 8 707292 (5658336)
I0510 21:36:47.898293 18407 net.cpp:165] Memory required for data: 2479260096
I0510 21:36:47.898294 18407 layer_factory.hpp:77] Creating layer mbox_priorbox
I0510 21:36:47.898300 18407 net.cpp:100] Creating Layer mbox_priorbox
I0510 21:36:47.898304 18407 net.cpp:434] mbox_priorbox <- conv4_3_norm_mbox_priorbox
I0510 21:36:47.898308 18407 net.cpp:434] mbox_priorbox <- fc7_mbox_priorbox
I0510 21:36:47.898314 18407 net.cpp:434] mbox_priorbox <- conv6_2_mbox_priorbox
I0510 21:36:47.898317 18407 net.cpp:434] mbox_priorbox <- conv7_2_mbox_priorbox
I0510 21:36:47.898320 18407 net.cpp:434] mbox_priorbox <- conv8_2_mbox_priorbox
I0510 21:36:47.898324 18407 net.cpp:434] mbox_priorbox <- conv9_2_mbox_priorbox
I0510 21:36:47.898327 18407 net.cpp:408] mbox_priorbox -> mbox_priorbox
I0510 21:36:47.898347 18407 net.cpp:150] Setting up mbox_priorbox
I0510 21:36:47.898353 18407 net.cpp:157] Top shape: 1 2 34928 (69856)
I0510 21:36:47.898356 18407 net.cpp:165] Memory required for data: 2479539520
I0510 21:36:47.898358 18407 layer_factory.hpp:77] Creating layer mbox_mask
I0510 21:36:47.898362 18407 net.cpp:100] Creating Layer mbox_mask
I0510 21:36:47.898365 18407 net.cpp:434] mbox_mask <- conv4_3_norm_mbox_mask_flat
I0510 21:36:47.898368 18407 net.cpp:434] mbox_mask <- fc7_mbox_mask_flat
I0510 21:36:47.898371 18407 net.cpp:434] mbox_mask <- conv6_2_mbox_mask_flat
I0510 21:36:47.898375 18407 net.cpp:434] mbox_mask <- conv7_2_mbox_mask_flat
I0510 21:36:47.898377 18407 net.cpp:434] mbox_mask <- conv8_2_mbox_mask_flat
I0510 21:36:47.898380 18407 net.cpp:434] mbox_mask <- conv9_2_mbox_mask_flat
I0510 21:36:47.898385 18407 net.cpp:408] mbox_mask -> mbox_mask
I0510 21:36:47.898409 18407 net.cpp:150] Setting up mbox_mask
I0510 21:36:47.898416 18407 net.cpp:157] Top shape: 8 3850812 (30806496)
I0510 21:36:47.898418 18407 net.cpp:165] Memory required for data: 2602765504
I0510 21:36:47.898422 18407 layer_factory.hpp:77] Creating layer mbox_conf_reshape
I0510 21:36:47.898427 18407 net.cpp:100] Creating Layer mbox_conf_reshape
I0510 21:36:47.898430 18407 net.cpp:434] mbox_conf_reshape <- mbox_conf
I0510 21:36:47.898434 18407 net.cpp:408] mbox_conf_reshape -> mbox_conf_reshape
I0510 21:36:47.898466 18407 net.cpp:150] Setting up mbox_conf_reshape
I0510 21:36:47.898473 18407 net.cpp:157] Top shape: 8 8732 81 (5658336)
I0510 21:36:47.898474 18407 net.cpp:165] Memory required for data: 2625398848
I0510 21:36:47.898476 18407 layer_factory.hpp:77] Creating layer mbox_conf_softmax
I0510 21:36:47.898481 18407 net.cpp:100] Creating Layer mbox_conf_softmax
I0510 21:36:47.898484 18407 net.cpp:434] mbox_conf_softmax <- mbox_conf_reshape
I0510 21:36:47.898489 18407 net.cpp:408] mbox_conf_softmax -> mbox_conf_softmax
I0510 21:36:47.898562 18407 net.cpp:150] Setting up mbox_conf_softmax
I0510 21:36:47.898569 18407 net.cpp:157] Top shape: 8 8732 81 (5658336)
I0510 21:36:47.898571 18407 net.cpp:165] Memory required for data: 2648032192
I0510 21:36:47.898573 18407 layer_factory.hpp:77] Creating layer mbox_conf_flatten
I0510 21:36:47.898576 18407 net.cpp:100] Creating Layer mbox_conf_flatten
I0510 21:36:47.898598 18407 net.cpp:434] mbox_conf_flatten <- mbox_conf_softmax
I0510 21:36:47.898603 18407 net.cpp:408] mbox_conf_flatten -> mbox_conf_flatten
I0510 21:36:47.898635 18407 net.cpp:150] Setting up mbox_conf_flatten
I0510 21:36:47.898639 18407 net.cpp:157] Top shape: 8 707292 (5658336)
I0510 21:36:47.898643 18407 net.cpp:165] Memory required for data: 2670665536
I0510 21:36:47.898644 18407 layer_factory.hpp:77] Creating layer detection_out
I0510 21:36:47.898670 18407 net.cpp:100] Creating Layer detection_out
I0510 21:36:47.898675 18407 net.cpp:434] detection_out <- mbox_loc
I0510 21:36:47.898679 18407 net.cpp:434] detection_out <- mbox_conf_flatten
I0510 21:36:47.898682 18407 net.cpp:434] detection_out <- mbox_priorbox
I0510 21:36:47.898685 18407 net.cpp:434] detection_out <- mbox_mask
I0510 21:36:47.898689 18407 net.cpp:408] detection_out -> detection_out
I0510 21:36:47.899968 18407 net.cpp:150] Setting up detection_out
I0510 21:36:47.899977 18407 net.cpp:157] Top shape: 1 1 1 7 (7)
I0510 21:36:47.899981 18407 net.cpp:165] Memory required for data: 2670665564
I0510 21:36:47.899983 18407 layer_factory.hpp:77] Creating layer detection_eval
I0510 21:36:47.899989 18407 net.cpp:100] Creating Layer detection_eval
I0510 21:36:47.899992 18407 net.cpp:434] detection_eval <- detection_out
I0510 21:36:47.899996 18407 net.cpp:434] detection_eval <- label
I0510 21:36:47.899999 18407 net.cpp:408] detection_eval -> detection_eval
I0510 21:36:47.900775 18407 net.cpp:150] Setting up detection_eval
I0510 21:36:47.900782 18407 net.cpp:157] Top shape: 1 1 81 5 (405)
I0510 21:36:47.900784 18407 net.cpp:165] Memory required for data: 2670667184
I0510 21:36:47.900786 18407 net.cpp:228] detection_eval does not need backward computation.
I0510 21:36:47.900809 18407 net.cpp:228] detection_out does not need backward computation.
I0510 21:36:47.900812 18407 net.cpp:228] mbox_conf_flatten does not need backward computation.
I0510 21:36:47.900815 18407 net.cpp:228] mbox_conf_softmax does not need backward computation.
…
