…
      sampler {
        min_scale: 0.3
        max_scale: 1
        min_aspect_ratio: 0.5
        max_aspect_ratio: 2
      }
      sample_constraint {
        min_jaccard_overlap: 0.9
      }
      max_sample: 1
      max_trials: 50
    }
    batch_sampler {
      sampler {
        min_scale: 0.3
        max_scale: 1
        min_aspect_ratio: 0.5
        max_aspect_ratio: 2
      }
      sample_constraint {
        max_jaccard_overlap: 1
      }
      max_sample: 1
      max_trials: 50
    }
    label_map_file: "data/VOC0712/labelmap_voc.prototxt"
  }
}
layer {
  name: "conv1_1"
  type: "Convolution"
  bottom: "data"
  top: "conv1_1"
  param {
    lr_mult: 1
    decay_mult: 1
  }
  param {
    lr_mult: 2
    decay_mult: 0
  }
  convolution_param {
    num_output: 64
    pad: 1
    kernel_size: 3
    weight_filler {
      type: "xavier"
    }
    bias_filler {
      type: "constant"
      value: 0
    }
  }
}
layer {
  name: "relu1_1"
  type: "ReLU"
  bottom: "conv1_1"
  top: "conv1_1"
}
layer {
  name: "conv1_2"
  type: "Convolution"
  bottom: "conv1_1"
  top: "conv1_2"
  param {
    lr_mult: 1
    decay_mult: 1
  }
  param {
    lr_mult: 2
    decay_mult: 0
  }
  convolution_param {
    num_output: 64
    pad: 1
    kernel_size: 3
    weight_filler {
      type: "xavier"
    }
    bias_filler {
      type: "constant"
      value: 0
    }
  }
}
layer {
  name: "relu1_2"
  type: "ReLU"
  bottom: "conv1_2"
  top: "conv1_2"
}
layer {
  name: "pool1"
  type: "Pooling"
  bottom: "conv1_2"
  top: "pool1"
  pooling_param {
    pool: MAX
    kernel_size: 2
    stride: 2
  }
}
layer {
  name: "conv2_1"
  type: "Convolution"
  bottom: "pool1"
  top: "conv2_1"
  param {
    lr_mult: 1
    decay_mult: 1
  }
  param {
    lr_mult: 2
    decay_mult: 0
  }
  convolution_param {
    num_output: 128
    pad: 1
    kernel_size: 3
    weight_filler {
      type: "xavier"
    }
    bias_filler {
      type: "constant"
      value: 0
    }
  }
}
layer {
  name: "relu2_1"
  type: "ReLU"
  bottom: "conv2_1"
  top: "conv2_1"
}
layer {
  name: "conv2_2"
  type: "Convolution"
  bottom: "conv2_1"
  top: "conv2_2"
  param {
    lr_mult: 1
    decay_mult: 1
  }
  param {
    lr_mult: 2
    decay_mult: 0
  }
  convolution_param {
    num_output: 128
    pad: 1
    kernel_size: 3
    weight_filler {
      type: "xavier"
    }
    bias_filler {
      type: "constant"
      value: 0
    }
  }
}
layer {
  name: "relu2_2"
  type: "ReLU"
  bottom: "conv2_2"
  top: "conv2_2"
}
layer {
  name: "pool2"
  type: "Pooling"
  bottom: "conv2_2"
  top: "pool2"
  pooling_param {
    pool: MAX
    kernel_size: 2
    stride: 2
  }
}
layer {
  name: "conv3_1"
  type: "Convolution"
  bottom: "pool2"
  top: "conv3_1"
  param {
    lr_mult: 1
    decay_mult: 1
  }
  param {
    lr_mult: 2
    decay_mult: 0
  }
  convolution_param {
    num_output: 256
    pad: 1
    kernel_size: 3
    weight_filler {
      type: "xavier"
    }
    bias_filler {
      type: "constant"
      value: 0
    }
  }
}
layer {
  name: "relu3_1"
  type: "ReLU"
  bottom: "conv3_1"
  top: "conv3_1"
}
layer {
  name: "conv3_2"
  type: "Convolution"
  bottom: "conv3_1"
  top: "conv3_2"
  param {
    lr_mult: 1
    decay_mult: 1
  }
  param {
    lr_mult: 2
    decay_mult: 0
  }
  convolution_param {
    num_output: 256
    pad: 1
    kernel_size: 3
    weight_filler {
      type: "xavier"
    }
    bias_filler {
      type: "constant"
      value: 0
    }
  }
}
layer {
  name: "relu3_2"
  type: "ReLU"
  bottom: "conv3_2"
  top: "conv3_2"
}
layer {
  name: "conv3_3"
  type: "Convolution"
  bottom: "conv3_2"
  top: "conv3_3"
  param {
    lr_mult: 1
    decay_mult: 1
  }
  param {
    lr_mult: 2
    decay_mult: 0
  }
  convolution_param {
    num_output: 256
    pad: 1
    kernel_size: 3
    weight_filler {
      type: "xavier"
    }
    bias_filler {
      type: "constant"
      value: 0
    }
  }
}
layer {
  name: "relu3_3"
  type: "ReLU"
  bottom: "conv3_3"
  top: "conv3_3"
}
layer {
  name: "pool3"
  type: "Pooling"
  bottom: "conv3_3"
  top: "pool3"
  pooling_param {
    pool: MAX
    kernel_size: 2
    stride: 2
  }
}
layer {
  name: "conv4_1"
  type: "Convolution"
  bottom: "pool3"
  top: "conv4_1"
  param {
    lr_mult: 1
    decay_mult: 1
  }
  param {
    lr_mult: 2
    decay_mult: 0
  }
  convolution_param {
    num_output: 512
    pad: 1
    kernel_size: 3
    weight_filler {
      type: "xavier"
    }
    bias_filler {
      type: "constant"
      value: 0
    }
  }
}
layer {
  name: "relu4_1"
  type: "ReLU"
  bottom: "conv4_1"
  top: "conv4_1"
}
layer {
  name: "conv4_2"
  type: "Convolution"
  bottom: "conv4_1"
  top: "conv4_2"
  param {
    lr_mult: 1
    decay_mult: 1
  }
  param {
    lr_mult: 2
    decay_mult: 0
  }
  convolution_param {
    num_output: 512
    pad: 1
    kernel_size: 3
    weight_filler {
      type: "xavier"
    }
    bias_filler {
      type: "constant"
      value: 0
    }
  }
}
layer {
  name: "relu4_2"
  type: "ReLU"
  bottom: "conv4_2"
  top: "conv4_2"
}
layer {
  name: "conv4_3"
  type: "Convolution"
  bottom: "conv4_2"
  top: "conv4_3"
  param {
    lr_mult: 1
    decay_mult: 1
  }
  param {
    lr_mult: 2
    decay_mult: 0
  }
  convolution_param {
    num_output: 512
    pad: 1
    kernel_size: 3
    weight_filler {
      type: "xavier"
    }
    bias_filler {
      type: "constant"
      value: 0
    }
  }
}
layer {
  name: "relu4_3"
  type: "ReLU"
  bottom: "conv4_3"
  top: "conv4_3"
}
layer {
  name: "pool4"
  type: "Pooling"
  bottom: "conv4_3"
  top: "pool4"
  pooling_param {
    pool: MAX
    kernel_size: 2
    stride: 2
  }
}
layer {
  name: "conv5_1"
  type: "Convolution"
  bottom: "pool4"
  top: "conv5_1"
  param {
    lr_mult: 1
    decay_mult: 1
  }
  param {
    lr_mult: 2
    decay_mult: 0
  }
  convolution_param {
    num_output: 512
    pad: 1
    kernel_size: 3
    weight_filler {
      type: "xavier"
    }
    bias_filler {
      type: "constant"
      value: 0
    }
    dilation: 1
  }
}
layer {
  name: "relu5_1"
  type: "ReLU"
  bottom: "conv5_1"
  top: "conv5_1"
}
layer {
  name: "conv5_2"
  type: "Convolution"
  bottom: "conv5_1"
  top: "conv5_2"
  param {
    lr_mult: 1
    decay_mult: 1
  }
  param {
    lr_mult: 2
    decay_mult: 0
  }
  convolution_param {
    num_output: 512
    pad: 1
    kernel_size: 3
    weight_filler {
      type: "xavier"
    }
    bias_filler {
      type: "constant"
      value: 0
    }
    dilation: 1
  }
}
layer {
  name: "relu5_2"
  type: "ReLU"
  bottom: "conv5_2"
  top: "conv5_2"
}
layer {
  name: "conv5_3"
  type: "Convolution"
  bottom: "conv5_2"
  top: "conv5_3"
  param {
    lr_mult: 1
    decay_mult: 1
  }
  param {
    lr_mult: 2
    decay_mult: 0
  }
  convolution_param {
    num_output: 512
    pad: 1
    kernel_size: 3
    weight_filler {
      type: "xavier"
    }
    bias_filler {
      type: "constant"
      value: 0
    }
    dilation: 1
  }
}
layer {
  name: "relu5_3"
  type: "ReLU"
  bottom: "conv5_3"
  top: "conv5_3"
}
layer {
  name: "pool5"
  type: "Pooling"
  bottom: "conv5_3"
  top: "pool5"
  pooling_param {
    pool: MAX
    kernel_size: 3
    stride: 1
    pad: 1
  }
}
layer {
  name: "fc6"
  type: "Convolution"
  bottom: "pool5"
  top: "fc6"
  param {
    lr_mult: 1
    decay_mult: 1
  }
  param {
    lr_mult: 2
    decay_mult: 0
  }
  convolution_param {
    num_output: 1024
    pad: 6
    kernel_size: 3
    weight_filler {
      type: "xavier"
    }
    bias_filler {
      type: "constant"
      value: 0
    }
    dilation: 6
  }
}
layer {
  name: "relu6"
  type: "ReLU"
  bottom: "fc6"
  top: "fc6"
}
layer {
  name: "fc7"
  type: "Convolution"
  bottom: "fc6"
  top: "fc7"
  param {
    lr_mult: 1
    decay_mult: 1
  }
  param {
    lr_mult: 2
    decay_mult: 0
  }
  convolution_param {
    num_output: 1024
    kernel_size: 1
    weight_filler {
      type: "xavier"
    }
    bias_filler {
      type: "constant"
      value: 0
    }
  }
}
layer {
  name: "relu7"
  type: "ReLU"
  bottom: "fc7"
  top: "fc7"
}
layer {
  name: "conv6_1"
  type: "Convolution"
  bottom: "fc7"
  top: "conv6_1"
  param {
    lr_mult: 1
    decay_mult: 1
  }
  param {
    lr_mult: 2
    decay_mult: 0
  }
  convolution_param {
    num_output: 256
    pad: 0
    kernel_size: 1
    stride: 1
    weight_filler {
      type: "xavier"
    }
    bias_filler {
      type: "constant"
      value: 0
    }
  }
}
layer {
  name: "conv6_1_relu"
  type: "ReLU"
  bottom: "conv6_1"
  top: "conv6_1"
}
layer {
  name: "conv6_2"
  type: "Convolution"
  bottom: "conv6_1"
  top: "conv6_2"
  param {
    lr_mult: 1
    decay_mult: 1
  }
  param {
    lr_mult: 2
    decay_mult: 0
  }
  convolution_param {
    num_output: 512
    pad: 1
    kernel_size: 3
    stride: 2
    weight_filler {
      type: "xavier"
    }
    bias_filler {
      type: "constant"
      value: 0
    }
  }
}
layer {
  name: "conv6_2_relu"
  type: "ReLU"
  bottom: "conv6_2"
  top: "conv6_2"
}
layer {
  name: "conv7_1"
  type: "Convolution"
  bottom: "conv6_2"
  top: "conv7_1"
  param {
    lr_mult: 1
    decay_mult: 1
  }
  param {
    lr_mult: 2
    decay_mult: 0
  }
  convolution_param {
    num_output: 128
    pad: 0
    kernel_size: 1
    stride: 1
    weight_filler {
      type: "xavier"
    }
    bias_filler {
      type: "constant"
      value: 0
    }
  }
}
layer {
  name: "conv7_1_relu"
  type: "ReLU"
  bottom: "conv7_1"
  top: "conv7_1"
}
layer {
  name: "conv7_2"
  type: "Convolution"
  bottom: "conv7_1"
  top: "conv7_2"
  param {
    lr_mult: 1
    decay_mult: 1
  }
  param {
    lr_mult: 2
    decay_mult: 0
  }
  convolution_param {
    num_output: 256
    pad: 1
    kernel_size: 3
    stride: 2
    weight_filler {
      type: "xavier"
    }
    bias_filler {
      type: "constant"
      value: 0
    }
  }
}
layer {
  name: "conv7_2_relu"
  type: "ReLU"
  bottom: "conv7_2"
  top: "conv7_2"
}
layer {
  name: "conv8_1"
  type: "Convolution"
  bottom: "conv7_2"
  top: "conv8_1"
  param {
    lr_mult: 1
    decay_mult: 1
  }
  param {
    lr_mult: 2
    decay_mult: 0
  }
  convolution_param {
    num_output: 128
    pad: 0
    kernel_size: 1
    stride: 1
    weight_filler {
      type: "xavier"
    }
    bias_filler {
      type: "constant"
      value: 0
    }
  }
}
layer {
  name: "conv8_1_relu"
  type: "ReLU"
  bottom: "conv8_1"
  top: "conv8_1"
}
layer {
  name: "conv8_2"
  type: "Convolution"
  bottom: "conv8_1"
  top: "conv8_2"
  param {
    lr_mult: 1
    decay_mult: 1
  }
  param {
    lr_mult: 2
    decay_mult: 0
  }
  convolution_param {
    num_output: 256
    pad: 0
    kernel_size: 3
    stride: 1
    weight_filler {
      type: "xavier"
    }
    bias_filler {
      type: "constant"
      value: 0
    }
  }
}
layer {
  name: "conv8_2_relu"
  type: "ReLU"
  bottom: "conv8_2"
  top: "conv8_2"
}
layer {
  name: "conv9_1"
  type: "Convolution"
  bottom: "conv8_2"
  top: "conv9_1"
  param {
    lr_mult: 1
    decay_mult: 1
  }
  param {
    lr_mult: 2
    decay_mult: 0
  }
  convolution_param {
    num_output: 128
    pad: 0
    kernel_size: 1
    stride: 1
    weight_filler {
      type: "xavier"
    }
    bias_filler {
      type: "constant"
      value: 0
    }
  }
}
layer {
  name: "conv9_1_relu"
  type: "ReLU"
  bottom: "conv9_1"
  top: "conv9_1"
}
layer {
  name: "conv9_2"
  type: "Convolution"
  bottom: "conv9_1"
  top: "conv9_2"
  param {
    lr_mult: 1
    decay_mult: 1
  }
  param {
    lr_mult: 2
    decay_mult: 0
  }
  convolution_param {
    num_output: 256
    pad: 0
    kernel_size: 3
    stride: 1
    weight_filler {
      type: "xavier"
    }
    bias_filler {
      type: "constant"
      value: 0
    }
  }
}
layer {
  name: "conv9_2_relu"
  type: "ReLU"
  bottom: "conv9_2"
  top: "conv9_2"
}
layer {
  name: "conv4_3_norm"
  type: "Normalize"
  bottom: "conv4_3"
  top: "conv4_3_norm"
  norm_param {
    across_spatial: false
    scale_filler {
      type: "constant"
      value: 20
    }
    channel_shared: false
  }
}
layer {
  name: "conv4_3_norm_mbox_loc"
  type: "Convolution"
  bottom: "conv4_3_norm"
  top: "conv4_3_norm_mbox_loc"
  param {
    lr_mult: 1
    decay_mult: 1
  }
  param {
    lr_mult: 2
    decay_mult: 0
  }
  convolution_param {
    num_output: 16
    pad: 1
    kernel_size: 3
    stride: 1
    weight_filler {
      type: "xavier"
    }
    bias_filler {
      type: "constant"
      value: 0
    }
  }
}
layer {
  name: "conv4_3_norm_mbox_loc_perm"
  type: "Permute"
  bottom: "conv4_3_norm_mbox_loc"
  top: "conv4_3_norm_mbox_loc_perm"
  permute_param {
    order: 0
    order: 2
    order: 3
    order: 1
  }
}
layer {
  name: "conv4_3_norm_mbox_loc_flat"
  type: "Flatten"
  bottom: "conv4_3_norm_mbox_loc_perm"
  top: "conv4_3_norm_mbox_loc_flat"
  flatten_param {
    axis: 1
  }
}
layer {
  name: "conv4_3_norm_mbox_conf"
  type: "Convolution"
  bottom: "conv4_3_norm"
  top: "conv4_3_norm_mbox_conf"
  param {
    lr_mult: 1
    decay_mult: 1
  }
  param {
    lr_mult: 2
    decay_mult: 0
  }
  convolution_param {
    num_output: 84
    pad: 1
    kernel_size: 3
    stride: 1
    weight_filler {
      type: "xavier"
    }
    bias_filler {
      type: "constant"
      value: 0
    }
  }
}
layer {
  name: "conv4_3_norm_mbox_conf_perm"
  type: "Permute"
  bottom: "conv4_3_norm_mbox_conf"
  top: "conv4_3_norm_mbox_conf_perm"
  permute_param {
    order: 0
    order: 2
    order: 3
    order: 1
  }
}
layer {
  name: "conv4_3_norm_mbox_conf_flat"
  type: "Flatten"
  bottom: "conv4_3_norm_mbox_conf_perm"
  top: "conv4_3_norm_mbox_conf_flat"
  flatten_param {
    axis: 1
  }
}
layer {
  name: "conv4_3_norm_mbox_priorbox"
  type: "PriorBox"
  bottom: "conv4_3_norm"
  bottom: "data"
  top: "conv4_3_norm_mbox_priorbox"
  prior_box_param {
    min_size: 30
    max_size: 60
    aspect_ratio: 2
    flip: true
    clip: false
    variance: 0.1
    variance: 0.1
    variance: 0.2
    variance: 0.2
    step: 8
    offset: 0.5
  }
}
layer {
  name: "fc7_mbox_loc"
  type: "Convolution"
  bottom: "fc7"
  top: "fc7_mbox_loc"
  param {
    lr_mult: 1
    decay_mult: 1
  }
  param {
    lr_mult: 2
    decay_mult: 0
  }
  convolution_param {
    num_output: 24
    pad: 1
    kernel_size: 3
    stride: 1
    weight_filler {
      type: "xavier"
    }
    bias_filler {
      type: "constant"
      value: 0
    }
  }
}
layer {
  name: "fc7_mbox_loc_perm"
  type: "Permute"
  bottom: "fc7_mbox_loc"
  top: "fc7_mbox_loc_perm"
  permute_param {
    order: 0
    order: 2
    order: 3
    order: 1
  }
}
layer {
  name: "fc7_mbox_loc_flat"
  type: "Flatten"
  bottom: "fc7_mbox_loc_perm"
  top: "fc7_mbox_loc_flat"
  flatten_param {
    axis: 1
  }
}
layer {
  name: "fc7_mbox_conf"
  type: "Convolution"
  bottom: "fc7"
  top: "fc7_mbox_conf"
  param {
    lr_mult: 1
    decay_mult: 1
  }
  param {
    lr_mult: 2
    decay_mult: 0
  }
  convolution_param {
    num_output: 126
    pad: 1
    kernel_size: 3
    stride: 1
    weight_filler {
      type: "xavier"
    }
    bias_filler {
      type: "constant"
      value: 0
    }
  }
}
layer {
  name: "fc7_mbox_conf_perm"
  type: "Permute"
  bottom: "fc7_mbox_conf"
  top: "fc7_mbox_conf_perm"
  permute_param {
    order: 0
    order: 2
    order: 3
    order: 1
  }
}
layer {
  name: "fc7_mbox_conf_flat"
  type: "Flatten"
  bottom: "fc7_mbox_conf_perm"
  top: "fc7_mbox_conf_flat"
  flatten_param {
    axis: 1
  }
}
layer {
  name: "fc7_mbox_priorbox"
  type: "PriorBox"
  bottom: "fc7"
  bottom: "data"
  top: "fc7_mbox_priorbox"
  prior_box_param {
    min_size: 60
    max_size: 111
    aspect_ratio: 2
    aspect_ratio: 3
    flip: true
    clip: false
    variance: 0.1
    variance: 0.1
    variance: 0.2
    variance: 0.2
    step: 16
    offset: 0.5
  }
}
layer {
  name: "conv6_2_mbox_loc"
  type: "Convolution"
  bottom: "conv6_2"
  top: "conv6_2_mbox_loc"
  param {
    lr_mult: 1
    decay_mult: 1
  }
  param {
    lr_mult: 2
    decay_mult: 0
  }
  convolution_param {
    num_output: 24
    pad: 1
    kernel_size: 3
    stride: 1
    weight_filler {
      type: "xavier"
    }
    bias_filler {
      type: "constant"
      value: 0
    }
  }
}
layer {
  name: "conv6_2_mbox_loc_perm"
  type: "Permute"
  bottom: "conv6_2_mbox_loc"
  top: "conv6_2_mbox_loc_perm"
  permute_param {
    order: 0
    order: 2
    order: 3
    order: 1
  }
}
layer {
  name: "conv6_2_mbox_loc_flat"
  type: "Flatten"
  bottom: "conv6_2_mbox_loc_perm"
  top: "conv6_2_mbox_loc_flat"
  flatten_param {
    axis: 1
  }
}
layer {
  name: "conv6_2_mbox_conf"
  type: "Convolution"
  bottom: "conv6_2"
  top: "conv6_2_mbox_conf"
  param {
    lr_mult: 1
    decay_mult: 1
  }
  param {
    lr_mult: 2
    decay_mult: 0
  }
  convolution_param {
    num_output: 126
    pad: 1
    kernel_size: 3
    stride: 1
    weight_filler {
      type: "xavier"
    }
    bias_filler {
      type: "constant"
      value: 0
    }
  }
}
layer {
  name: "conv6_2_mbox_conf_perm"
  type: "Permute"
  bottom: "conv6_2_mbox_conf"
  top: "conv6_2_mbox_conf_perm"
  permute_param {
    order: 0
    order: 2
    order: 3
    order: 1
  }
}
layer {
  name: "conv6_2_mbox_conf_flat"
  type: "Flatten"
  bottom: "conv6_2_mbox_conf_perm"
  top: "conv6_2_mbox_conf_flat"
  flatten_param {
    axis: 1
  }
}
layer {
  name: "conv6_2_mbox_priorbox"
  type: "PriorBox"
  bottom: "conv6_2"
  bottom: "data"
  top: "conv6_2_mbox_priorbox"
  prior_box_param {
    min_size: 111
    max_size: 162
    aspect_ratio: 2
    aspect_ratio: 3
    flip: true
    clip: false
    variance: 0.1
    variance: 0.1
    variance: 0.2
    variance: 0.2
    step: 32
    offset: 0.5
  }
}
layer {
  name: "conv7_2_mbox_loc"
  type: "Convolution"
  bottom: "conv7_2"
  top: "conv7_2_mbox_loc"
  param {
    lr_mult: 1
    decay_mult: 1
  }
  param {
    lr_mult: 2
    decay_mult: 0
  }
  convolution_param {
    num_output: 24
    pad: 1
    kernel_size: 3
    stride: 1
    weight_filler {
      type: "xavier"
    }
    bias_filler {
      type: "constant"
      value: 0
    }
  }
}
layer {
  name: "conv7_2_mbox_loc_perm"
  type: "Permute"
  bottom: "conv7_2_mbox_loc"
  top: "conv7_2_mbox_loc_perm"
  permute_param {
    order: 0
    order: 2
    order: 3
    order: 1
  }
}
layer {
  name: "conv7_2_mbox_loc_flat"
  type: "Flatten"
  bottom: "conv7_2_mbox_loc_perm"
  top: "conv7_2_mbox_loc_flat"
  flatten_param {
    axis: 1
  }
}
layer {
  name: "conv7_2_mbox_conf"
  type: "Convolution"
  bottom: "conv7_2"
  top: "conv7_2_mbox_conf"
  param {
    lr_mult: 1
    decay_mult: 1
  }
  param {
    lr_mult: 2
    decay_mult: 0
  }
  convolution_param {
    num_output: 126
    pad: 1
    kernel_size: 3
    stride: 1
    weight_filler {
      type: "xavier"
    }
    bias_filler {
      type: "constant"
      value: 0
    }
  }
}
layer {
  name: "conv7_2_mbox_conf_perm"
  type: "Permute"
  bottom: "conv7_2_mbox_conf"
  top: "conv7_2_mbox_conf_perm"
  permute_param {
    order: 0
    order: 2
    order: 3
    order: 1
  }
}
layer {
  name: "conv7_2_mbox_conf_flat"
  type: "Flatten"
  bottom: "conv7_2_mbox_conf_perm"
  top: "conv7_2_mbox_conf_flat"
  flatten_param {
    axis: 1
  }
}
layer {
  name: "conv7_2_mbox_priorbox"
  type: "PriorBox"
  bottom: "conv7_2"
  bottom: "data"
  top: "conv7_2_mbox_priorbox"
  prior_box_param {
    min_size: 162
    max_size: 213
    aspect_ratio: 2
    aspect_ratio: 3
    flip: true
    clip: false
    variance: 0.1
    variance: 0.1
    variance: 0.2
    variance: 0.2
    step: 64
    offset: 0.5
  }
}
layer {
  name: "conv8_2_mbox_loc"
  type: "Convolution"
  bottom: "conv8_2"
  top: "conv8_2_mbox_loc"
  param {
    lr_mult: 1
    decay_mult: 1
  }
  param {
    lr_mult: 2
    decay_mult: 0
  }
  convolution_param {
    num_output: 16
    pad: 1
    kernel_size: 3
    stride: 1
    weight_filler {
      type: "xavier"
    }
    bias_filler {
      type: "constant"
      value: 0
    }
  }
}
layer {
  name: "conv8_2_mbox_loc_perm"
  type: "Permute"
  bottom: "conv8_2_mbox_loc"
  top: "conv8_2_mbox_loc_perm"
  permute_param {
    order: 0
    order: 2
    order: 3
    order: 1
  }
}
layer {
  name: "conv8_2_mbox_loc_flat"
  type: "Flatten"
  bottom: "conv8_2_mbox_loc_perm"
  top: "conv8_2_mbox_loc_flat"
  flatten_param {
    axis: 1
  }
}
layer {
  name: "conv8_2_mbox_conf"
  type: "Convolution"
  bottom: "conv8_2"
  top: "conv8_2_mbox_conf"
  param {
    lr_mult: 1
    decay_mult: 1
  }
  param {
    lr_mult: 2
    decay_mult: 0
  }
  convolution_param {
    num_output: 84
    pad: 1
    kernel_size: 3
    stride: 1
    weight_filler {
      type: "xavier"
    }
    bias_filler {
      type: "constant"
      value: 0
    }
  }
}
layer {
  name: "conv8_2_mbox_conf_perm"
  type: "Permute"
  bottom: "conv8_2_mbox_conf"
  top: "conv8_2_mbox_conf_perm"
  permute_param {
    order: 0
    order: 2
    order: 3
    order: 1
  }
}
layer {
  name: "conv8_2_mbox_conf_flat"
  type: "Flatten"
  bottom: "conv8_2_mbox_conf_perm"
  top: "conv8_2_mbox_conf_flat"
  flatten_param {
    axis: 1
  }
}
layer {
  name: "conv8_2_mbox_priorbox"
  type: "PriorBox"
  bottom: "conv8_2"
  bottom: "data"
  top: "conv8_2_mbox_priorbox"
  prior_box_param {
    min_size: 213
    max_size: 264
    aspect_ratio: 2
    flip: true
    clip: false
    variance: 0.1
    variance: 0.1
    variance: 0.2
    variance: 0.2
    step: 100
    offset: 0.5
  }
}
layer {
  name: "conv9_2_mbox_loc"
  type: "Convolution"
  bottom: "conv9_2"
  top: "conv9_2_mbox_loc"
  param {
    lr_mult: 1
    decay_mult: 1
  }
  param {
    lr_mult: 2
    decay_mult: 0
  }
  convolution_param {
    num_output: 16
    pad: 1
    kernel_size: 3
    stride: 1
    weight_filler {
      type: "xavier"
    }
    bias_filler {
      type: "constant"
      value: 0
    }
  }
}
layer {
  name: "conv9_2_mbox_loc_perm"
  type: "Permute"
  bottom: "conv9_2_mbox_loc"
  top: "conv9_2_mbox_loc_perm"
  permute_param {
    order: 0
    order: 2
    order: 3
    order: 1
  }
}
layer {
  name: "conv9_2_mbox_loc_flat"
  type: "Flatten"
  bottom: "conv9_2_mbox_loc_perm"
  top: "conv9_2_mbox_loc_flat"
  flatten_param {
    axis: 1
  }
}
layer {
  name: "conv9_2_mbox_conf"
  type: "Convolution"
  bottom: "conv9_2"
  top: "conv9_2_mbox_conf"
  param {
    lr_mult: 1
    decay_mult: 1
  }
  param {
    lr_mult: 2
    decay_mult: 0
  }
  convolution_param {
    num_output: 84
    pad: 1
    kernel_size: 3
    stride: 1
    weight_filler {
      type: "xavier"
    }
    bias_filler {
      type: "constant"
      value: 0
    }
  }
}
layer {
  name: "conv9_2_mbox_conf_perm"
  type: "Permute"
  bottom: "conv9_2_mbox_conf"
  top: "conv9_2_mbox_conf_perm"
  permute_param {
    order: 0
    order: 2
    order: 3
    order: 1
  }
}
layer {
  name: "conv9_2_mbox_conf_flat"
  type: "Flatten"
  bottom: "conv9_2_mbox_conf_perm"
  top: "conv9_2_mbox_conf_flat"
  flatten_param {
    axis: 1
  }
}
layer {
  name: "conv9_2_mbox_priorbox"
  type: "PriorBox"
  bottom: "conv9_2"
  bottom: "data"
  top: "conv9_2_mbox_priorbox"
  prior_box_param {
    min_size: 264
    max_size: 315
    aspect_ratio: 2
    flip: true
    clip: false
    variance: 0.1
    variance: 0.1
    variance: 0.2
    variance: 0.2
    step: 300
    offset: 0.5
  }
}
layer {
  name: "mbox_loc"
  type: "Concat"
  bottom: "conv4_3_norm_mbox_loc_flat"
  bottom: "fc7_mbox_loc_flat"
  bottom: "conv6_2_mbox_loc_flat"
  bottom: "conv7_2_mbox_loc_flat"
  bottom: "conv8_2_mbox_loc_flat"
  bottom: "conv9_2_mbox_loc_flat"
  top: "mbox_loc"
  concat_param {
    axis: 1
  }
}
layer {
  name: "mbox_conf"
  type: "Concat"
  bottom: "conv4_3_norm_mbox_conf_flat"
  bottom: "fc7_mbox_conf_flat"
  bottom: "conv6_2_mbox_conf_flat"
  bottom: "conv7_2_mbox_conf_flat"
  bottom: "conv8_2_mbox_conf_flat"
  bottom: "conv9_2_mbox_conf_flat"
  top: "mbox_conf"
  concat_param {
    axis: 1
  }
}
layer {
  name: "mbox_priorbox"
  type: "Concat"
  bottom: "conv4_3_norm_mbox_priorbox"
  bottom: "fc7_mbox_priorbox"
  bottom: "conv6_2_mbox_priorbox"
  bottom: "conv7_2_mbox_priorbox"
  bottom: "conv8_2_mbox_priorbox"
  bottom: "conv9_2_mbox_priorbox"
  top: "mbox_priorbox"
  concat_param {
    axis: 2
  }
}
layer {
  name: "mbox_loss"
  type: "MultiBoxLoss"
  bottom: "mbox_loc"
  bottom: "mbox_conf"
  bottom: "mbox_priorbox"
  bottom: "label"
  top: "mbox_loss"
  include {
    phase: TRAIN
  }
  propagate_down: true
  propagate_down: true
  propagate_down: false
  propagate_down: false
  loss_param {
    normalization: VALID
  }
  multibox_loss_param {
    loc_loss_type: SMOOTH_L1
    conf_loss_type: SOFTMAX
    loc_weight: 1
    num_classes: 21
    share_location: true
    match_type: PER_PREDICTION
    overlap_threshold: 0.5
    use_prior_for_matching: true
    background_label_id: 0
    use_difficult_gt: true
    neg_pos_ratio: 3
    neg_overlap: 0.5
    code_type: CENTER_SIZE
    ignore_cross_boundary_bbox: false
    mining_type: MAX_NEGATIVE
  }
}
I0428 16:27:32.297039  2611 layer_factory.hpp:77] Creating layer data
I0428 16:27:32.297659  2611 net.cpp:100] Creating Layer data
I0428 16:27:32.297678  2611 net.cpp:408] data -> data
I0428 16:27:32.297709  2611 net.cpp:408] data -> label
I0428 16:27:32.298614  2630 db_lmdb.cpp:35] Opened lmdb examples/VOC0712/VOC0712_trainval_lmdb
I0428 16:27:32.310829  2611 annotated_data_layer.cpp:62] output data size: 8,3,300,300
I0428 16:27:32.320338  2611 net.cpp:150] Setting up data
I0428 16:27:32.320381  2611 net.cpp:157] Top shape: 8 3 300 300 (2160000)
I0428 16:27:32.320386  2611 net.cpp:157] Top shape: 1 1 14 8 (112)
I0428 16:27:32.320389  2611 net.cpp:165] Memory required for data: 8640448
I0428 16:27:32.320415  2611 layer_factory.hpp:77] Creating layer data_data_0_split
I0428 16:27:32.320439  2611 net.cpp:100] Creating Layer data_data_0_split
I0428 16:27:32.320446  2611 net.cpp:434] data_data_0_split <- data
I0428 16:27:32.320456  2611 net.cpp:408] data_data_0_split -> data_data_0_split_0
I0428 16:27:32.320474  2611 net.cpp:408] data_data_0_split -> data_data_0_split_1
I0428 16:27:32.320482  2611 net.cpp:408] data_data_0_split -> data_data_0_split_2
I0428 16:27:32.320488  2611 net.cpp:408] data_data_0_split -> data_data_0_split_3
I0428 16:27:32.320492  2611 net.cpp:408] data_data_0_split -> data_data_0_split_4
I0428 16:27:32.320498  2611 net.cpp:408] data_data_0_split -> data_data_0_split_5
I0428 16:27:32.320502  2611 net.cpp:408] data_data_0_split -> data_data_0_split_6
I0428 16:27:32.320582  2611 net.cpp:150] Setting up data_data_0_split
I0428 16:27:32.320590  2611 net.cpp:157] Top shape: 8 3 300 300 (2160000)
I0428 16:27:32.320592  2611 net.cpp:157] Top shape: 8 3 300 300 (2160000)
I0428 16:27:32.320595  2611 net.cpp:157] Top shape: 8 3 300 300 (2160000)
I0428 16:27:32.320600  2611 net.cpp:157] Top shape: 8 3 300 300 (2160000)
I0428 16:27:32.320602  2611 net.cpp:157] Top shape: 8 3 300 300 (2160000)
I0428 16:27:32.320605  2611 net.cpp:157] Top shape: 8 3 300 300 (2160000)
I0428 16:27:32.320608  2611 net.cpp:157] Top shape: 8 3 300 300 (2160000)
I0428 16:27:32.320611  2611 net.cpp:165] Memory required for data: 69120448
I0428 16:27:32.320613  2611 layer_factory.hpp:77] Creating layer conv1_1
I0428 16:27:32.320626  2611 net.cpp:100] Creating Layer conv1_1
I0428 16:27:32.320629  2611 net.cpp:434] conv1_1 <- data_data_0_split_0
I0428 16:27:32.320636  2611 net.cpp:408] conv1_1 -> conv1_1
I0428 16:27:32.321825  2611 net.cpp:150] Setting up conv1_1
I0428 16:27:32.321838  2611 net.cpp:157] Top shape: 8 64 300 300 (46080000)
I0428 16:27:32.321842  2611 net.cpp:165] Memory required for data: 253440448
I0428 16:27:32.321854  2611 layer_factory.hpp:77] Creating layer relu1_1
I0428 16:27:32.321864  2611 net.cpp:100] Creating Layer relu1_1
I0428 16:27:32.321874  2611 net.cpp:434] relu1_1 <- conv1_1
I0428 16:27:32.321880  2611 net.cpp:395] relu1_1 -> conv1_1 (in-place)
I0428 16:27:32.321887  2611 net.cpp:150] Setting up relu1_1
I0428 16:27:32.321892  2611 net.cpp:157] Top shape: 8 64 300 300 (46080000)
I0428 16:27:32.321893  2611 net.cpp:165] Memory required for data: 437760448
I0428 16:27:32.321897  2611 layer_factory.hpp:77] Creating layer conv1_2
I0428 16:27:32.321905  2611 net.cpp:100] Creating Layer conv1_2
I0428 16:27:32.321907  2611 net.cpp:434] conv1_2 <- conv1_1
I0428 16:27:32.321912  2611 net.cpp:408] conv1_2 -> conv1_2
I0428 16:27:32.322665  2611 net.cpp:150] Setting up conv1_2
I0428 16:27:32.322677  2611 net.cpp:157] Top shape: 8 64 300 300 (46080000)
I0428 16:27:32.322680  2611 net.cpp:165] Memory required for data: 622080448
I0428 16:27:32.322686  2611 layer_factory.hpp:77] Creating layer relu1_2
I0428 16:27:32.322692  2611 net.cpp:100] Creating Layer relu1_2
I0428 16:27:32.322695  2611 net.cpp:434] relu1_2 <- conv1_2
I0428 16:27:32.322700  2611 net.cpp:395] relu1_2 -> conv1_2 (in-place)
I0428 16:27:32.322720  2611 net.cpp:150] Setting up relu1_2
I0428 16:27:32.322722  2611 net.cpp:157] Top shape: 8 64 300 300 (46080000)
I0428 16:27:32.322726  2611 net.cpp:165] Memory required for data: 806400448
I0428 16:27:32.322727  2611 layer_factory.hpp:77] Creating layer pool1
I0428 16:27:32.322731  2611 net.cpp:100] Creating Layer pool1
I0428 16:27:32.322734  2611 net.cpp:434] pool1 <- conv1_2
I0428 16:27:32.322739  2611 net.cpp:408] pool1 -> pool1
I0428 16:27:32.322775  2611 net.cpp:150] Setting up pool1
I0428 16:27:32.322782  2611 net.cpp:157] Top shape: 8 64 150 150 (11520000)
I0428 16:27:32.322784  2611 net.cpp:165] Memory required for data: 852480448
I0428 16:27:32.322788  2611 layer_factory.hpp:77] Creating layer conv2_1
I0428 16:27:32.322795  2611 net.cpp:100] Creating Layer conv2_1
I0428 16:27:32.322798  2611 net.cpp:434] conv2_1 <- pool1
I0428 16:27:32.322803  2611 net.cpp:408] conv2_1 -> conv2_1
I0428 16:27:32.323369  2611 net.cpp:150] Setting up conv2_1
I0428 16:27:32.323379  2611 net.cpp:157] Top shape: 8 128 150 150 (23040000)
I0428 16:27:32.323381  2611 net.cpp:165] Memory required for data: 944640448
I0428 16:27:32.323401  2611 layer_factory.hpp:77] Creating layer relu2_1
I0428 16:27:32.323408  2611 net.cpp:100] Creating Layer relu2_1
I0428 16:27:32.323411  2611 net.cpp:434] relu2_1 <- conv2_1
I0428 16:27:32.323415  2611 net.cpp:395] relu2_1 -> conv2_1 (in-place)
I0428 16:27:32.323420  2611 net.cpp:150] Setting up relu2_1
I0428 16:27:32.323423  2611 net.cpp:157] Top shape: 8 128 150 150 (23040000)
I0428 16:27:32.323426  2611 net.cpp:165] Memory required for data: 1036800448
I0428 16:27:32.323428  2611 layer_factory.hpp:77] Creating layer conv2_2
I0428 16:27:32.323436  2611 net.cpp:100] Creating Layer conv2_2
I0428 16:27:32.323438  2611 net.cpp:434] conv2_2 <- conv2_1
I0428 16:27:32.323442  2611 net.cpp:408] conv2_2 -> conv2_2
I0428 16:27:32.324576  2611 net.cpp:150] Setting up conv2_2
I0428 16:27:32.324587  2611 net.cpp:157] Top shape: 8 128 150 150 (23040000)
I0428 16:27:32.324590  2611 net.cpp:165] Memory required for data: 1128960448
I0428 16:27:32.324614  2611 layer_factory.hpp:77] Creating layer relu2_2
I0428 16:27:32.324618  2611 net.cpp:100] Creating Layer relu2_2
I0428 16:27:32.324621  2611 net.cpp:434] relu2_2 <- conv2_2
I0428 16:27:32.324640  2611 net.cpp:395] relu2_2 -> conv2_2 (in-place)
I0428 16:27:32.324645  2611 net.cpp:150] Setting up relu2_2
I0428 16:27:32.324647  2611 net.cpp:157] Top shape: 8 128 150 150 (23040000)
I0428 16:27:32.324651  2611 net.cpp:165] Memory required for data: 1221120448
I0428 16:27:32.324671  2611 layer_factory.hpp:77] Creating layer pool2
I0428 16:27:32.324676  2611 net.cpp:100] Creating Layer pool2
I0428 16:27:32.324677  2611 net.cpp:434] pool2 <- conv2_2
I0428 16:27:32.324682  2611 net.cpp:408] pool2 -> pool2
I0428 16:27:32.324725  2611 net.cpp:150] Setting up pool2
I0428 16:27:32.324729  2611 net.cpp:157] Top shape: 8 128 75 75 (5760000)
I0428 16:27:32.324731  2611 net.cpp:165] Memory required for data: 1244160448
I0428 16:27:32.324733  2611 layer_factory.hpp:77] Creating layer conv3_1
I0428 16:27:32.324743  2611 net.cpp:100] Creating Layer conv3_1
I0428 16:27:32.324748  2611 net.cpp:434] conv3_1 <- pool2
I0428 16:27:32.324754  2611 net.cpp:408] conv3_1 -> conv3_1
I0428 16:27:32.327951  2611 net.cpp:150] Setting up conv3_1
I0428 16:27:32.327970  2611 net.cpp:157] Top shape: 8 256 75 75 (11520000)
I0428 16:27:32.327992  2611 net.cpp:165] Memory required for data: 1290240448
I0428 16:27:32.328003  2611 layer_factory.hpp:77] Creating layer relu3_1
I0428 16:27:32.328011  2611 net.cpp:100] Creating Layer relu3_1
I0428 16:27:32.328016  2611 net.cpp:434] relu3_1 <- conv3_1
I0428 16:27:32.328037  2611 net.cpp:395] relu3_1 -> conv3_1 (in-place)
I0428 16:27:32.328045  2611 net.cpp:150] Setting up relu3_1
I0428 16:27:32.328048  2611 net.cpp:157] Top shape: 8 256 75 75 (11520000)
I0428 16:27:32.328052  2611 net.cpp:165] Memory required for data: 1336320448
I0428 16:27:32.328053  2611 layer_factory.hpp:77] Creating layer conv3_2
I0428 16:27:32.328076  2611 net.cpp:100] Creating Layer conv3_2
I0428 16:27:32.328079  2611 net.cpp:434] conv3_2 <- conv3_1
I0428 16:27:32.328084  2611 net.cpp:408] conv3_2 -> conv3_2
I0428 16:27:32.331542  2611 net.cpp:150] Setting up conv3_2
I0428 16:27:32.331563  2611 net.cpp:157] Top shape: 8 256 75 75 (11520000)
I0428 16:27:32.331568  2611 net.cpp:165] Memory required for data: 1382400448
I0428 16:27:32.331574  2611 layer_factory.hpp:77] Creating layer relu3_2
I0428 16:27:32.331596  2611 net.cpp:100] Creating Layer relu3_2
I0428 16:27:32.331599  2611 net.cpp:434] relu3_2 <- conv3_2
I0428 16:27:32.331604  2611 net.cpp:395] relu3_2 -> conv3_2 (in-place)
I0428 16:27:32.331612  2611 net.cpp:150] Setting up relu3_2
I0428 16:27:32.331616  2611 net.cpp:157] Top shape: 8 256 75 75 (11520000)
I0428 16:27:32.331619  2611 net.cpp:165] Memory required for data: 1428480448
I0428 16:27:32.331620  2611 layer_factory.hpp:77] Creating layer conv3_3
I0428 16:27:32.331643  2611 net.cpp:100] Creating Layer conv3_3
I0428 16:27:32.331648  2611 net.cpp:434] conv3_3 <- conv3_2
I0428 16:27:32.331653  2611 net.cpp:408] conv3_3 -> conv3_3
I0428 16:27:32.335263  2611 net.cpp:150] Setting up conv3_3
I0428 16:27:32.335278  2611 net.cpp:157] Top shape: 8 256 75 75 (11520000)
I0428 16:27:32.335280  2611 net.cpp:165] Memory required for data: 1474560448
I0428 16:27:32.335304  2611 layer_factory.hpp:77] Creating layer relu3_3
I0428 16:27:32.335310  2611 net.cpp:100] Creating Layer relu3_3
I0428 16:27:32.335314  2611 net.cpp:434] relu3_3 <- conv3_3
I0428 16:27:32.335319  2611 net.cpp:395] relu3_3 -> conv3_3 (in-place)
I0428 16:27:32.335324  2611 net.cpp:150] Setting up relu3_3
I0428 16:27:32.335326  2611 net.cpp:157] Top shape: 8 256 75 75 (11520000)
I0428 16:27:32.335347  2611 net.cpp:165] Memory required for data: 1520640448
I0428 16:27:32.335350  2611 layer_factory.hpp:77] Creating layer pool3
I0428 16:27:32.335369  2611 net.cpp:100] Creating Layer pool3
I0428 16:27:32.335372  2611 net.cpp:434] pool3 <- conv3_3
I0428 16:27:32.335376  2611 net.cpp:408] pool3 -> pool3
I0428 16:27:32.335405  2611 net.cpp:150] Setting up pool3
I0428 16:27:32.335412  2611 net.cpp:157] Top shape: 8 256 38 38 (2957312)
I0428 16:27:32.335413  2611 net.cpp:165] Memory required for data: 1532469696
I0428 16:27:32.335417  2611 layer_factory.hpp:77] Creating layer conv4_1
I0428 16:27:32.335423  2611 net.cpp:100] Creating Layer conv4_1
I0428 16:27:32.335427  2611 net.cpp:434] conv4_1 <- pool3
I0428 16:27:32.335433  2611 net.cpp:408] conv4_1 -> conv4_1
I0428 16:27:32.342573  2611 net.cpp:150] Setting up conv4_1
I0428 16:27:32.342622  2611 net.cpp:157] Top shape: 8 512 38 38 (5914624)
I0428 16:27:32.342624  2611 net.cpp:165] Memory required for data: 1556128192
I0428 16:27:32.342646  2611 layer_factory.hpp:77] Creating layer relu4_1
I0428 16:27:32.342654  2611 net.cpp:100] Creating Layer relu4_1
I0428 16:27:32.342658  2611 net.cpp:434] relu4_1 <- conv4_1
I0428 16:27:32.342663  2611 net.cpp:395] relu4_1 -> conv4_1 (in-place)
I0428 16:27:32.342689  2611 net.cpp:150] Setting up relu4_1
I0428 16:27:32.342692  2611 net.cpp:157] Top shape: 8 512 38 38 (5914624)
I0428 16:27:32.342694  2611 net.cpp:165] Memory required for data: 1579786688
I0428 16:27:32.342697  2611 layer_factory.hpp:77] Creating layer conv4_2
I0428 16:27:32.342720  2611 net.cpp:100] Creating Layer conv4_2
I0428 16:27:32.342723  2611 net.cpp:434] conv4_2 <- conv4_1
I0428 16:27:32.342728  2611 net.cpp:408] conv4_2 -> conv4_2
I0428 16:27:32.355581  2611 net.cpp:150] Setting up conv4_2
I0428 16:27:32.355600  2611 net.cpp:157] Top shape: 8 512 38 38 (5914624)
I0428 16:27:32.355603  2611 net.cpp:165] Memory required for data: 1603445184
I0428 16:27:32.355633  2611 layer_factory.hpp:77] Creating layer relu4_2
I0428 16:27:32.355644  2611 net.cpp:100] Creating Layer relu4_2
I0428 16:27:32.355648  2611 net.cpp:434] relu4_2 <- conv4_2
I0428 16:27:32.355653  2611 net.cpp:395] relu4_2 -> conv4_2 (in-place)
I0428 16:27:32.355675  2611 net.cpp:150] Setting up relu4_2
I0428 16:27:32.355679  2611 net.cpp:157] Top shape: 8 512 38 38 (5914624)
I0428 16:27:32.355681  2611 net.cpp:165] Memory required for data: 1627103680
I0428 16:27:32.355684  2611 layer_factory.hpp:77] Creating layer conv4_3
I0428 16:27:32.355692  2611 net.cpp:100] Creating Layer conv4_3
I0428 16:27:32.355695  2611 net.cpp:434] conv4_3 <- conv4_2
I0428 16:27:32.355700  2611 net.cpp:408] conv4_3 -> conv4_3
I0428 16:27:32.368691  2611 net.cpp:150] Setting up conv4_3
I0428 16:27:32.368713  2611 net.cpp:157] Top shape: 8 512 38 38 (5914624)
I0428 16:27:32.368716  2611 net.cpp:165] Memory required for data: 1650762176
I0428 16:27:32.368741  2611 layer_factory.hpp:77] Creating layer relu4_3
I0428 16:27:32.368748  2611 net.cpp:100] Creating Layer relu4_3
I0428 16:27:32.368752  2611 net.cpp:434] relu4_3 <- conv4_3
I0428 16:27:32.368757  2611 net.cpp:395] relu4_3 -> conv4_3 (in-place)
I0428 16:27:32.368762  2611 net.cpp:150] Setting up relu4_3
I0428 16:27:32.368767  2611 net.cpp:157] Top shape: 8 512 38 38 (5914624)
I0428 16:27:32.368801  2611 net.cpp:165] Memory required for data: 1674420672
I0428 16:27:32.368804  2611 layer_factory.hpp:77] Creating layer conv4_3_relu4_3_0_split
I0428 16:27:32.368810  2611 net.cpp:100] Creating Layer conv4_3_relu4_3_0_split
I0428 16:27:32.368813  2611 net.cpp:434] conv4_3_relu4_3_0_split <- conv4_3
I0428 16:27:32.368818  2611 net.cpp:408] conv4_3_relu4_3_0_split -> conv4_3_relu4_3_0_split_0
I0428 16:27:32.368824  2611 net.cpp:408] conv4_3_relu4_3_0_split -> conv4_3_relu4_3_0_split_1
I0428 16:27:32.368872  2611 net.cpp:150] Setting up conv4_3_relu4_3_0_split
I0428 16:27:32.368878  2611 net.cpp:157] Top shape: 8 512 38 38 (5914624)
I0428 16:27:32.368881  2611 net.cpp:157] Top shape: 8 512 38 38 (5914624)
I0428 16:27:32.368883  2611 net.cpp:165] Memory required for data: 1721737664
I0428 16:27:32.368886  2611 layer_factory.hpp:77] Creating layer pool4
I0428 16:27:32.368892  2611 net.cpp:100] Creating Layer pool4
I0428 16:27:32.368894  2611 net.cpp:434] pool4 <- conv4_3_relu4_3_0_split_0
I0428 16:27:32.368898  2611 net.cpp:408] pool4 -> pool4
I0428 16:27:32.368926  2611 net.cpp:150] Setting up pool4
I0428 16:27:32.368930  2611 net.cpp:157] Top shape: 8 512 19 19 (1478656)
I0428 16:27:32.368945  2611 net.cpp:165] Memory required for data: 1727652288
I0428 16:27:32.368947  2611 layer_factory.hpp:77] Creating layer conv5_1
I0428 16:27:32.368974  2611 net.cpp:100] Creating Layer conv5_1
I0428 16:27:32.368978  2611 net.cpp:434] conv5_1 <- pool4
I0428 16:27:32.368983  2611 net.cpp:408] conv5_1 -> conv5_1
I0428 16:27:32.381608  2611 net.cpp:150] Setting up conv5_1
I0428 16:27:32.381630  2611 net.cpp:157] Top shape: 8 512 19 19 (1478656)
I0428 16:27:32.381652  2611 net.cpp:165] Memory required for data: 1733566912
I0428 16:27:32.381659  2611 layer_factory.hpp:77] Creating layer relu5_1
I0428 16:27:32.381667  2611 net.cpp:100] Creating Layer relu5_1
I0428 16:27:32.381670  2611 net.cpp:434] relu5_1 <- conv5_1
I0428 16:27:32.381676  2611 net.cpp:395] relu5_1 -> conv5_1 (in-place)
I0428 16:27:32.381682  2611 net.cpp:150] Setting up relu5_1
I0428 16:27:32.381703  2611 net.cpp:157] Top shape: 8 512 19 19 (1478656)
I0428 16:27:32.381706  2611 net.cpp:165] Memory required for data: 1739481536
I0428 16:27:32.381709  2611 layer_factory.hpp:77] Creating layer conv5_2
I0428 16:27:32.381729  2611 net.cpp:100] Creating Layer conv5_2
I0428 16:27:32.381731  2611 net.cpp:434] conv5_2 <- conv5_1
I0428 16:27:32.381752  2611 net.cpp:408] conv5_2 -> conv5_2
I0428 16:27:32.394811  2611 net.cpp:150] Setting up conv5_2
I0428 16:27:32.394831  2611 net.cpp:157] Top shape: 8 512 19 19 (1478656)
I0428 16:27:32.394834  2611 net.cpp:165] Memory required for data: 1745396160
I0428 16:27:32.394860  2611 layer_factory.hpp:77] Creating layer relu5_2
I0428 16:27:32.394872  2611 net.cpp:100] Creating Layer relu5_2
I0428 16:27:32.394889  2611 net.cpp:434] relu5_2 <- conv5_2
I0428 16:27:32.394894  2611 net.cpp:395] relu5_2 -> conv5_2 (in-place)
I0428 16:27:32.394919  2611 net.cpp:150] Setting up relu5_2
I0428 16:27:32.394923  2611 net.cpp:157] Top shape: 8 512 19 19 (1478656)
I0428 16:27:32.394927  2611 net.cpp:165] Memory required for data: 1751310784
I0428 16:27:32.394928  2611 layer_factory.hpp:77] Creating layer conv5_3
I0428 16:27:32.394937  2611 net.cpp:100] Creating Layer conv5_3
I0428 16:27:32.394939  2611 net.cpp:434] conv5_3 <- conv5_2
I0428 16:27:32.394958  2611 net.cpp:408] conv5_3 -> conv5_3
I0428 16:27:32.407969  2611 net.cpp:150] Setting up conv5_3
I0428 16:27:32.407989  2611 net.cpp:157] Top shape: 8 512 19 19 (1478656)
I0428 16:27:32.408011  2611 net.cpp:165] Memory required for data: 1757225408
I0428 16:27:32.408017  2611 layer_factory.hpp:77] Creating layer relu5_3
I0428 16:27:32.408044  2611 net.cpp:100] Creating Layer relu5_3
I0428 16:27:32.408047  2611 net.cpp:434] relu5_3 <- conv5_3
I0428 16:27:32.408052  2611 net.cpp:395] relu5_3 -> conv5_3 (in-place)
I0428 16:27:32.408059  2611 net.cpp:150] Setting up relu5_3
I0428 16:27:32.408063  2611 net.cpp:157] Top shape: 8 512 19 19 (1478656)
I0428 16:27:32.408066  2611 net.cpp:165] Memory required for data: 1763140032
I0428 16:27:32.408080  2611 layer_factory.hpp:77] Creating layer pool5
I0428 16:27:32.408085  2611 net.cpp:100] Creating Layer pool5
I0428 16:27:32.408087  2611 net.cpp:434] pool5 <- conv5_3
I0428 16:27:32.408092  2611 net.cpp:408] pool5 -> pool5
I0428 16:27:32.408128  2611 net.cpp:150] Setting up pool5
I0428 16:27:32.408133  2611 net.cpp:157] Top shape: 8 512 19 19 (1478656)
I0428 16:27:32.408135  2611 net.cpp:165] Memory required for data: 1769054656
I0428 16:27:32.408138  2611 layer_factory.hpp:77] Creating layer fc6
I0428 16:27:32.408146  2611 net.cpp:100] Creating Layer fc6
I0428 16:27:32.408149  2611 net.cpp:434] fc6 <- pool5
I0428 16:27:32.408154  2611 net.cpp:408] fc6 -> fc6
I0428 16:27:32.433184  2611 net.cpp:150] Setting up fc6
I0428 16:27:32.433209  2611 net.cpp:157] Top shape: 8 1024 19 19 (2957312)
I0428 16:27:32.433230  2611 net.cpp:165] Memory required for data: 1780883904
I0428 16:27:32.433238  2611 layer_factory.hpp:77] Creating layer relu6
I0428 16:27:32.433259  2611 net.cpp:100] Creating Layer relu6
I0428 16:27:32.433262  2611 net.cpp:434] relu6 <- fc6
I0428 16:27:32.433269  2611 net.cpp:395] relu6 -> fc6 (in-place)
I0428 16:27:32.433295  2611 net.cpp:150] Setting up relu6
I0428 16:27:32.433297  2611 net.cpp:157] Top shape: 8 1024 19 19 (2957312)
I0428 16:27:32.433300  2611 net.cpp:165] Memory required for data: 1792713152
I0428 16:27:32.433302  2611 layer_factory.hpp:77] Creating layer fc7
I0428 16:27:32.433324  2611 net.cpp:100] Creating Layer fc7
I0428 16:27:32.433327  2611 net.cpp:434] fc7 <- fc6
I0428 16:27:32.433331  2611 net.cpp:408] fc7 -> fc7
I0428 16:27:32.439148  2611 net.cpp:150] Setting up fc7
I0428 16:27:32.439170  2611 net.cpp:157] Top shape: 8 1024 19 19 (2957312)
I0428 16:27:32.439173  2611 net.cpp:165] Memory required for data: 1804542400
I0428 16:27:32.439198  2611 layer_factory.hpp:77] Creating layer relu7
I0428 16:27:32.439224  2611 net.cpp:100] Creating Layer relu7
I0428 16:27:32.439227  2611 net.cpp:434] relu7 <- fc7
I0428 16:27:32.439245  2611 net.cpp:395] relu7 -> fc7 (in-place)
I0428 16:27:32.439266  2611 net.cpp:150] Setting up relu7
I0428 16:27:32.439270  2611 net.cpp:157] Top shape: 8 1024 19 19 (2957312)
I0428 16:27:32.439272  2611 net.cpp:165] Memory required for data: 1816371648
I0428 16:27:32.439276  2611 layer_factory.hpp:77] Creating layer fc7_relu7_0_split
I0428 16:27:32.439285  2611 net.cpp:100] Creating Layer fc7_relu7_0_split
I0428 16:27:32.439287  2611 net.cpp:434] fc7_relu7_0_split <- fc7
I0428 16:27:32.439293  2611 net.cpp:408] fc7_relu7_0_split -> fc7_relu7_0_split_0
I0428 16:27:32.439301  2611 net.cpp:408] fc7_relu7_0_split -> fc7_relu7_0_split_1
I0428 16:27:32.439314  2611 net.cpp:408] fc7_relu7_0_split -> fc7_relu7_0_split_2
I0428 16:27:32.439326  2611 net.cpp:408] fc7_relu7_0_split -> fc7_relu7_0_split_3
I0428 16:27:32.439419  2611 net.cpp:150] Setting up fc7_relu7_0_split
I0428 16:27:32.439429  2611 net.cpp:157] Top shape: 8 1024 19 19 (2957312)
I0428 16:27:32.439434  2611 net.cpp:157] Top shape: 8 1024 19 19 (2957312)
I0428 16:27:32.439436  2611 net.cpp:157] Top shape: 8 1024 19 19 (2957312)
I0428 16:27:32.439458  2611 net.cpp:157] Top shape: 8 1024 19 19 (2957312)
I0428 16:27:32.439460  2611 net.cpp:165] Memory required for data: 1863688640
I0428 16:27:32.439462  2611 layer_factory.hpp:77] Creating layer conv6_1
I0428 16:27:32.439472  2611 net.cpp:100] Creating Layer conv6_1
I0428 16:27:32.439474  2611 net.cpp:434] conv6_1 <- fc7_relu7_0_split_0
I0428 16:27:32.439499  2611 net.cpp:408] conv6_1 -> conv6_1
I0428 16:27:32.441171  2611 net.cpp:150] Setting up conv6_1
I0428 16:27:32.441181  2611 net.cpp:157] Top shape: 8 256 19 19 (739328)
I0428 16:27:32.441184  2611 net.cpp:165] Memory required for data: 1866645952
I0428 16:27:32.441206  2611 layer_factory.hpp:77] Creating layer conv6_1_relu
I0428 16:27:32.441210  2611 net.cpp:100] Creating Layer conv6_1_relu
I0428 16:27:32.441215  2611 net.cpp:434] conv6_1_relu <- conv6_1
I0428 16:27:32.441220  2611 net.cpp:395] conv6_1_relu -> conv6_1 (in-place)
I0428 16:27:32.441253  2611 net.cpp:150] Setting up conv6_1_relu
I0428 16:27:32.441272  2611 net.cpp:157] Top shape: 8 256 19 19 (739328)
I0428 16:27:32.441273  2611 net.cpp:165] Memory required for data: 1869603264
I0428 16:27:32.441277  2611 layer_factory.hpp:77] Creating layer conv6_2
I0428 16:27:32.441282  2611 net.cpp:100] Creating Layer conv6_2
I0428 16:27:32.441285  2611 net.cpp:434] conv6_2 <- conv6_1
I0428 16:27:32.441290  2611 net.cpp:408] conv6_2 -> conv6_2
I0428 16:27:32.447577  2611 net.cpp:150] Setting up conv6_2
I0428 16:27:32.447654  2611 net.cpp:157] Top shape: 8 512 10 10 (409600)
I0428 16:27:32.447659  2611 net.cpp:165] Memory required for data: 1871241664
I0428 16:27:32.447674  2611 layer_factory.hpp:77] Creating layer conv6_2_relu
I0428 16:27:32.447696  2611 net.cpp:100] Creating Layer conv6_2_relu
I0428 16:27:32.447700  2611 net.cpp:434] conv6_2_relu <- conv6_2
I0428 16:27:32.447705  2611 net.cpp:395] conv6_2_relu -> conv6_2 (in-place)
I0428 16:27:32.447712  2611 net.cpp:150] Setting up conv6_2_relu
I0428 16:27:32.447716  2611 net.cpp:157] Top shape: 8 512 10 10 (409600)
I0428 16:27:32.447718  2611 net.cpp:165] Memory required for data: 1872880064
I0428 16:27:32.447721  2611 layer_factory.hpp:77] Creating layer conv6_2_conv6_2_relu_0_split
I0428 16:27:32.447726  2611 net.cpp:100] Creating Layer conv6_2_conv6_2_relu_0_split
I0428 16:27:32.447727  2611 net.cpp:434] conv6_2_conv6_2_relu_0_split <- conv6_2
I0428 16:27:32.447732  2611 net.cpp:408] conv6_2_conv6_2_relu_0_split -> conv6_2_conv6_2_relu_0_split_0
I0428 16:27:32.447738  2611 net.cpp:408] conv6_2_conv6_2_relu_0_split -> conv6_2_conv6_2_relu_0_split_1
I0428 16:27:32.447744  2611 net.cpp:408] conv6_2_conv6_2_relu_0_split -> conv6_2_conv6_2_relu_0_split_2
I0428 16:27:32.447749  2611 net.cpp:408] conv6_2_conv6_2_relu_0_split -> conv6_2_conv6_2_relu_0_split_3
I0428 16:27:32.447813  2611 net.cpp:150] Setting up conv6_2_conv6_2_relu_0_split
I0428 16:27:32.447832  2611 net.cpp:157] Top shape: 8 512 10 10 (409600)
I0428 16:27:32.447835  2611 net.cpp:157] Top shape: 8 512 10 10 (409600)
I0428 16:27:32.447839  2611 net.cpp:157] Top shape: 8 512 10 10 (409600)
I0428 16:27:32.447860  2611 net.cpp:157] Top shape: 8 512 10 10 (409600)
I0428 16:27:32.447861  2611 net.cpp:165] Memory required for data: 1879433664
I0428 16:27:32.447865  2611 layer_factory.hpp:77] Creating layer conv7_1
I0428 16:27:32.447886  2611 net.cpp:100] Creating Layer conv7_1
I0428 16:27:32.447890  2611 net.cpp:434] conv7_1 <- conv6_2_conv6_2_relu_0_split_0
I0428 16:27:32.447896  2611 net.cpp:408] conv7_1 -> conv7_1
I0428 16:27:32.448377  2611 net.cpp:150] Setting up conv7_1
I0428 16:27:32.448384  2611 net.cpp:157] Top shape: 8 128 10 10 (102400)
I0428 16:27:32.448385  2611 net.cpp:165] Memory required for data: 1879843264
I0428 16:27:32.448390  2611 layer_factory.hpp:77] Creating layer conv7_1_relu
I0428 16:27:32.448412  2611 net.cpp:100] Creating Layer conv7_1_relu
I0428 16:27:32.448415  2611 net.cpp:434] conv7_1_relu <- conv7_1
I0428 16:27:32.448418  2611 net.cpp:395] conv7_1_relu -> conv7_1 (in-place)
I0428 16:27:32.448422  2611 net.cpp:150] Setting up conv7_1_relu
I0428 16:27:32.448426  2611 net.cpp:157] Top shape: 8 128 10 10 (102400)
I0428 16:27:32.448428  2611 net.cpp:165] Memory required for data: 1880252864
I0428 16:27:32.448431  2611 layer_factory.hpp:77] Creating layer conv7_2
I0428 16:27:32.448436  2611 net.cpp:100] Creating Layer conv7_2
I0428 16:27:32.448439  2611 net.cpp:434] conv7_2 <- conv7_1
I0428 16:27:32.448443  2611 net.cpp:408] conv7_2 -> conv7_2
I0428 16:27:32.450281  2611 net.cpp:150] Setting up conv7_2
I0428 16:27:32.450295  2611 net.cpp:157] Top shape: 8 256 5 5 (51200)
I0428 16:27:32.450299  2611 net.cpp:165] Memory required for data: 1880457664
I0428 16:27:32.450322  2611 layer_factory.hpp:77] Creating layer conv7_2_relu
I0428 16:27:32.450327  2611 net.cpp:100] Creating Layer conv7_2_relu
I0428 16:27:32.450330  2611 net.cpp:434] conv7_2_relu <- conv7_2
I0428 16:27:32.450335  2611 net.cpp:395] conv7_2_relu -> conv7_2 (in-place)
I0428 16:27:32.450340  2611 net.cpp:150] Setting up conv7_2_relu
I0428 16:27:32.450354  2611 net.cpp:157] Top shape: 8 256 5 5 (51200)
I0428 16:27:32.450357  2611 net.cpp:165] Memory required for data: 1880662464
I0428 16:27:32.450361  2611 layer_factory.hpp:77] Creating layer conv7_2_conv7_2_relu_0_split
I0428 16:27:32.450364  2611 net.cpp:100] Creating Layer conv7_2_conv7_2_relu_0_split
I0428 16:27:32.450366  2611 net.cpp:434] conv7_2_conv7_2_relu_0_split <- conv7_2
I0428 16:27:32.450371  2611 net.cpp:408] conv7_2_conv7_2_relu_0_split -> conv7_2_conv7_2_relu_0_split_0
I0428 16:27:32.450392  2611 net.cpp:408] conv7_2_conv7_2_relu_0_split -> conv7_2_conv7_2_relu_0_split_1
I0428 16:27:32.450397  2611 net.cpp:408] conv7_2_conv7_2_relu_0_split -> conv7_2_conv7_2_relu_0_split_2
I0428 16:27:32.450402  2611 net.cpp:408] conv7_2_conv7_2_relu_0_split -> conv7_2_conv7_2_relu_0_split_3
I0428 16:27:32.450448  2611 net.cpp:150] Setting up conv7_2_conv7_2_relu_0_split
I0428 16:27:32.450453  2611 net.cpp:157] Top shape: 8 256 5 5 (51200)
I0428 16:27:32.450456  2611 net.cpp:157] Top shape: 8 256 5 5 (51200)
I0428 16:27:32.450474  2611 net.cpp:157] Top shape: 8 256 5 5 (51200)
I0428 16:27:32.450476  2611 net.cpp:157] Top shape: 8 256 5 5 (51200)
I0428 16:27:32.450479  2611 net.cpp:165] Memory required for data: 1881481664
I0428 16:27:32.450481  2611 layer_factory.hpp:77] Creating layer conv8_1
I0428 16:27:32.450503  2611 net.cpp:100] Creating Layer conv8_1
I0428 16:27:32.450525  2611 net.cpp:434] conv8_1 <- conv7_2_conv7_2_relu_0_split_0
I0428 16:27:32.450531  2611 net.cpp:408] conv8_1 -> conv8_1
I0428 16:27:32.450863  2611 net.cpp:150] Setting up conv8_1
I0428 16:27:32.450875  2611 net.cpp:157] Top shape: 8 128 5 5 (25600)
I0428 16:27:32.450878  2611 net.cpp:165] Memory required for data: 1881584064
I0428 16:27:32.450882  2611 layer_factory.hpp:77] Creating layer conv8_1_relu
I0428 16:27:32.450904  2611 net.cpp:100] Creating Layer conv8_1_relu
I0428 16:27:32.450907  2611 net.cpp:434] conv8_1_relu <- conv8_1
I0428 16:27:32.450911  2611 net.cpp:395] conv8_1_relu -> conv8_1 (in-place)
I0428 16:27:32.450915  2611 net.cpp:150] Setting up conv8_1_relu
I0428 16:27:32.450918  2611 net.cpp:157] Top shape: 8 128 5 5 (25600)
I0428 16:27:32.450920  2611 net.cpp:165] Memory required for data: 1881686464
I0428 16:27:32.450922  2611 layer_factory.hpp:77] Creating layer conv8_2
I0428 16:27:32.450929  2611 net.cpp:100] Creating Layer conv8_2
I0428 16:27:32.450932  2611 net.cpp:434] conv8_2 <- conv8_1
I0428 16:27:32.450937  2611 net.cpp:408] conv8_2 -> conv8_2
I0428 16:27:32.453353  2611 net.cpp:150] Setting up conv8_2
I0428 16:27:32.453371  2611 net.cpp:157] Top shape: 8 256 3 3 (18432)
I0428 16:27:32.453373  2611 net.cpp:165] Memory required for data: 1881760192
I0428 16:27:32.453397  2611 layer_factory.hpp:77] Creating layer conv8_2_relu
I0428 16:27:32.453403  2611 net.cpp:100] Creating Layer conv8_2_relu
I0428 16:27:32.453408  2611 net.cpp:434] conv8_2_relu <- conv8_2
I0428 16:27:32.453413  2611 net.cpp:395] conv8_2_relu -> conv8_2 (in-place)
I0428 16:27:32.453433  2611 net.cpp:150] Setting up conv8_2_relu
I0428 16:27:32.453436  2611 net.cpp:157] Top shape: 8 256 3 3 (18432)
I0428 16:27:32.453438  2611 net.cpp:165] Memory required for data: 1881833920
I0428 16:27:32.453441  2611 layer_factory.hpp:77] Creating layer conv8_2_conv8_2_relu_0_split
I0428 16:27:32.453445  2611 net.cpp:100] Creating Layer conv8_2_conv8_2_relu_0_split
I0428 16:27:32.453447  2611 net.cpp:434] conv8_2_conv8_2_relu_0_split <- conv8_2
I0428 16:27:32.453452  2611 net.cpp:408] conv8_2_conv8_2_relu_0_split -> conv8_2_conv8_2_relu_0_split_0
I0428 16:27:32.453457  2611 net.cpp:408] conv8_2_conv8_2_relu_0_split -> conv8_2_conv8_2_relu_0_split_1
I0428 16:27:32.453462  2611 net.cpp:408] conv8_2_conv8_2_relu_0_split -> conv8_2_conv8_2_relu_0_split_2
I0428 16:27:32.453467  2611 net.cpp:408] conv8_2_conv8_2_relu_0_split -> conv8_2_conv8_2_relu_0_split_3
I0428 16:27:32.453514  2611 net.cpp:150] Setting up conv8_2_conv8_2_relu_0_split
I0428 16:27:32.453521  2611 net.cpp:157] Top shape: 8 256 3 3 (18432)
I0428 16:27:32.453523  2611 net.cpp:157] Top shape: 8 256 3 3 (18432)
I0428 16:27:32.453552  2611 net.cpp:157] Top shape: 8 256 3 3 (18432)
I0428 16:27:32.453557  2611 net.cpp:157] Top shape: 8 256 3 3 (18432)
I0428 16:27:32.453575  2611 net.cpp:165] Memory required for data: 1882128832
I0428 16:27:32.453578  2611 layer_factory.hpp:77] Creating layer conv9_1
I0428 16:27:32.453585  2611 net.cpp:100] Creating Layer conv9_1
I0428 16:27:32.453589  2611 net.cpp:434] conv9_1 <- conv8_2_conv8_2_relu_0_split_0
I0428 16:27:32.453594  2611 net.cpp:408] conv9_1 -> conv9_1
I0428 16:27:32.453927  2611 net.cpp:150] Setting up conv9_1
I0428 16:27:32.453933  2611 net.cpp:157] Top shape: 8 128 3 3 (9216)
I0428 16:27:32.453936  2611 net.cpp:165] Memory required for data: 1882165696
I0428 16:27:32.453940  2611 layer_factory.hpp:77] Creating layer conv9_1_relu
I0428 16:27:32.453963  2611 net.cpp:100] Creating Layer conv9_1_relu
I0428 16:27:32.453965  2611 net.cpp:434] conv9_1_relu <- conv9_1
I0428 16:27:32.453969  2611 net.cpp:395] conv9_1_relu -> conv9_1 (in-place)
I0428 16:27:32.453974  2611 net.cpp:150] Setting up conv9_1_relu
I0428 16:27:32.453976  2611 net.cpp:157] Top shape: 8 128 3 3 (9216)
I0428 16:27:32.453979  2611 net.cpp:165] Memory required for data: 1882202560
I0428 16:27:32.453981  2611 layer_factory.hpp:77] Creating layer conv9_2
I0428 16:27:32.454000  2611 net.cpp:100] Creating Layer conv9_2
I0428 16:27:32.454004  2611 net.cpp:434] conv9_2 <- conv9_1
I0428 16:27:32.454008  2611 net.cpp:408] conv9_2 -> conv9_2
I0428 16:27:32.456359  2611 net.cpp:150] Setting up conv9_2
I0428 16:27:32.456375  2611 net.cpp:157] Top shape: 8 256 1 1 (2048)
I0428 16:27:32.456377  2611 net.cpp:165] Memory required for data: 1882210752
I0428 16:27:32.456413  2611 layer_factory.hpp:77] Creating layer conv9_2_relu
I0428 16:27:32.456434  2611 net.cpp:100] Creating Layer conv9_2_relu
I0428 16:27:32.456436  2611 net.cpp:434] conv9_2_relu <- conv9_2
I0428 16:27:32.456441  2611 net.cpp:395] conv9_2_relu -> conv9_2 (in-place)
I0428 16:27:32.456447  2611 net.cpp:150] Setting up conv9_2_relu
I0428 16:27:32.456451  2611 net.cpp:157] Top shape: 8 256 1 1 (2048)
I0428 16:27:32.456454  2611 net.cpp:165] Memory required for data: 1882218944
I0428 16:27:32.456455  2611 layer_factory.hpp:77] Creating layer conv9_2_conv9_2_relu_0_split
I0428 16:27:32.456459  2611 net.cpp:100] Creating Layer conv9_2_conv9_2_relu_0_split
I0428 16:27:32.456462  2611 net.cpp:434] conv9_2_conv9_2_relu_0_split <- conv9_2
I0428 16:27:32.456465  2611 net.cpp:408] conv9_2_conv9_2_relu_0_split -> conv9_2_conv9_2_relu_0_split_0
I0428 16:27:32.456472  2611 net.cpp:408] conv9_2_conv9_2_relu_0_split -> conv9_2_conv9_2_relu_0_split_1
I0428 16:27:32.456476  2611 net.cpp:408] conv9_2_conv9_2_relu_0_split -> conv9_2_conv9_2_relu_0_split_2
I0428 16:27:32.456514  2611 net.cpp:150] Setting up conv9_2_conv9_2_relu_0_split
I0428 16:27:32.456521  2611 net.cpp:157] Top shape: 8 256 1 1 (2048)
I0428 16:27:32.456524  2611 net.cpp:157] Top shape: 8 256 1 1 (2048)
I0428 16:27:32.456527  2611 net.cpp:157] Top shape: 8 256 1 1 (2048)
I0428 16:27:32.456529  2611 net.cpp:165] Memory required for data: 1882243520
I0428 16:27:32.456532  2611 layer_factory.hpp:77] Creating layer conv4_3_norm
I0428 16:27:32.456537  2611 net.cpp:100] Creating Layer conv4_3_norm
I0428 16:27:32.456539  2611 net.cpp:434] conv4_3_norm <- conv4_3_relu4_3_0_split_1
I0428 16:27:32.456545  2611 net.cpp:408] conv4_3_norm -> conv4_3_norm
I0428 16:27:32.456674  2611 net.cpp:150] Setting up conv4_3_norm
I0428 16:27:32.456681  2611 net.cpp:157] Top shape: 8 512 38 38 (5914624)
I0428 16:27:32.456682  2611 net.cpp:165] Memory required for data: 1905902016
I0428 16:27:32.456686  2611 layer_factory.hpp:77] Creating layer conv4_3_norm_conv4_3_norm_0_split
I0428 16:27:32.456708  2611 net.cpp:100] Creating Layer conv4_3_norm_conv4_3_norm_0_split
I0428 16:27:32.456710  2611 net.cpp:434] conv4_3_norm_conv4_3_norm_0_split <- conv4_3_norm
I0428 16:27:32.456715  2611 net.cpp:408] conv4_3_norm_conv4_3_norm_0_split -> conv4_3_norm_conv4_3_norm_0_split_0
I0428 16:27:32.456722  2611 net.cpp:408] conv4_3_norm_conv4_3_norm_0_split -> conv4_3_norm_conv4_3_norm_0_split_1
I0428 16:27:32.456737  2611 net.cpp:408] conv4_3_norm_conv4_3_norm_0_split -> conv4_3_norm_conv4_3_norm_0_split_2
I0428 16:27:32.456769  2611 net.cpp:150] Setting up conv4_3_norm_conv4_3_norm_0_split
I0428 16:27:32.456775  2611 net.cpp:157] Top shape: 8 512 38 38 (5914624)
I0428 16:27:32.456779  2611 net.cpp:157] Top shape: 8 512 38 38 (5914624)
I0428 16:27:32.456782  2611 net.cpp:157] Top shape: 8 512 38 38 (5914624)
I0428 16:27:32.456784  2611 net.cpp:165] Memory required for data: 1976877504
I0428 16:27:32.456786  2611 layer_factory.hpp:77] Creating layer conv4_3_norm_mbox_loc
I0428 16:27:32.456809  2611 net.cpp:100] Creating Layer conv4_3_norm_mbox_loc
I0428 16:27:32.456811  2611 net.cpp:434] conv4_3_norm_mbox_loc <- conv4_3_norm_conv4_3_norm_0_split_0
I0428 16:27:32.456816  2611 net.cpp:408] conv4_3_norm_mbox_loc -> conv4_3_norm_mbox_loc
I0428 16:27:32.457320  2611 net.cpp:150] Setting up conv4_3_norm_mbox_loc
I0428 16:27:32.457327  2611 net.cpp:157] Top shape: 8 16 38 38 (184832)
I0428 16:27:32.457329  2611 net.cpp:165] Memory required for data: 1977616832
I0428 16:27:32.457334  2611 layer_factory.hpp:77] Creating layer conv4_3_norm_mbox_loc_perm
I0428 16:27:32.457361  2611 net.cpp:100] Creating Layer conv4_3_norm_mbox_loc_perm
I0428 16:27:32.457365  2611 net.cpp:434] conv4_3_norm_mbox_loc_perm <- conv4_3_norm_mbox_loc
I0428 16:27:32.457370  2611 net.cpp:408] conv4_3_norm_mbox_loc_perm -> conv4_3_norm_mbox_loc_perm
I0428 16:27:32.457454  2611 net.cpp:150] Setting up conv4_3_norm_mbox_loc_perm
I0428 16:27:32.457459  2611 net.cpp:157] Top shape: 8 38 38 16 (184832)
I0428 16:27:32.457463  2611 net.cpp:165] Memory required for data: 1978356160
I0428 16:27:32.457478  2611 layer_factory.hpp:77] Creating layer conv4_3_norm_mbox_loc_flat
I0428 16:27:32.457482  2611 net.cpp:100] Creating Layer conv4_3_norm_mbox_loc_flat
I0428 16:27:32.457485  2611 net.cpp:434] conv4_3_norm_mbox_loc_flat <- conv4_3_norm_mbox_loc_perm
I0428 16:27:32.457509  2611 net.cpp:408] conv4_3_norm_mbox_loc_flat -> conv4_3_norm_mbox_loc_flat
I0428 16:27:32.457550  2611 net.cpp:150] Setting up conv4_3_norm_mbox_loc_flat
I0428 16:27:32.457554  2611 net.cpp:157] Top shape: 8 23104 (184832)
I0428 16:27:32.457556  2611 net.cpp:165] Memory required for data: 1979095488
I0428 16:27:32.457559  2611 layer_factory.hpp:77] Creating layer conv4_3_norm_mbox_conf
I0428 16:27:32.457571  2611 net.cpp:100] Creating Layer conv4_3_norm_mbox_conf
I0428 16:27:32.457573  2611 net.cpp:434] conv4_3_norm_mbox_conf <- conv4_3_norm_conv4_3_norm_0_split_1
I0428 16:27:32.457577  2611 net.cpp:408] conv4_3_norm_mbox_conf -> conv4_3_norm_mbox_conf
I0428 16:27:32.459841  2611 net.cpp:150] Setting up conv4_3_norm_mbox_conf
I0428 16:27:32.459851  2611 net.cpp:157] Top shape: 8 84 38 38 (970368)
I0428 16:27:32.459854  2611 net.cpp:165] Memory required for data: 1982976960
I0428 16:27:32.459877  2611 layer_factory.hpp:77] Creating layer conv4_3_norm_mbox_conf_perm
I0428 16:27:32.459883  2611 net.cpp:100] Creating Layer conv4_3_norm_mbox_conf_perm
I0428 16:27:32.459887  2611 net.cpp:434] conv4_3_norm_mbox_conf_perm <- conv4_3_norm_mbox_conf
I0428 16:27:32.459892  2611 net.cpp:408] conv4_3_norm_mbox_conf_perm -> conv4_3_norm_mbox_conf_perm
I0428 16:27:32.459978  2611 net.cpp:150] Setting up conv4_3_norm_mbox_conf_perm
I0428 16:27:32.459985  2611 net.cpp:157] Top shape: 8 38 38 84 (970368)
I0428 16:27:32.459987  2611 net.cpp:165] Memory required for data: 1986858432
I0428 16:27:32.459990  2611 layer_factory.hpp:77] Creating layer conv4_3_norm_mbox_conf_flat
I0428 16:27:32.459995  2611 net.cpp:100] Creating Layer conv4_3_norm_mbox_conf_flat
I0428 16:27:32.459997  2611 net.cpp:434] conv4_3_norm_mbox_conf_flat <- conv4_3_norm_mbox_conf_perm
I0428 16:27:32.460002  2611 net.cpp:408] conv4_3_norm_mbox_conf_flat -> conv4_3_norm_mbox_conf_flat
I0428 16:27:32.460039  2611 net.cpp:150] Setting up conv4_3_norm_mbox_conf_flat
I0428 16:27:32.460043  2611 net.cpp:157] Top shape: 8 121296 (970368)
I0428 16:27:32.460047  2611 net.cpp:165] Memory required for data: 1990739904
I0428 16:27:32.460057  2611 layer_factory.hpp:77] Creating layer conv4_3_norm_mbox_priorbox
I0428 16:27:32.460078  2611 net.cpp:100] Creating Layer conv4_3_norm_mbox_priorbox
I0428 16:27:32.460080  2611 net.cpp:434] conv4_3_norm_mbox_priorbox <- conv4_3_norm_conv4_3_norm_0_split_2
I0428 16:27:32.460084  2611 net.cpp:434] conv4_3_norm_mbox_priorbox <- data_data_0_split_1
I0428 16:27:32.460089  2611 net.cpp:408] conv4_3_norm_mbox_priorbox -> conv4_3_norm_mbox_priorbox
I0428 16:27:32.460110  2611 net.cpp:150] Setting up conv4_3_norm_mbox_priorbox
I0428 16:27:32.460114  2611 net.cpp:157] Top shape: 1 2 23104 (46208)
I0428 16:27:32.460116  2611 net.cpp:165] Memory required for data: 1990924736
I0428 16:27:32.460119  2611 layer_factory.hpp:77] Creating layer fc7_mbox_loc
I0428 16:27:32.460127  2611 net.cpp:100] Creating Layer fc7_mbox_loc
I0428 16:27:32.460131  2611 net.cpp:434] fc7_mbox_loc <- fc7_relu7_0_split_1
I0428 16:27:32.460136  2611 net.cpp:408] fc7_mbox_loc -> fc7_mbox_loc
I0428 16:27:32.461575  2611 net.cpp:150] Setting up fc7_mbox_loc
I0428 16:27:32.461585  2611 net.cpp:157] Top shape: 8 24 19 19 (69312)
I0428 16:27:32.461588  2611 net.cpp:165] Memory required for data: 1991201984
I0428 16:27:32.461593  2611 layer_factory.hpp:77] Creating layer fc7_mbox_loc_perm
I0428 16:27:32.461616  2611 net.cpp:100] Creating Layer fc7_mbox_loc_perm
I0428 16:27:32.461621  2611 net.cpp:434] fc7_mbox_loc_perm <- fc7_mbox_loc
I0428 16:27:32.461627  2611 net.cpp:408] fc7_mbox_loc_perm -> fc7_mbox_loc_perm
I0428 16:27:32.461711  2611 net.cpp:150] Setting up fc7_mbox_loc_perm
I0428 16:27:32.461717  2611 net.cpp:157] Top shape: 8 19 19 24 (69312)
I0428 16:27:32.461720  2611 net.cpp:165] Memory required for data: 1991479232
I0428 16:27:32.461735  2611 layer_factory.hpp:77] Creating layer fc7_mbox_loc_flat
I0428 16:27:32.461740  2611 net.cpp:100] Creating Layer fc7_mbox_loc_flat
I0428 16:27:32.461742  2611 net.cpp:434] fc7_mbox_loc_flat <- fc7_mbox_loc_perm
I0428 16:27:32.461766  2611 net.cpp:408] fc7_mbox_loc_flat -> fc7_mbox_loc_flat
I0428 16:27:32.461781  2611 net.cpp:150] Setting up fc7_mbox_loc_flat
I0428 16:27:32.461786  2611 net.cpp:157] Top shape: 8 8664 (69312)
I0428 16:27:32.461787  2611 net.cpp:165] Memory required for data: 1991756480
I0428 16:27:32.461789  2611 layer_factory.hpp:77] Creating layer fc7_mbox_conf
I0428 16:27:32.461798  2611 net.cpp:100] Creating Layer fc7_mbox_conf
I0428 16:27:32.461802  2611 net.cpp:434] fc7_mbox_conf <- fc7_relu7_0_split_2
I0428 16:27:32.461807  2611 net.cpp:408] fc7_mbox_conf -> fc7_mbox_conf
I0428 16:27:32.468034  2611 net.cpp:150] Setting up fc7_mbox_conf
I0428 16:27:32.468052  2611 net.cpp:157] Top shape: 8 126 19 19 (363888)
I0428 16:27:32.468055  2611 net.cpp:165] Memory required for data: 1993212032
I0428 16:27:32.468061  2611 layer_factory.hpp:77] Creating layer fc7_mbox_conf_perm
I0428 16:27:32.468070  2611 net.cpp:100] Creating Layer fc7_mbox_conf_perm
I0428 16:27:32.468073  2611 net.cpp:434] fc7_mbox_conf_perm <- fc7_mbox_conf
I0428 16:27:32.468080  2611 net.cpp:408] fc7_mbox_conf_perm -> fc7_mbox_conf_perm
I0428 16:27:32.468156  2611 net.cpp:150] Setting up fc7_mbox_conf_perm
I0428 16:27:32.468163  2611 net.cpp:157] Top shape: 8 19 19 126 (363888)
I0428 16:27:32.468164  2611 net.cpp:165] Memory required for data: 1994667584
I0428 16:27:32.468168  2611 layer_factory.hpp:77] Creating layer fc7_mbox_conf_flat
I0428 16:27:32.468171  2611 net.cpp:100] Creating Layer fc7_mbox_conf_flat
I0428 16:27:32.468174  2611 net.cpp:434] fc7_mbox_conf_flat <- fc7_mbox_conf_perm
I0428 16:27:32.468179  2611 net.cpp:408] fc7_mbox_conf_flat -> fc7_mbox_conf_flat
I0428 16:27:32.468219  2611 net.cpp:150] Setting up fc7_mbox_conf_flat
I0428 16:27:32.468224  2611 net.cpp:157] Top shape: 8 45486 (363888)
I0428 16:27:32.468225  2611 net.cpp:165] Memory required for data: 1996123136
I0428 16:27:32.468227  2611 layer_factory.hpp:77] Creating layer fc7_mbox_priorbox
I0428 16:27:32.468233  2611 net.cpp:100] Creating Layer fc7_mbox_priorbox
I0428 16:27:32.468250  2611 net.cpp:434] fc7_mbox_priorbox <- fc7_relu7_0_split_3
I0428 16:27:32.468266  2611 net.cpp:434] fc7_mbox_priorbox <- data_data_0_split_2
I0428 16:27:32.468271  2611 net.cpp:408] fc7_mbox_priorbox -> fc7_mbox_priorbox
I0428 16:27:32.468297  2611 net.cpp:150] Setting up fc7_mbox_priorbox
I0428 16:27:32.468304  2611 net.cpp:157] Top shape: 1 2 8664 (17328)
I0428 16:27:32.468307  2611 net.cpp:165] Memory required for data: 1996192448
I0428 16:27:32.468308  2611 layer_factory.hpp:77] Creating layer conv6_2_mbox_loc
I0428 16:27:32.468317  2611 net.cpp:100] Creating Layer conv6_2_mbox_loc
I0428 16:27:32.468320  2611 net.cpp:434] conv6_2_mbox_loc <- conv6_2_conv6_2_relu_0_split_1
I0428 16:27:32.468327  2611 net.cpp:408] conv6_2_mbox_loc -> conv6_2_mbox_loc
I0428 16:27:32.469323  2611 net.cpp:150] Setting up conv6_2_mbox_loc
I0428 16:27:32.469333  2611 net.cpp:157] Top shape: 8 24 10 10 (19200)
I0428 16:27:32.469336  2611 net.cpp:165] Memory required for data: 1996269248
I0428 16:27:32.469359  2611 layer_factory.hpp:77] Creating layer conv6_2_mbox_loc_perm
I0428 16:27:32.469363  2611 net.cpp:100] Creating Layer conv6_2_mbox_loc_perm
I0428 16:27:32.469367  2611 net.cpp:434] conv6_2_mbox_loc_perm <- conv6_2_mbox_loc
I0428 16:27:32.469373  2611 net.cpp:408] conv6_2_mbox_loc_perm -> conv6_2_mbox_loc_perm
I0428 16:27:32.469472  2611 net.cpp:150] Setting up conv6_2_mbox_loc_perm
I0428 16:27:32.469478  2611 net.cpp:157] Top shape: 8 10 10 24 (19200)
I0428 16:27:32.469481  2611 net.cpp:165] Memory required for data: 1996346048
I0428 16:27:32.469485  2611 layer_factory.hpp:77] Creating layer conv6_2_mbox_loc_flat
I0428 16:27:32.469487  2611 net.cpp:100] Creating Layer conv6_2_mbox_loc_flat
I0428 16:27:32.469508  2611 net.cpp:434] conv6_2_mbox_loc_flat <- conv6_2_mbox_loc_perm
I0428 16:27:32.469514  2611 net.cpp:408] conv6_2_mbox_loc_flat -> conv6_2_mbox_loc_flat
I0428 16:27:32.469530  2611 net.cpp:150] Setting up conv6_2_mbox_loc_flat
I0428 16:27:32.469534  2611 net.cpp:157] Top shape: 8 2400 (19200)
I0428 16:27:32.469537  2611 net.cpp:165] Memory required for data: 1996422848
I0428 16:27:32.469539  2611 layer_factory.hpp:77] Creating layer conv6_2_mbox_conf
I0428 16:27:32.469548  2611 net.cpp:100] Creating Layer conv6_2_mbox_conf
I0428 16:27:32.469552  2611 net.cpp:434] conv6_2_mbox_conf <- conv6_2_conv6_2_relu_0_split_2
I0428 16:27:32.469570  2611 net.cpp:408] conv6_2_mbox_conf -> conv6_2_mbox_conf
I0428 16:27:32.473189  2611 net.cpp:150] Setting up conv6_2_mbox_conf
I0428 16:27:32.473206  2611 net.cpp:157] Top shape: 8 126 10 10 (100800)
I0428 16:27:32.473208  2611 net.cpp:165] Memory required for data: 1996826048
I0428 16:27:32.473232  2611 layer_factory.hpp:77] Creating layer conv6_2_mbox_conf_perm
I0428 16:27:32.473240  2611 net.cpp:100] Creating Layer conv6_2_mbox_conf_perm
I0428 16:27:32.473244  2611 net.cpp:434] conv6_2_mbox_conf_perm <- conv6_2_mbox_conf
I0428 16:27:32.473249  2611 net.cpp:408] conv6_2_mbox_conf_perm -> conv6_2_mbox_conf_perm
I0428 16:27:32.473345  2611 net.cpp:150] Setting up conv6_2_mbox_conf_perm
I0428 16:27:32.473366  2611 net.cpp:157] Top shape: 8 10 10 126 (100800)
I0428 16:27:32.473367  2611 net.cpp:165] Memory required for data: 1997229248
I0428 16:27:32.473371  2611 layer_factory.hpp:77] Creating layer conv6_2_mbox_conf_flat
I0428 16:27:32.473392  2611 net.cpp:100] Creating Layer conv6_2_mbox_conf_flat
I0428 16:27:32.473395  2611 net.cpp:434] conv6_2_mbox_conf_flat <- conv6_2_mbox_conf_perm
I0428 16:27:32.473402  2611 net.cpp:408] conv6_2_mbox_conf_flat -> conv6_2_mbox_conf_flat
I0428 16:27:32.473434  2611 net.cpp:150] Setting up conv6_2_mbox_conf_flat
I0428 16:27:32.473438  2611 net.cpp:157] Top shape: 8 12600 (100800)
I0428 16:27:32.473441  2611 net.cpp:165] Memory required for data: 1997632448
I0428 16:27:32.473443  2611 layer_factory.hpp:77] Creating layer conv6_2_mbox_priorbox
I0428 16:27:32.473448  2611 net.cpp:100] Creating Layer conv6_2_mbox_priorbox
I0428 16:27:32.473451  2611 net.cpp:434] conv6_2_mbox_priorbox <- conv6_2_conv6_2_relu_0_split_3
I0428 16:27:32.473455  2611 net.cpp:434] conv6_2_mbox_priorbox <- data_data_0_split_3
I0428 16:27:32.473471  2611 net.cpp:408] conv6_2_mbox_priorbox -> conv6_2_mbox_priorbox
I0428 16:27:32.473495  2611 net.cpp:150] Setting up conv6_2_mbox_priorbox
I0428 16:27:32.473500  2611 net.cpp:157] Top shape: 1 2 2400 (4800)
I0428 16:27:32.473502  2611 net.cpp:165] Memory required for data: 1997651648
I0428 16:27:32.473505  2611 layer_factory.hpp:77] Creating layer conv7_2_mbox_loc
I0428 16:27:32.473512  2611 net.cpp:100] Creating Layer conv7_2_mbox_loc
I0428 16:27:32.473515  2611 net.cpp:434] conv7_2_mbox_loc <- conv7_2_conv7_2_relu_0_split_1
I0428 16:27:32.473522  2611 net.cpp:408] conv7_2_mbox_loc -> conv7_2_mbox_loc
I0428 16:27:32.474293  2611 net.cpp:150] Setting up conv7_2_mbox_loc
I0428 16:27:32.474303  2611 net.cpp:157] Top shape: 8 24 5 5 (4800)
I0428 16:27:32.474304  2611 net.cpp:165] Memory required for data: 1997670848
I0428 16:27:32.474310  2611 layer_factory.hpp:77] Creating layer conv7_2_mbox_loc_perm
I0428 16:27:32.474334  2611 net.cpp:100] Creating Layer conv7_2_mbox_loc_perm
I0428 16:27:32.474336  2611 net.cpp:434] conv7_2_mbox_loc_perm <- conv7_2_mbox_loc
I0428 16:27:32.474341  2611 net.cpp:408] conv7_2_mbox_loc_perm -> conv7_2_mbox_loc_perm
I0428 16:27:32.474496  2611 net.cpp:150] Setting up conv7_2_mbox_loc_perm
I0428 16:27:32.474501  2611 net.cpp:157] Top shape: 8 5 5 24 (4800)
I0428 16:27:32.474503  2611 net.cpp:165] Memory required for data: 1997690048
I0428 16:27:32.474505  2611 layer_factory.hpp:77] Creating layer conv7_2_mbox_loc_flat
I0428 16:27:32.474529  2611 net.cpp:100] Creating Layer conv7_2_mbox_loc_flat
I0428 16:27:32.474532  2611 net.cpp:434] conv7_2_mbox_loc_flat <- conv7_2_mbox_loc_perm
I0428 16:27:32.474537  2611 net.cpp:408] conv7_2_mbox_loc_flat -> conv7_2_mbox_loc_flat
I0428 16:27:32.474572  2611 net.cpp:150] Setting up conv7_2_mbox_loc_flat
I0428 16:27:32.474576  2611 net.cpp:157] Top shape: 8 600 (4800)
I0428 16:27:32.474578  2611 net.cpp:165] Memory required for data: 1997709248
I0428 16:27:32.474594  2611 layer_factory.hpp:77] Creating layer conv7_2_mbox_conf
I0428 16:27:32.474603  2611 net.cpp:100] Creating Layer conv7_2_mbox_conf
I0428 16:27:32.474606  2611 net.cpp:434] conv7_2_mbox_conf <- conv7_2_conv7_2_relu_0_split_2
I0428 16:27:32.474611  2611 net.cpp:408] conv7_2_mbox_conf -> conv7_2_mbox_conf
I0428 16:27:32.476398  2611 net.cpp:150] Setting up conv7_2_mbox_conf
I0428 16:27:32.476408  2611 net.cpp:157] Top shape: 8 126 5 5 (25200)
I0428 16:27:32.476410  2611 net.cpp:165] Memory required for data: 1997810048
I0428 16:27:32.476434  2611 layer_factory.hpp:77] Creating layer conv7_2_mbox_conf_perm
I0428 16:27:32.476439  2611 net.cpp:100] Creating Layer conv7_2_mbox_conf_perm
I0428 16:27:32.476455  2611 net.cpp:434] conv7_2_mbox_conf_perm <- conv7_2_mbox_conf
I0428 16:27:32.476461  2611 net.cpp:408] conv7_2_mbox_conf_perm -> conv7_2_mbox_conf_perm
I0428 16:27:32.476574  2611 net.cpp:150] Setting up conv7_2_mbox_conf_perm
I0428 16:27:32.476580  2611 net.cpp:157] Top shape: 8 5 5 126 (25200)
I0428 16:27:32.476583  2611 net.cpp:165] Memory required for data: 1997910848
I0428 16:27:32.476585  2611 layer_factory.hpp:77] Creating layer conv7_2_mbox_conf_flat
I0428 16:27:32.476603  2611 net.cpp:100] Creating Layer conv7_2_mbox_conf_flat
I0428 16:27:32.476604  2611 net.cpp:434] conv7_2_mbox_conf_flat <- conv7_2_mbox_conf_perm
I0428 16:27:32.476609  2611 net.cpp:408] conv7_2_mbox_conf_flat -> conv7_2_mbox_conf_flat
I0428 16:27:32.476645  2611 net.cpp:150] Setting up conv7_2_mbox_conf_flat
I0428 16:27:32.476649  2611 net.cpp:157] Top shape: 8 3150 (25200)
I0428 16:27:32.476670  2611 net.cpp:165] Memory required for data: 1998011648
I0428 16:27:32.476672  2611 layer_factory.hpp:77] Creating layer conv7_2_mbox_priorbox
I0428 16:27:32.476691  2611 net.cpp:100] Creating Layer conv7_2_mbox_priorbox
I0428 16:27:32.476694  2611 net.cpp:434] conv7_2_mbox_priorbox <- conv7_2_conv7_2_relu_0_split_3
I0428 16:27:32.476697  2611 net.cpp:434] conv7_2_mbox_priorbox <- data_data_0_split_4
I0428 16:27:32.476703  2611 net.cpp:408] conv7_2_mbox_priorbox -> conv7_2_mbox_priorbox
I0428 16:27:32.476752  2611 net.cpp:150] Setting up conv7_2_mbox_priorbox
I0428 16:27:32.476758  2611 net.cpp:157] Top shape: 1 2 600 (1200)
I0428 16:27:32.476759  2611 net.cpp:165] Memory required for data: 1998016448
I0428 16:27:32.476761  2611 layer_factory.hpp:77] Creating layer conv8_2_mbox_loc
I0428 16:27:32.476769  2611 net.cpp:100] Creating Layer conv8_2_mbox_loc
I0428 16:27:32.476773  2611 net.cpp:434] conv8_2_mbox_loc <- conv8_2_conv8_2_relu_0_split_1
I0428 16:27:32.476778  2611 net.cpp:408] conv8_2_mbox_loc -> conv8_2_mbox_loc
I0428 16:27:32.477152  2611 net.cpp:150] Setting up conv8_2_mbox_loc
I0428 16:27:32.477159  2611 net.cpp:157] Top shape: 8 16 3 3 (1152)
I0428 16:27:32.477160  2611 net.cpp:165] Memory required for data: 1998021056
I0428 16:27:32.477190  2611 layer_factory.hpp:77] Creating layer conv8_2_mbox_loc_perm
I0428 16:27:32.477196  2611 net.cpp:100] Creating Layer conv8_2_mbox_loc_perm
I0428 16:27:32.477200  2611 net.cpp:434] conv8_2_mbox_loc_perm <- conv8_2_mbox_loc
I0428 16:27:32.477203  2611 net.cpp:408] conv8_2_mbox_loc_perm -> conv8_2_mbox_loc_perm
I0428 16:27:32.477356  2611 net.cpp:150] Setting up conv8_2_mbox_loc_perm
I0428 16:27:32.477361  2611 net.cpp:157] Top shape: 8 3 3 16 (1152)
I0428 16:27:32.477365  2611 net.cpp:165] Memory required for data: 1998025664
I0428 16:27:32.477366  2611 layer_factory.hpp:77] Creating layer conv8_2_mbox_loc_flat
I0428 16:27:32.477390  2611 net.cpp:100] Creating Layer conv8_2_mbox_loc_flat
I0428 16:27:32.477392  2611 net.cpp:434] conv8_2_mbox_loc_flat <- conv8_2_mbox_loc_perm
I0428 16:27:32.477411  2611 net.cpp:408] conv8_2_mbox_loc_flat -> conv8_2_mbox_loc_flat
I0428 16:27:32.477447  2611 net.cpp:150] Setting up conv8_2_mbox_loc_flat
I0428 16:27:32.477450  2611 net.cpp:157] Top shape: 8 144 (1152)
I0428 16:27:32.477452  2611 net.cpp:165] Memory required for data: 1998030272
I0428 16:27:32.477455  2611 layer_factory.hpp:77] Creating layer conv8_2_mbox_conf
I0428 16:27:32.477476  2611 net.cpp:100] Creating Layer conv8_2_mbox_conf
I0428 16:27:32.477479  2611 net.cpp:434] conv8_2_mbox_conf <- conv8_2_conv8_2_relu_0_split_2
I0428 16:27:32.477484  2611 net.cpp:408] conv8_2_mbox_conf -> conv8_2_mbox_conf
I0428 16:27:32.478883  2611 net.cpp:150] Setting up conv8_2_mbox_conf
I0428 16:27:32.478898  2611 net.cpp:157] Top shape: 8 84 3 3 (6048)
I0428 16:27:32.478899  2611 net.cpp:165] Memory required for data: 1998054464
I0428 16:27:32.478924  2611 layer_factory.hpp:77] Creating layer conv8_2_mbox_conf_perm
I0428 16:27:32.478930  2611 net.cpp:100] Creating Layer conv8_2_mbox_conf_perm
I0428 16:27:32.478935  2611 net.cpp:434] conv8_2_mbox_conf_perm <- conv8_2_mbox_conf
I0428 16:27:32.478940  2611 net.cpp:408] conv8_2_mbox_conf_perm -> conv8_2_mbox_conf_perm
I0428 16:27:32.479068  2611 net.cpp:150] Setting up conv8_2_mbox_conf_perm
I0428 16:27:32.479074  2611 net.cpp:157] Top shape: 8 3 3 84 (6048)
I0428 16:27:32.479077  2611 net.cpp:165] Memory required for data: 1998078656
I0428 16:27:32.479079  2611 layer_factory.hpp:77] Creating layer conv8_2_mbox_conf_flat
I0428 16:27:32.479084  2611 net.cpp:100] Creating Layer conv8_2_mbox_conf_flat
I0428 16:27:32.479087  2611 net.cpp:434] conv8_2_mbox_conf_flat <- conv8_2_mbox_conf_perm
I0428 16:27:32.479091  2611 net.cpp:408] conv8_2_mbox_conf_flat -> conv8_2_mbox_conf_flat
I0428 16:27:32.479135  2611 net.cpp:150] Setting up conv8_2_mbox_conf_flat
I0428 16:27:32.479157  2611 net.cpp:157] Top shape: 8 756 (6048)
I0428 16:27:32.479161  2611 net.cpp:165] Memory required for data: 1998102848
I0428 16:27:32.479163  2611 layer_factory.hpp:77] Creating layer conv8_2_mbox_priorbox
I0428 16:27:32.479169  2611 net.cpp:100] Creating Layer conv8_2_mbox_priorbox
I0428 16:27:32.479172  2611 net.cpp:434] conv8_2_mbox_priorbox <- conv8_2_conv8_2_relu_0_split_3
I0428 16:27:32.479190  2611 net.cpp:434] conv8_2_mbox_priorbox <- data_data_0_split_5
I0428 16:27:32.479194  2611 net.cpp:408] conv8_2_mbox_priorbox -> conv8_2_mbox_priorbox
I0428 16:27:32.479218  2611 net.cpp:150] Setting up conv8_2_mbox_priorbox
I0428 16:27:32.479221  2611 net.cpp:157] Top shape: 1 2 144 (288)
I0428 16:27:32.479233  2611 net.cpp:165] Memory required for data: 1998104000
I0428 16:27:32.479236  2611 layer_factory.hpp:77] Creating layer conv9_2_mbox_loc
I0428 16:27:32.479244  2611 net.cpp:100] Creating Layer conv9_2_mbox_loc
I0428 16:27:32.479248  2611 net.cpp:434] conv9_2_mbox_loc <- conv9_2_conv9_2_relu_0_split_0
I0428 16:27:32.479254  2611 net.cpp:408] conv9_2_mbox_loc -> conv9_2_mbox_loc
I0428 16:27:32.479667  2611 net.cpp:150] Setting up conv9_2_mbox_loc
I0428 16:27:32.479673  2611 net.cpp:157] Top shape: 8 16 1 1 (128)
I0428 16:27:32.479676  2611 net.cpp:165] Memory required for data: 1998104512
I0428 16:27:32.479681  2611 layer_factory.hpp:77] Creating layer conv9_2_mbox_loc_perm
I0428 16:27:32.479703  2611 net.cpp:100] Creating Layer conv9_2_mbox_loc_perm
I0428 16:27:32.479707  2611 net.cpp:434] conv9_2_mbox_loc_perm <- conv9_2_mbox_loc
I0428 16:27:32.479710  2611 net.cpp:408] conv9_2_mbox_loc_perm -> conv9_2_mbox_loc_perm
I0428 16:27:32.479835  2611 net.cpp:150] Setting up conv9_2_mbox_loc_perm
I0428 16:27:32.479840  2611 net.cpp:157] Top shape: 8 1 1 16 (128)
I0428 16:27:32.479842  2611 net.cpp:165] Memory required for data: 1998105024
I0428 16:27:32.479845  2611 layer_factory.hpp:77] Creating layer conv9_2_mbox_loc_flat
I0428 16:27:32.479861  2611 net.cpp:100] Creating Layer conv9_2_mbox_loc_flat
I0428 16:27:32.479864  2611 net.cpp:434] conv9_2_mbox_loc_flat <- conv9_2_mbox_loc_perm
I0428 16:27:32.479889  2611 net.cpp:408] conv9_2_mbox_loc_flat -> conv9_2_mbox_loc_flat
I0428 16:27:32.479907  2611 net.cpp:150] Setting up conv9_2_mbox_loc_flat
I0428 16:27:32.479928  2611 net.cpp:157] Top shape: 8 16 (128)
I0428 16:27:32.479930  2611 net.cpp:165] Memory required for data: 1998105536
I0428 16:27:32.479933  2611 layer_factory.hpp:77] Creating layer conv9_2_mbox_conf
I0428 16:27:32.479954  2611 net.cpp:100] Creating Layer conv9_2_mbox_conf
I0428 16:27:32.479959  2611 net.cpp:434] conv9_2_mbox_conf <- conv9_2_conv9_2_relu_0_split_1
I0428 16:27:32.479964  2611 net.cpp:408] conv9_2_mbox_conf -> conv9_2_mbox_conf
I0428 16:27:32.481356  2611 net.cpp:150] Setting up conv9_2_mbox_conf
I0428 16:27:32.481369  2611 net.cpp:157] Top shape: 8 84 1 1 (672)
I0428 16:27:32.481372  2611 net.cpp:165] Memory required for data: 1998108224
I0428 16:27:32.481396  2611 layer_factory.hpp:77] Creating layer conv9_2_mbox_conf_perm
I0428 16:27:32.481402  2611 net.cpp:100] Creating Layer conv9_2_mbox_conf_perm
I0428 16:27:32.481406  2611 net.cpp:434] conv9_2_mbox_conf_perm <- conv9_2_mbox_conf
I0428 16:27:32.481411  2611 net.cpp:408] conv9_2_mbox_conf_perm -> conv9_2_mbox_conf_perm
I0428 16:27:32.481535  2611 net.cpp:150] Setting up conv9_2_mbox_conf_perm
I0428 16:27:32.481541  2611 net.cpp:157] Top shape: 8 1 1 84 (672)
I0428 16:27:32.481544  2611 net.cpp:165] Memory required for data: 1998110912
I0428 16:27:32.481546  2611 layer_factory.hpp:77] Creating layer conv9_2_mbox_conf_flat
I0428 16:27:32.481551  2611 net.cpp:100] Creating Layer conv9_2_mbox_conf_flat
I0428 16:27:32.481554  2611 net.cpp:434] conv9_2_mbox_conf_flat <- conv9_2_mbox_conf_perm
I0428 16:27:32.481559  2611 net.cpp:408] conv9_2_mbox_conf_flat -> conv9_2_mbox_conf_flat
I0428 16:27:32.481592  2611 net.cpp:150] Setting up conv9_2_mbox_conf_flat
I0428 16:27:32.481596  2611 net.cpp:157] Top shape: 8 84 (672)
I0428 16:27:32.481611  2611 net.cpp:165] Memory required for data: 1998113600
I0428 16:27:32.481613  2611 layer_factory.hpp:77] Creating layer conv9_2_mbox_priorbox
I0428 16:27:32.481621  2611 net.cpp:100] Creating Layer conv9_2_mbox_priorbox
I0428 16:27:32.481642  2611 net.cpp:434] conv9_2_mbox_priorbox <- conv9_2_conv9_2_relu_0_split_2
I0428 16:27:32.481645  2611 net.cpp:434] conv9_2_mbox_priorbox <- data_data_0_split_6
I0428 16:27:32.481649  2611 net.cpp:408] conv9_2_mbox_priorbox -> conv9_2_mbox_priorbox
I0428 16:27:32.481672  2611 net.cpp:150] Setting up conv9_2_mbox_priorbox
I0428 16:27:32.481676  2611 net.cpp:157] Top shape: 1 2 16 (32)
I0428 16:27:32.481678  2611 net.cpp:165] Memory required for data: 1998113728
I0428 16:27:32.481706  2611 layer_factory.hpp:77] Creating layer mbox_loc
I0428 16:27:32.481732  2611 net.cpp:100] Creating Layer mbox_loc
I0428 16:27:32.481736  2611 net.cpp:434] mbox_loc <- conv4_3_norm_mbox_loc_flat
I0428 16:27:32.481740  2611 net.cpp:434] mbox_loc <- fc7_mbox_loc_flat
I0428 16:27:32.481745  2611 net.cpp:434] mbox_loc <- conv6_2_mbox_loc_flat
I0428 16:27:32.481748  2611 net.cpp:434] mbox_loc <- conv7_2_mbox_loc_flat
I0428 16:27:32.481751  2611 net.cpp:434] mbox_loc <- conv8_2_mbox_loc_flat
I0428 16:27:32.481755  2611 net.cpp:434] mbox_loc <- conv9_2_mbox_loc_flat
I0428 16:27:32.481758  2611 net.cpp:408] mbox_loc -> mbox_loc
I0428 16:27:32.481799  2611 net.cpp:150] Setting up mbox_loc
I0428 16:27:32.481804  2611 net.cpp:157] Top shape: 8 34928 (279424)
I0428 16:27:32.481806  2611 net.cpp:165] Memory required for data: 1999231424
I0428 16:27:32.481808  2611 layer_factory.hpp:77] Creating layer mbox_conf
I0428 16:27:32.481813  2611 net.cpp:100] Creating Layer mbox_conf
I0428 16:27:32.481817  2611 net.cpp:434] mbox_conf <- conv4_3_norm_mbox_conf_flat
I0428 16:27:32.481819  2611 net.cpp:434] mbox_conf <- fc7_mbox_conf_flat
I0428 16:27:32.481822  2611 net.cpp:434] mbox_conf <- conv6_2_mbox_conf_flat
I0428 16:27:32.481827  2611 net.cpp:434] mbox_conf <- conv7_2_mbox_conf_flat
I0428 16:27:32.481829  2611 net.cpp:434] mbox_conf <- conv8_2_mbox_conf_flat
I0428 16:27:32.481832  2611 net.cpp:434] mbox_conf <- conv9_2_mbox_conf_flat
I0428 16:27:32.481835  2611 net.cpp:408] mbox_conf -> mbox_conf
I0428 16:27:32.481889  2611 net.cpp:150] Setting up mbox_conf
I0428 16:27:32.481894  2611 net.cpp:157] Top shape: 8 183372 (1466976)
I0428 16:27:32.481895  2611 net.cpp:165] Memory required for data: 2005099328
I0428 16:27:32.481899  2611 layer_factory.hpp:77] Creating layer mbox_priorbox
I0428 16:27:32.481917  2611 net.cpp:100] Creating Layer mbox_priorbox
I0428 16:27:32.481920  2611 net.cpp:434] mbox_priorbox <- conv4_3_norm_mbox_priorbox
I0428 16:27:32.481925  2611 net.cpp:434] mbox_priorbox <- fc7_mbox_priorbox
I0428 16:27:32.481927  2611 net.cpp:434] mbox_priorbox <- conv6_2_mbox_priorbox
I0428 16:27:32.481930  2611 net.cpp:434] mbox_priorbox <- conv7_2_mbox_priorbox
I0428 16:27:32.481933  2611 net.cpp:434] mbox_priorbox <- conv8_2_mbox_priorbox
I0428 16:27:32.481935  2611 net.cpp:434] mbox_priorbox <- conv9_2_mbox_priorbox
I0428 16:27:32.481940  2611 net.cpp:408] mbox_priorbox -> mbox_priorbox
I0428 16:27:32.481956  2611 net.cpp:150] Setting up mbox_priorbox
I0428 16:27:32.481961  2611 net.cpp:157] Top shape: 1 2 34928 (69856)
I0428 16:27:32.481963  2611 net.cpp:165] Memory required for data: 2005378752
I0428 16:27:32.481966  2611 layer_factory.hpp:77] Creating layer mbox_loss
I0428 16:27:32.481974  2611 net.cpp:100] Creating Layer mbox_loss
I0428 16:27:32.481978  2611 net.cpp:434] mbox_loss <- mbox_loc
I0428 16:27:32.481982  2611 net.cpp:434] mbox_loss <- mbox_conf
I0428 16:27:32.481986  2611 net.cpp:434] mbox_loss <- mbox_priorbox
…
state {
  phase: TEST
}
layer {
  name: "data"
  type: "AnnotatedData"
  top: "data"
  top: "label"
  include {
    phase: TEST
  }
  transform_param {
    mean_value: 104
    mean_value: 117
    mean_value: 123
    resize_param {
      prob: 1
      resize_mode: WARP
      height: 300
      width: 300
      interp_mode: LINEAR
    }
  }
  data_param {
    source: "examples/VOC0712/VOC0712_test_lmdb"
    batch_size: 8
    backend: LMDB
  }
  annotated_data_param {
    batch_sampler {
    }
    label_map_file: "data/VOC0712/labelmap_voc.prototxt"
  }
}
layer {
  name: "conv1_1"
  type: "Convolution"
  bottom: "data"
  top: "conv1_1"
  param {
    lr_mult: 1
    decay_mult: 1
  }
  param {
    lr_mult: 2
    decay_mult: 0
  }
  convolution_param {
    num_output: 64
    pad: 1
    kernel_size: 3
    weight_filler {
      type: "xavier"
    }
    bias_filler {
      type: "constant"
      value: 0
    }
  }
}
layer {
  name: "relu1_1"
  type: "ReLU"
  bottom: "conv1_1"
  top: "conv1_1"
}
layer {
  name: "conv1_2"
  type: "Convolution"
  bottom: "conv1_1"
  top: "conv1_2"
  param {
    lr_mult: 1
    decay_mult: 1
  }
  param {
    lr_mult: 2
    decay_mult: 0
  }
  convolution_param {
    num_output: 64
    pad: 1
    kernel_size: 3
    weight_filler {
      type: "xavier"
    }
    bias_filler {
      type: "constant"
      value: 0
    }
  }
}
layer {
  name: "relu1_2"
  type: "ReLU"
  bottom: "conv1_2"
  top: "conv1_2"
}
layer {
  name: "pool1"
  type: "Pooling"
  bottom: "conv1_2"
  top: "pool1"
  pooling_param {
    pool: MAX
    kernel_size: 2
    stride: 2
  }
}
layer {
  name: "conv2_1"
  type: "Convolution"
  bottom: "pool1"
  top: "conv2_1"
  param {
    lr_mult: 1
    decay_mult: 1
  }
  param {
    lr_mult: 2
    decay_mult: 0
  }
  convolution_param {
    num_output: 128
    pad: 1
    kernel_size: 3
    weight_filler {
      type: "xavier"
    }
    bias_filler {
      type: "constant"
      value: 0
    }
  }
}
layer {
  name: "relu2_1"
  type: "ReLU"
  bottom: "conv2_1"
  top: "conv2_1"
}
layer {
  name: "conv2_2"
  type: "Convolution"
  bottom: "conv2_1"
  top: "conv2_2"
  param {
    lr_mult: 1
    decay_mult: 1
  }
  param {
    lr_mult: 2
    decay_mult: 0
  }
  convolution_param {
    num_output: 128
    pad: 1
    kernel_size: 3
    weight_filler {
      type: "xavier"
    }
    bias_filler {
      type: "constant"
      value: 0
    }
  }
}
layer {
  name: "relu2_2"
  type: "ReLU"
  bottom: "conv2_2"
  top: "conv2_2"
}
layer {
  name: "pool2"
  type: "Pooling"
  bottom: "conv2_2"
  top: "pool2"
  pooling_param {
    pool: MAX
    kernel_size: 2
    stride: 2
  }
}
layer {
  name: "conv3_1"
  type: "Convolution"
  bottom: "pool2"
  top: "conv3_1"
  param {
    lr_mult: 1
    decay_mult: 1
  }
  param {
    lr_mult: 2
    decay_mult: 0
  }
  convolution_param {
    num_output: 256
    pad: 1
    kernel_size: 3
    weight_filler {
      type: "xavier"
    }
    bias_filler {
      type: "constant"
      value: 0
    }
  }
}
layer {
  name: "relu3_1"
  type: "ReLU"
  bottom: "conv3_1"
  top: "conv3_1"
}
layer {
  name: "conv3_2"
  type: "Convolution"
  bottom: "conv3_1"
  top: "conv3_2"
  param {
    lr_mult: 1
    decay_mult: 1
  }
  param {
    lr_mult: 2
    decay_mult: 0
  }
  convolution_param {
    num_output: 256
    pad: 1
    kernel_size: 3
    weight_filler {
      type: "xavier"
    }
    bias_filler {
      type: "constant"
      value: 0
    }
  }
}
layer {
  name: "relu3_2"
  type: "ReLU"
  bottom: "conv3_2"
  top: "conv3_2"
}
layer {
  name: "conv3_3"
  type: "Convolution"
  bottom: "conv3_2"
  top: "conv3_3"
  param {
    lr_mult: 1
    decay_mult: 1
  }
  param {
    lr_mult: 2
    decay_mult: 0
  }
  convolution_param {
    num_output: 256
    pad: 1
    kernel_size: 3
    weight_filler {
      type: "xavier"
    }
    bias_filler {
      type: "constant"
      value: 0
    }
  }
}
layer {
  name: "relu3_3"
  type: "ReLU"
  bottom: "conv3_3"
  top: "conv3_3"
}
layer {
  name: "pool3"
  type: "Pooling"
  bottom: "conv3_3"
  top: "pool3"
  pooling_param {
    pool: MAX
    kernel_size: 2
    stride: 2
  }
}
layer {
  name: "conv4_1"
  type: "Convolution"
  bottom: "pool3"
  top: "conv4_1"
  param {
    lr_mult: 1
    decay_mult: 1
  }
  param {
    lr_mult: 2
    decay_mult: 0
  }
  convolution_param {
    num_output: 512
    pad: 1
    kernel_size: 3
    weight_filler {
      type: "xavier"
    }
    bias_filler {
      type: "constant"
      value: 0
    }
  }
}
layer {
  name: "relu4_1"
  type: "ReLU"
  bottom: "conv4_1"
  top: "conv4_1"
}
layer {
  name: "conv4_2"
  type: "Convolution"
  bottom: "conv4_1"
  top: "conv4_2"
  param {
    lr_mult: 1
    decay_mult: 1
  }
  param {
    lr_mult: 2
    decay_mult: 0
  }
  convolution_param {
    num_output: 512
    pad: 1
    kernel_size: 3
    weight_filler {
      type: "xavier"
    }
    bias_filler {
      type: "constant"
      value: 0
    }
  }
}
layer {
  name: "relu4_2"
  type: "ReLU"
  bottom: "conv4_2"
  top: "conv4_2"
}
layer {
  name: "conv4_3"
  type: "Convolution"
  bottom: "conv4_2"
  top: "conv4_3"
  param {
    lr_mult: 1
    decay_mult: 1
  }
  param {
    lr_mult: 2
    decay_mult: 0
  }
  convolution_param {
    num_output: 512
    pad: 1
    kernel_size: 3
    weight_filler {
      type: "xavier"
    }
    bias_filler {
      type: "constant"
      value: 0
    }
  }
}
layer {
  name: "relu4_3"
  type: "ReLU"
  bottom: "conv4_3"
  top: "conv4_3"
}
layer {
  name: "pool4"
  type: "Pooling"
  bottom: "conv4_3"
  top: "pool4"
  pooling_param {
    pool: MAX
    kernel_size: 2
    stride: 2
  }
}
layer {
  name: "conv5_1"
  type: "Convolution"
  bottom: "pool4"
  top: "conv5_1"
  param {
    lr_mult: 1
    decay_mult: 1
  }
  param {
    lr_mult: 2
    decay_mult: 0
  }
  convolution_param {
    num_output: 512
    pad: 1
    kernel_size: 3
    weight_filler {
      type: "xavier"
    }
    bias_filler {
      type: "constant"
      value: 0
    }
    dilation: 1
  }
}
layer {
  name: "relu5_1"
  type: "ReLU"
  bottom: "conv5_1"
  top: "conv5_1"
}
layer {
  name: "conv5_2"
  type: "Convolution"
  bottom: "conv5_1"
  top: "conv5_2"
  param {
    lr_mult: 1
    decay_mult: 1
  }
  param {
    lr_mult: 2
    decay_mult: 0
  }
  convolution_param {
    num_output: 512
    pad: 1
    kernel_size: 3
    weight_filler {
      type: "xavier"
    }
    bias_filler {
      type: "constant"
      value: 0
    }
    dilation: 1
  }
}
layer {
  name: "relu5_2"
  type: "ReLU"
  bottom: "conv5_2"
  top: "conv5_2"
}
layer {
  name: "conv5_3"
  type: "Convolution"
  bottom: "conv5_2"
  top: "conv5_3"
  param {
    lr_mult: 1
    decay_mult: 1
  }
  param {
    lr_mult: 2
    decay_mult: 0
  }
  convolution_param {
    num_output: 512
    pad: 1
    kernel_size: 3
    weight_filler {
      type: "xavier"
    }
    bias_filler {
      type: "constant"
      value: 0
    }
    dilation: 1
  }
}
layer {
  name: "relu5_3"
  type: "ReLU"
  bottom: "conv5_3"
  top: "conv5_3"
}
layer {
  name: "pool5"
  type: "Pooling"
  bottom: "conv5_3"
  top: "pool5"
  pooling_param {
    pool: MAX
    kernel_size: 3
    stride: 1
    pad: 1
  }
}
layer {
  name: "fc6"
  type: "Convolution"
  bottom: "pool5"
  top: "fc6"
  param {
    lr_mult: 1
    decay_mult: 1
  }
  param {
    lr_mult: 2
    decay_mult: 0
  }
  convolution_param {
    num_output: 1024
    pad: 6
    kernel_size: 3
    weight_filler {
      type: "xavier"
    }
    bias_filler {
      type: "constant"
      value: 0
    }
    dilation: 6
  }
}
layer {
  name: "relu6"
  type: "ReLU"
  bottom: "fc6"
  top: "fc6"
}
layer {
  name: "fc7"
  type: "Convolution"
  bottom: "fc6"
  top: "fc7"
  param {
    lr_mult: 1
    decay_mult: 1
  }
  param {
    lr_mult: 2
    decay_mult: 0
  }
  convolution_param {
    num_output: 1024
    kernel_size: 1
    weight_filler {
      type: "xavier"
    }
    bias_filler {
      type: "constant"
      value: 0
    }
  }
}
layer {
  name: "relu7"
  type: "ReLU"
  bottom: "fc7"
  top: "fc7"
}
layer {
  name: "conv6_1"
  type: "Convolution"
  bottom: "fc7"
  top: "conv6_1"
  param {
    lr_mult: 1
    decay_mult: 1
  }
  param {
    lr_mult: 2
    decay_mult: 0
  }
  convolution_param {
    num_output: 256
    pad: 0
    kernel_size: 1
    stride: 1
    weight_filler {
      type: "xavier"
    }
    bias_filler {
      type: "constant"
      value: 0
    }
  }
}
layer {
  name: "conv6_1_relu"
  type: "ReLU"
  bottom: "conv6_1"
  top: "conv6_1"
}
layer {
  name: "conv6_2"
  type: "Convolution"
  bottom: "conv6_1"
  top: "conv6_2"
  param {
    lr_mult: 1
    decay_mult: 1
  }
  param {
    lr_mult: 2
    decay_mult: 0
  }
  convolution_param {
    num_output: 512
    pad: 1
    kernel_size: 3
    stride: 2
    weight_filler {
      type: "xavier"
    }
    bias_filler {
      type: "constant"
      value: 0
    }
  }
}
layer {
  name: "conv6_2_relu"
  type: "ReLU"
  bottom: "conv6_2"
  top: "conv6_2"
}
layer {
  name: "conv7_1"
  type: "Convolution"
  bottom: "conv6_2"
  top: "conv7_1"
  param {
    lr_mult: 1
    decay_mult: 1
  }
  param {
    lr_mult: 2
    decay_mult: 0
  }
  convolution_param {
    num_output: 128
    pad: 0
    kernel_size: 1
    stride: 1
    weight_filler {
      type: "xavier"
    }
    bias_filler {
      type: "constant"
      value: 0
    }
  }
}
layer {
  name: "conv7_1_relu"
  type: "ReLU"
  bottom: "conv7_1"
  top: "conv7_1"
}
layer {
  name: "conv7_2"
  type: "Convolution"
  bottom: "conv7_1"
  top: "conv7_2"
  param {
    lr_mult: 1
    decay_mult: 1
  }
  param {
    lr_mult: 2
    decay_mult: 0
  }
  convolution_param {
    num_output: 256
    pad: 1
    kernel_size: 3
    stride: 2
    weight_filler {
      type: "xavier"
    }
    bias_filler {
      type: "constant"
      value: 0
    }
  }
}
layer {
  name: "conv7_2_relu"
  type: "ReLU"
  bottom: "conv7_2"
  top: "conv7_2"
}
layer {
  name: "conv8_1"
  type: "Convolution"
  bottom: "conv7_2"
  top: "conv8_1"
  param {
    lr_mult: 1
    decay_mult: 1
  }
  param {
    lr_mult: 2
    decay_mult: 0
  }
  convolution_param {
    num_output: 128
    pad: 0
    kernel_size: 1
    stride: 1
    weight_filler {
      type: "xavier"
    }
    bias_filler {
      type: "constant"
      value: 0
    }
  }
}
layer {
  name: "conv8_1_relu"
  type: "ReLU"
  bottom: "conv8_1"
  top: "conv8_1"
}
layer {
  name: "conv8_2"
  type: "Convolution"
  bottom: "conv8_1"
  top: "conv8_2"
  param {
    lr_mult: 1
    decay_mult: 1
  }
  param {
    lr_mult: 2
    decay_mult: 0
  }
  convolution_param {
    num_output: 256
    pad: 0
    kernel_size: 3
    stride: 1
    weight_filler {
      type: "xavier"
    }
    bias_filler {
      type: "constant"
      value: 0
    }
  }
}
layer {
  name: "conv8_2_relu"
  type: "ReLU"
  bottom: "conv8_2"
  top: "conv8_2"
}
layer {
  name: "conv9_1"
  type: "Convolution"
  bottom: "conv8_2"
  top: "conv9_1"
  param {
    lr_mult: 1
    decay_mult: 1
  }
  param {
    lr_mult: 2
    decay_mult: 0
  }
  convolution_param {
    num_output: 128
    pad: 0
    kernel_size: 1
    stride: 1
    weight_filler {
      type: "xavier"
    }
    bias_filler {
      type: "constant"
      value: 0
    }
  }
}
layer {
  name: "conv9_1_relu"
  type: "ReLU"
  bottom: "conv9_1"
  top: "conv9_1"
}
layer {
  name: "conv9_2"
  type: "Convolution"
  bottom: "conv9_1"
  top: "conv9_2"
  param {
    lr_mult: 1
    decay_mult: 1
  }
  param {
    lr_mult: 2
    decay_mult: 0
  }
  convolution_param {
    num_output: 256
    pad: 0
    kernel_size: 3
    stride: 1
    weight_filler {
      type: "xavier"
    }
    bias_filler {
      type: "constant"
      value: 0
    }
  }
}
layer {
  name: "conv9_2_relu"
  type: "ReLU"
  bottom: "conv9_2"
  top: "conv9_2"
}
layer {
  name: "conv4_3_norm"
  type: "Normalize"
  bottom: "conv4_3"
  top: "conv4_3_norm"
  norm_param {
    across_spatial: false
    scale_filler {
      type: "constant"
      value: 20
    }
    channel_shared: false
  }
}
layer {
  name: "conv4_3_norm_mbox_loc"
  type: "Convolution"
  bottom: "conv4_3_norm"
  top: "conv4_3_norm_mbox_loc"
  param {
    lr_mult: 1
    decay_mult: 1
  }
  param {
    lr_mult: 2
    decay_mult: 0
  }
  convolution_param {
    num_output: 16
    pad: 1
    kernel_size: 3
    stride: 1
    weight_filler {
      type: "xavier"
    }
    bias_filler {
      type: "constant"
      value: 0
    }
  }
}
layer {
  name: "conv4_3_norm_mbox_loc_perm"
  type: "Permute"
  bottom: "conv4_3_norm_mbox_loc"
  top: "conv4_3_norm_mbox_loc_perm"
  permute_param {
    order: 0
    order: 2
    order: 3
    order: 1
  }
}
layer {
  name: "conv4_3_norm_mbox_loc_flat"
  type: "Flatten"
  bottom: "conv4_3_norm_mbox_loc_perm"
  top: "conv4_3_norm_mbox_loc_flat"
  flatten_param {
    axis: 1
  }
}
layer {
  name: "conv4_3_norm_mbox_conf"
  type: "Convolution"
  bottom: "conv4_3_norm"
  top: "conv4_3_norm_mbox_conf"
  param {
    lr_mult: 1
    decay_mult: 1
  }
  param {
    lr_mult: 2
    decay_mult: 0
  }
  convolution_param {
    num_output: 84
    pad: 1
    kernel_size: 3
    stride: 1
    weight_filler {
      type: "xavier"
    }
    bias_filler {
      type: "constant"
      value: 0
    }
  }
}
layer {
  name: "conv4_3_norm_mbox_conf_perm"
  type: "Permute"
  bottom: "conv4_3_norm_mbox_conf"
  top: "conv4_3_norm_mbox_conf_perm"
  permute_param {
    order: 0
    order: 2
    order: 3
    order: 1
  }
}
layer {
  name: "conv4_3_norm_mbox_conf_flat"
  type: "Flatten"
  bottom: "conv4_3_norm_mbox_conf_perm"
  top: "conv4_3_norm_mbox_conf_flat"
  flatten_param {
    axis: 1
  }
}
layer {
  name: "conv4_3_norm_mbox_priorbox"
  type: "PriorBox"
  bottom: "conv4_3_norm"
  bottom: "data"
  top: "conv4_3_norm_mbox_priorbox"
  prior_box_param {
    min_size: 30
    max_size: 60
    aspect_ratio: 2
    flip: true
    clip: false
    variance: 0.1
    variance: 0.1
    variance: 0.2
    variance: 0.2
    step: 8
    offset: 0.5
  }
}
layer {
  name: "fc7_mbox_loc"
  type: "Convolution"
  bottom: "fc7"
  top: "fc7_mbox_loc"
  param {
    lr_mult: 1
    decay_mult: 1
  }
  param {
    lr_mult: 2
    decay_mult: 0
  }
  convolution_param {
    num_output: 24
    pad: 1
    kernel_size: 3
    stride: 1
    weight_filler {
      type: "xavier"
    }
    bias_filler {
      type: "constant"
      value: 0
    }
  }
}
layer {
  name: "fc7_mbox_loc_perm"
  type: "Permute"
  bottom: "fc7_mbox_loc"
  top: "fc7_mbox_loc_perm"
  permute_param {
    order: 0
    order: 2
    order: 3
    order: 1
  }
}
layer {
  name: "fc7_mbox_loc_flat"
  type: "Flatten"
  bottom: "fc7_mbox_loc_perm"
  top: "fc7_mbox_loc_flat"
  flatten_param {
    axis: 1
  }
}
layer {
  name: "fc7_mbox_conf"
  type: "Convolution"
  bottom: "fc7"
  top: "fc7_mbox_conf"
  param {
    lr_mult: 1
    decay_mult: 1
  }
  param {
    lr_mult: 2
    decay_mult: 0
  }
  convolution_param {
    num_output: 126
    pad: 1
    kernel_size: 3
    stride: 1
    weight_filler {
      type: "xavier"
    }
    bias_filler {
      type: "constant"
      value: 0
    }
  }
}
layer {
  name: "fc7_mbox_conf_perm"
  type: "Permute"
  bottom: "fc7_mbox_conf"
  top: "fc7_mbox_conf_perm"
  permute_param {
    order: 0
    order: 2
    order: 3
    order: 1
  }
}
layer {
  name: "fc7_mbox_conf_flat"
  type: "Flatten"
  bottom: "fc7_mbox_conf_perm"
  top: "fc7_mbox_conf_flat"
  flatten_param {
    axis: 1
  }
}
layer {
  name: "fc7_mbox_priorbox"
  type: "PriorBox"
  bottom: "fc7"
  bottom: "data"
  top: "fc7_mbox_priorbox"
  prior_box_param {
    min_size: 60
    max_size: 111
    aspect_ratio: 2
    aspect_ratio: 3
    flip: true
    clip: false
    variance: 0.1
    variance: 0.1
    variance: 0.2
    variance: 0.2
    step: 16
    offset: 0.5
  }
}
layer {
  name: "conv6_2_mbox_loc"
  type: "Convolution"
  bottom: "conv6_2"
  top: "conv6_2_mbox_loc"
  param {
    lr_mult: 1
    decay_mult: 1
  }
  param {
    lr_mult: 2
    decay_mult: 0
  }
  convolution_param {
    num_output: 24
    pad: 1
    kernel_size: 3
    stride: 1
    weight_filler {
      type: "xavier"
    }
    bias_filler {
      type: "constant"
      value: 0
    }
  }
}
layer {
  name: "conv6_2_mbox_loc_perm"
  type: "Permute"
  bottom: "conv6_2_mbox_loc"
  top: "conv6_2_mbox_loc_perm"
  permute_param {
    order: 0
    order: 2
    order: 3
    order: 1
  }
}
layer {
  name: "conv6_2_mbox_loc_flat"
  type: "Flatten"
  bottom: "conv6_2_mbox_loc_perm"
  top: "conv6_2_mbox_loc_flat"
  flatten_param {
    axis: 1
  }
}
layer {
  name: "conv6_2_mbox_conf"
  type: "Convolution"
  bottom: "conv6_2"
  top: "conv6_2_mbox_conf"
  param {
    lr_mult: 1
    decay_mult: 1
  }
  param {
    lr_mult: 2
    decay_mult: 0
  }
  convolution_param {
    num_output: 126
    pad: 1
    kernel_size: 3
    stride: 1
    weight_filler {
      type: "xavier"
    }
    bias_filler {
      type: "constant"
      value: 0
    }
  }
}
layer {
  name: "conv6_2_mbox_conf_perm"
  type: "Permute"
  bottom: "conv6_2_mbox_conf"
  top: "conv6_2_mbox_conf_perm"
  permute_param {
    order: 0
    order: 2
    order: 3
    order: 1
  }
}
layer {
  name: "conv6_2_mbox_conf_flat"
  type: "Flatten"
  bottom: "conv6_2_mbox_conf_perm"
  top: "conv6_2_mbox_conf_flat"
  flatten_param {
    axis: 1
  }
}
layer {
  name: "conv6_2_mbox_priorbox"
  type: "PriorBox"
  bottom: "conv6_2"
  bottom: "data"
  top: "conv6_2_mbox_priorbox"
  prior_box_param {
    min_size: 111
    max_size: 162
    aspect_ratio: 2
    aspect_ratio: 3
    flip: true
    clip: false
    variance: 0.1
    variance: 0.1
    variance: 0.2
    variance: 0.2
    step: 32
    offset: 0.5
  }
}
layer {
  name: "conv7_2_mbox_loc"
  type: "Convolution"
  bottom: "conv7_2"
  top: "conv7_2_mbox_loc"
  param {
    lr_mult: 1
    decay_mult: 1
  }
  param {
    lr_mult: 2
    decay_mult: 0
  }
  convolution_param {
    num_output: 24
    pad: 1
    kernel_size: 3
    stride: 1
    weight_filler {
      type: "xavier"
    }
    bias_filler {
      type: "constant"
      value: 0
    }
  }
}
layer {
  name: "conv7_2_mbox_loc_perm"
  type: "Permute"
  bottom: "conv7_2_mbox_loc"
  top: "conv7_2_mbox_loc_perm"
  permute_param {
    order: 0
    order: 2
    order: 3
    order: 1
  }
}
layer {
  name: "conv7_2_mbox_loc_flat"
  type: "Flatten"
  bottom: "conv7_2_mbox_loc_perm"
  top: "conv7_2_mbox_loc_flat"
  flatten_param {
    axis: 1
  }
}
layer {
  name: "conv7_2_mbox_conf"
  type: "Convolution"
  bottom: "conv7_2"
  top: "conv7_2_mbox_conf"
  param {
    lr_mult: 1
    decay_mult: 1
  }
  param {
    lr_mult: 2
    decay_mult: 0
  }
  convolution_param {
    num_output: 126
    pad: 1
    kernel_size: 3
    stride: 1
    weight_filler {
      type: "xavier"
    }
    bias_filler {
      type: "constant"
      value: 0
    }
  }
}
layer {
  name: "conv7_2_mbox_conf_perm"
  type: "Permute"
  bottom: "conv7_2_mbox_conf"
  top: "conv7_2_mbox_conf_perm"
  permute_param {
    order: 0
    order: 2
    order: 3
    order: 1
  }
}
layer {
  name: "conv7_2_mbox_conf_flat"
  type: "Flatten"
  bottom: "conv7_2_mbox_conf_perm"
  top: "conv7_2_mbox_conf_flat"
  flatten_param {
    axis: 1
  }
}
layer {
  name: "conv7_2_mbox_priorbox"
  type: "PriorBox"
  bottom: "conv7_2"
  bottom: "data"
  top: "conv7_2_mbox_priorbox"
  prior_box_param {
    min_size: 162
    max_size: 213
    aspect_ratio: 2
    aspect_ratio: 3
    flip: true
    clip: false
    variance: 0.1
    variance: 0.1
    variance: 0.2
    variance: 0.2
    step: 64
    offset: 0.5
  }
}
layer {
  name: "conv8_2_mbox_loc"
  type: "Convolution"
  bottom: "conv8_2"
  top: "conv8_2_mbox_loc"
  param {
    lr_mult: 1
    decay_mult: 1
  }
  param {
    lr_mult: 2
    decay_mult: 0
  }
  convolution_param {
    num_output: 16
    pad: 1
    kernel_size: 3
    stride: 1
    weight_filler {
      type: "xavier"
    }
    bias_filler {
      type: "constant"
      value: 0
    }
  }
}
layer {
  name: "conv8_2_mbox_loc_perm"
  type: "Permute"
  bottom: "conv8_2_mbox_loc"
  top: "conv8_2_mbox_loc_perm"
  permute_param {
    order: 0
    order: 2
    order: 3
    order: 1
  }
}
layer {
  name: "conv8_2_mbox_loc_flat"
  type: "Flatten"
  bottom: "conv8_2_mbox_loc_perm"
  top: "conv8_2_mbox_loc_flat"
  flatten_param {
    axis: 1
  }
}
layer {
  name: "conv8_2_mbox_conf"
  type: "Convolution"
  bottom: "conv8_2"
  top: "conv8_2_mbox_conf"
  param {
    lr_mult: 1
    decay_mult: 1
  }
  param {
    lr_mult: 2
    decay_mult: 0
  }
  convolution_param {
    num_output: 84
    pad: 1
    kernel_size: 3
    stride: 1
    weight_filler {
      type: "xavier"
    }
    bias_filler {
      type: "constant"
      value: 0
    }
  }
}
layer {
  name: "conv8_2_mbox_conf_perm"
  type: "Permute"
  bottom: "conv8_2_mbox_conf"
  top: "conv8_2_mbox_conf_perm"
  permute_param {
    order: 0
    order: 2
    order: 3
    order: 1
  }
}
layer {
  name: "conv8_2_mbox_conf_flat"
  type: "Flatten"
  bottom: "conv8_2_mbox_conf_perm"
  top: "conv8_2_mbox_conf_flat"
  flatten_param {
    axis: 1
  }
}
layer {
  name: "conv8_2_mbox_priorbox"
  type: "PriorBox"
  bottom: "conv8_2"
  bottom: "data"
  top: "conv8_2_mbox_priorbox"
  prior_box_param {
    min_size: 213
    max_size: 264
    aspect_ratio: 2
    flip: true
    clip: false
    variance: 0.1
    variance: 0.1
    variance: 0.2
    variance: 0.2
    step: 100
    offset: 0.5
  }
}
layer {
  name: "conv9_2_mbox_loc"
  type: "Convolution"
  bottom: "conv9_2"
  top: "conv9_2_mbox_loc"
  param {
    lr_mult: 1
    decay_mult: 1
  }
  param {
    lr_mult: 2
    decay_mult: 0
  }
  convolution_param {
    num_output: 16
    pad: 1
    kernel_size: 3
    stride: 1
    weight_filler {
      type: "xavier"
    }
    bias_filler {
      type: "constant"
      value: 0
    }
  }
}
layer {
  name: "conv9_2_mbox_loc_perm"
  type: "Permute"
  bottom: "conv9_2_mbox_loc"
  top: "conv9_2_mbox_loc_perm"
  permute_param {
    order: 0
    order: 2
    order: 3
    order: 1
  }
}
layer {
  name: "conv9_2_mbox_loc_flat"
  type: "Flatten"
  bottom: "conv9_2_mbox_loc_perm"
  top: "conv9_2_mbox_loc_flat"
  flatten_param {
    axis: 1
  }
}
layer {
  name: "conv9_2_mbox_conf"
  type: "Convolution"
  bottom: "conv9_2"
  top: "conv9_2_mbox_conf"
  param {
    lr_mult: 1
    decay_mult: 1
  }
  param {
    lr_mult: 2
    decay_mult: 0
  }
  convolution_param {
    num_output: 84
    pad: 1
    kernel_size: 3
    stride: 1
    weight_filler {
      type: "xavier"
    }
    bias_filler {
      type: "constant"
      value: 0
    }
  }
}
layer {
  name: "conv9_2_mbox_conf_perm"
  type: "Permute"
  bottom: "conv9_2_mbox_conf"
  top: "conv9_2_mbox_conf_perm"
  permute_param {
    order: 0
    order: 2
    order: 3
    order: 1
  }
}
layer {
  name: "conv9_2_mbox_conf_flat"
  type: "Flatten"
  bottom: "conv9_2_mbox_conf_perm"
  top: "conv9_2_mbox_conf_flat"
  flatten_param {
    axis: 1
  }
}
layer {
  name: "conv9_2_mbox_priorbox"
  type: "PriorBox"
  bottom: "conv9_2"
  bottom: "data"
  top: "conv9_2_mbox_priorbox"
  prior_box_param {
    min_size: 264
    max_size: 315
    aspect_ratio: 2
    flip: true
    clip: false
    variance: 0.1
    variance: 0.1
    variance: 0.2
    variance: 0.2
    step: 300
    offset: 0.5
  }
}
layer {
  name: "mbox_loc"
  type: "Concat"
  bottom: "conv4_3_norm_mbox_loc_flat"
  bottom: "fc7_mbox_loc_flat"
  bottom: "conv6_2_mbox_loc_flat"
  bottom: "conv7_2_mbox_loc_flat"
  bottom: "conv8_2_mbox_loc_flat"
  bottom: "conv9_2_mbox_loc_flat"
  top: "mbox_loc"
  concat_param {
    axis: 1
  }
}
layer {
  name: "mbox_conf"
  type: "Concat"
  bottom: "conv4_3_norm_mbox_conf_flat"
  bottom: "fc7_mbox_conf_flat"
  bottom: "conv6_2_mbox_conf_flat"
  bottom: "conv7_2_mbox_conf_flat"
  bottom: "conv8_2_mbox_conf_flat"
  bottom: "conv9_2_mbox_conf_flat"
  top: "mbox_conf"
  concat_param {
    axis: 1
  }
}
layer {
  name: "mbox_priorbox"
  type: "Concat"
  bottom: "conv4_3_norm_mbox_priorbox"
  bottom: "fc7_mbox_priorbox"
  bottom: "conv6_2_mbox_priorbox"
  bottom: "conv7_2_mbox_priorbox"
  bottom: "conv8_2_mbox_priorbox"
  bottom: "conv9_2_mbox_priorbox"
  top: "mbox_priorbox"
  concat_param {
    axis: 2
  }
}
layer {
  name: "mbox_conf_reshape"
  type: "Reshape"
  bottom: "mbox_conf"
  top: "mbox_conf_reshape"
  reshape_param {
    shape {
      dim: 0
      dim: -1
      dim: 21
    }
  }
}
layer {
  name: "mbox_conf_softmax"
  type: "Softmax"
  bottom: "mbox_conf_reshape"
  top: "mbox_conf_softmax"
  softmax_param {
    axis: 2
  }
}
layer {
  name: "mbox_conf_flatten"
  type: "Flatten"
  bottom: "mbox_conf_softmax"
  top: "mbox_conf_flatten"
  flatten_param {
    axis: 1
  }
}
layer {
  name: "detection_out"
  type: "DetectionOutput"
  bottom: "mbox_loc"
  bottom: "mbox_conf_flatten"
  bottom: "mbox_priorbox"
  top: "detection_out"
  include {
    phase: TEST
  }
  detection_output_param {
    num_classes: 21
    share_location: true
    background_label_id: 0
    nms_param {
      nms_threshold: 0.45
      top_k: 400
    }
    save_output_param {
      output_directory: "/home/gaopeng/data/VOCdevkit/results/VOC2007/SSD_300x300/Main"
      output_name_prefix: "comp4_det_test_"
      output_format: "VOC"
      label_map_file: "data/VOC0712/labelmap_voc.prototxt"
      name_size_file: "data/VOC0712/test_name_size.txt"
      num_test_image: 4952
    }
    code_type: CENTER_SIZE
    keep_top_k: 200
    confidence_threshold: 0.01
  }
}
layer {
  name: "detection_eval"
  type: "DetectionEvaluate"
  bottom: "detection_out"
  bottom: "label"
  top: "detection_eval"
  include {
    phase: TEST
  }
  detection_evaluate_param {
    num_classes: 21
    background_label_id: 0
    overlap_threshold: 0.5
    evaluate_difficult_gt: false
    name_size_file: "data/VOC0712/test_name_size.txt"
  }
}
I0428 16:27:32.484464  2611 layer_factory.hpp:77] Creating layer data
I0428 16:27:32.484515  2611 net.cpp:100] Creating Layer data
I0428 16:27:32.484536  2611 net.cpp:408] data -> data
I0428 16:27:32.484547  2611 net.cpp:408] data -> label
I0428 16:27:32.488696  2639 db_lmdb.cpp:35] Opened lmdb examples/VOC0712/VOC0712_test_lmdb
I0428 16:27:32.492393  2611 annotated_data_layer.cpp:62] output data size: 8,3,300,300
I0428 16:27:32.501703  2611 net.cpp:150] Setting up data
I0428 16:27:32.501746  2611 net.cpp:157] Top shape: 8 3 300 300 (2160000)
I0428 16:27:32.501751  2611 net.cpp:157] Top shape: 1 1 2 8 (16)
I0428 16:27:32.501754  2611 net.cpp:165] Memory required for data: 8640064
I0428 16:27:32.501758  2611 layer_factory.hpp:77] Creating layer data_data_0_split
I0428 16:27:32.501786  2611 net.cpp:100] Creating Layer data_data_0_split
I0428 16:27:32.501790  2611 net.cpp:434] data_data_0_split <- data
I0428 16:27:32.501796  2611 net.cpp:408] data_data_0_split -> data_data_0_split_0
I0428 16:27:32.501804  2611 net.cpp:408] data_data_0_split -> data_data_0_split_1
I0428 16:27:32.501809  2611 net.cpp:408] data_data_0_split -> data_data_0_split_2
I0428 16:27:32.501816  2611 net.cpp:408] data_data_0_split -> data_data_0_split_3
I0428 16:27:32.501821  2611 net.cpp:408] data_data_0_split -> data_data_0_split_4
I0428 16:27:32.501826  2611 net.cpp:408] data_data_0_split -> data_data_0_split_5
I0428 16:27:32.501830  2611 net.cpp:408] data_data_0_split -> data_data_0_split_6
I0428 16:27:32.501955  2611 net.cpp:150] Setting up data_data_0_split
I0428 16:27:32.501961  2611 net.cpp:157] Top shape: 8 3 300 300 (2160000)
I0428 16:27:32.501965  2611 net.cpp:157] Top shape: 8 3 300 300 (2160000)
I0428 16:27:32.501967  2611 net.cpp:157] Top shape: 8 3 300 300 (2160000)
I0428 16:27:32.501971  2611 net.cpp:157] Top shape: 8 3 300 300 (2160000)
I0428 16:27:32.501974  2611 net.cpp:157] Top shape: 8 3 300 300 (2160000)
I0428 16:27:32.501976  2611 net.cpp:157] Top shape: 8 3 300 300 (2160000)
I0428 16:27:32.501979  2611 net.cpp:157] Top shape: 8 3 300 300 (2160000)
I0428 16:27:32.501982  2611 net.cpp:165] Memory required for data: 69120064
I0428 16:27:32.501984  2611 layer_factory.hpp:77] Creating layer conv1_1
I0428 16:27:32.502028  2611 net.cpp:100] Creating Layer conv1_1
I0428 16:27:32.502032  2611 net.cpp:434] conv1_1 <- data_data_0_split_0
I0428 16:27:32.502038  2611 net.cpp:408] conv1_1 -> conv1_1
I0428 16:27:32.502337  2611 net.cpp:150] Setting up conv1_1
I0428 16:27:32.502346  2611 net.cpp:157] Top shape: 8 64 300 300 (46080000)
I0428 16:27:32.502348  2611 net.cpp:165] Memory required for data: 253440064
I0428 16:27:32.502370  2611 layer_factory.hpp:77] Creating layer relu1_1
I0428 16:27:32.502374  2611 net.cpp:100] Creating Layer relu1_1
I0428 16:27:32.502395  2611 net.cpp:434] relu1_1 <- conv1_1
I0428 16:27:32.502399  2611 net.cpp:395] relu1_1 -> conv1_1 (in-place)
I0428 16:27:32.502405  2611 net.cpp:150] Setting up relu1_1
I0428 16:27:32.502408  2611 net.cpp:157] Top shape: 8 64 300 300 (46080000)
I0428 16:27:32.502410  2611 net.cpp:165] Memory required for data: 437760064
I0428 16:27:32.502427  2611 layer_factory.hpp:77] Creating layer conv1_2
I0428 16:27:32.502434  2611 net.cpp:100] Creating Layer conv1_2
I0428 16:27:32.502436  2611 net.cpp:434] conv1_2 <- conv1_1
I0428 16:27:32.502440  2611 net.cpp:408] conv1_2 -> conv1_2
I0428 16:27:32.503553  2611 net.cpp:150] Setting up conv1_2
I0428 16:27:32.503568  2611 net.cpp:157] Top shape: 8 64 300 300 (46080000)
I0428 16:27:32.503571  2611 net.cpp:165] Memory required for data: 622080064
I0428 16:27:32.503579  2611 layer_factory.hpp:77] Creating layer relu1_2
I0428 16:27:32.503585  2611 net.cpp:100] Creating Layer relu1_2
I0428 16:27:32.503607  2611 net.cpp:434] relu1_2 <- conv1_2
I0428 16:27:32.503612  2611 net.cpp:395] relu1_2 -> conv1_2 (in-place)
I0428 16:27:32.503633  2611 net.cpp:150] Setting up relu1_2
I0428 16:27:32.503635  2611 net.cpp:157] Top shape: 8 64 300 300 (46080000)
I0428 16:27:32.503638  2611 net.cpp:165] Memory required for data: 806400064
I0428 16:27:32.503640  2611 layer_factory.hpp:77] Creating layer pool1
I0428 16:27:32.503644  2611 net.cpp:100] Creating Layer pool1
I0428 16:27:32.503648  2611 net.cpp:434] pool1 <- conv1_2
I0428 16:27:32.503651  2611 net.cpp:408] pool1 -> pool1
I0428 16:27:32.503689  2611 net.cpp:150] Setting up pool1
I0428 16:27:32.503695  2611 net.cpp:157] Top shape: 8 64 150 150 (11520000)
I0428 16:27:32.503697  2611 net.cpp:165] Memory required for data: 852480064
I0428 16:27:32.503700  2611 layer_factory.hpp:77] Creating layer conv2_1
I0428 16:27:32.503706  2611 net.cpp:100] Creating Layer conv2_1
I0428 16:27:32.503710  2611 net.cpp:434] conv2_1 <- pool1
I0428 16:27:32.503715  2611 net.cpp:408] conv2_1 -> conv2_1
I0428 16:27:32.504256  2611 net.cpp:150] Setting up conv2_1
I0428 16:27:32.504262  2611 net.cpp:157] Top shape: 8 128 150 150 (23040000)
I0428 16:27:32.504266  2611 net.cpp:165] Memory required for data: 944640064
I0428 16:27:32.504271  2611 layer_factory.hpp:77] Creating layer relu2_1
I0428 16:27:32.504295  2611 net.cpp:100] Creating Layer relu2_1
I0428 16:27:32.504298  2611 net.cpp:434] relu2_1 <- conv2_1
I0428 16:27:32.504302  2611 net.cpp:395] relu2_1 -> conv2_1 (in-place)
I0428 16:27:32.504307  2611 net.cpp:150] Setting up relu2_1
I0428 16:27:32.504310  2611 net.cpp:157] Top shape: 8 128 150 150 (23040000)
I0428 16:27:32.504312  2611 net.cpp:165] Memory required for data: 1036800064
I0428 16:27:32.504314  2611 layer_factory.hpp:77] Creating layer conv2_2
I0428 16:27:32.504320  2611 net.cpp:100] Creating Layer conv2_2
I0428 16:27:32.504338  2611 net.cpp:434] conv2_2 <- conv2_1
I0428 16:27:32.504341  2611 net.cpp:408] conv2_2 -> conv2_2
I0428 16:27:32.505849  2611 net.cpp:150] Setting up conv2_2
I0428 16:27:32.505861  2611 net.cpp:157] Top shape: 8 128 150 150 (23040000)
I0428 16:27:32.505864  2611 net.cpp:165] Memory required for data: 1128960064
I0428 16:27:32.505870  2611 layer_factory.hpp:77] Creating layer relu2_2
I0428 16:27:32.505875  2611 net.cpp:100] Creating Layer relu2_2
I0428 16:27:32.505877  2611 net.cpp:434] relu2_2 <- conv2_2
I0428 16:27:32.505882  2611 net.cpp:395] relu2_2 -> conv2_2 (in-place)
I0428 16:27:32.505906  2611 net.cpp:150] Setting up relu2_2
I0428 16:27:32.505909  2611 net.cpp:157] Top shape: 8 128 150 150 (23040000)
I0428 16:27:32.505924  2611 net.cpp:165] Memory required for data: 1221120064
I0428 16:27:32.505928  2611 layer_factory.hpp:77] Creating layer pool2
I0428 16:27:32.505933  2611 net.cpp:100] Creating Layer pool2
I0428 16:27:32.505934  2611 net.cpp:434] pool2 <- conv2_2
I0428 16:27:32.505939  2611 net.cpp:408] pool2 -> pool2
I0428 16:27:32.505986  2611 net.cpp:150] Setting up pool2
I0428 16:27:32.505992  2611 net.cpp:157] Top shape: 8 128 75 75 (5760000)
I0428 16:27:32.505995  2611 net.cpp:165] Memory required for data: 1244160064
I0428 16:27:32.505997  2611 layer_factory.hpp:77] Creating layer conv3_1
I0428 16:27:32.506003  2611 net.cpp:100] Creating Layer conv3_1
I0428 16:27:32.506006  2611 net.cpp:434] conv3_1 <- pool2
I0428 16:27:32.506011  2611 net.cpp:408] conv3_1 -> conv3_1
I0428 16:27:32.507931  2611 net.cpp:150] Setting up conv3_1
I0428 16:27:32.507943  2611 net.cpp:157] Top shape: 8 256 75 75 (11520000)
I0428 16:27:32.507946  2611 net.cpp:165] Memory required for data: 1290240064
I0428 16:27:32.507953  2611 layer_factory.hpp:77] Creating layer relu3_1
I0428 16:27:32.507958  2611 net.cpp:100] Creating Layer relu3_1
I0428 16:27:32.507980  2611 net.cpp:434] relu3_1 <- conv3_1
I0428 16:27:32.507984  2611 net.cpp:395] relu3_1 -> conv3_1 (in-place)
I0428 16:27:32.507989  2611 net.cpp:150] Setting up relu3_1
I0428 16:27:32.507992  2611 net.cpp:157] Top shape: 8 256 75 75 (11520000)
I0428 16:27:32.507995  2611 net.cpp:165] Memory required for data: 1336320064
I0428 16:27:32.507997  2611 layer_factory.hpp:77] Creating layer conv3_2
I0428 16:27:32.508003  2611 net.cpp:100] Creating Layer conv3_2
I0428 16:27:32.508005  2611 net.cpp:434] conv3_2 <- conv3_1
I0428 16:27:32.508010  2611 net.cpp:408] conv3_2 -> conv3_2
I0428 16:27:32.511412  2611 net.cpp:150] Setting up conv3_2
I0428 16:27:32.511430  2611 net.cpp:157] Top shape: 8 256 75 75 (11520000)
I0428 16:27:32.511433  2611 net.cpp:165] Memory required for data: 1382400064
I0428 16:27:32.511440  2611 layer_factory.hpp:77] Creating layer relu3_2
I0428 16:27:32.511445  2611 net.cpp:100] Creating Layer relu3_2
I0428 16:27:32.511447  2611 net.cpp:434] relu3_2 <- conv3_2
I0428 16:27:32.511471  2611 net.cpp:395] relu3_2 -> conv3_2 (in-place)
I0428 16:27:32.511476  2611 net.cpp:150] Setting up relu3_2
I0428 16:27:32.511481  2611 net.cpp:157] Top shape: 8 256 75 75 (11520000)
I0428 16:27:32.511482  2611 net.cpp:165] Memory required for data: 1428480064
I0428 16:27:32.511484  2611 layer_factory.hpp:77] Creating layer conv3_3
I0428 16:27:32.511493  2611 net.cpp:100] Creating Layer conv3_3
I0428 16:27:32.511497  2611 net.cpp:434] conv3_3 <- conv3_2
I0428 16:27:32.511514  2611 net.cpp:408] conv3_3 -> conv3_3
I0428 16:27:32.514931  2611 net.cpp:150] Setting up conv3_3
I0428 16:27:32.514948  2611 net.cpp:157] Top shape: 8 256 75 75 (11520000)
I0428 16:27:32.514950  2611 net.cpp:165] Memory required for data: 1474560064
I0428 16:27:32.514956  2611 layer_factory.hpp:77] Creating layer relu3_3
I0428 16:27:32.514962  2611 net.cpp:100] Creating Layer relu3_3
I0428 16:27:32.514966  2611 net.cpp:434] relu3_3 <- conv3_3
I0428 16:27:32.514971  2611 net.cpp:395] relu3_3 -> conv3_3 (in-place)
I0428 16:27:32.514994  2611 net.cpp:150] Setting up relu3_3
I0428 16:27:32.514997  2611 net.cpp:157] Top shape: 8 256 75 75 (11520000)
I0428 16:27:32.515000  2611 net.cpp:165] Memory required for data: 1520640064
I0428 16:27:32.515002  2611 layer_factory.hpp:77] Creating layer pool3
I0428 16:27:32.515007  2611 net.cpp:100] Creating Layer pool3
I0428 16:27:32.515023  2611 net.cpp:434] pool3 <- conv3_3
I0428 16:27:32.515028  2611 net.cpp:408] pool3 -> pool3
I0428 16:27:32.515060  2611 net.cpp:150] Setting up pool3
I0428 16:27:32.515069  2611 net.cpp:157] Top shape: 8 256 38 38 (2957312)
I0428 16:27:32.515070  2611 net.cpp:165] Memory required for data: 1532469312
I0428 16:27:32.515074  2611 layer_factory.hpp:77] Creating layer conv4_1
I0428 16:27:32.515079  2611 net.cpp:100] Creating Layer conv4_1
I0428 16:27:32.515082  2611 net.cpp:434] conv4_1 <- pool3
I0428 16:27:32.515086  2611 net.cpp:408] conv4_1 -> conv4_1
I0428 16:27:32.521903  2611 net.cpp:150] Setting up conv4_1
I0428 16:27:32.521926  2611 net.cpp:157] Top shape: 8 512 38 38 (5914624)
I0428 16:27:32.521929  2611 net.cpp:165] Memory required for data: 1556127808
I0428 16:27:32.521936  2611 layer_factory.hpp:77] Creating layer relu4_1
I0428 16:27:32.521944  2611 net.cpp:100] Creating Layer relu4_1
I0428 16:27:32.521947  2611 net.cpp:434] relu4_1 <- conv4_1
I0428 16:27:32.521952  2611 net.cpp:395] relu4_1 -> conv4_1 (in-place)
I0428 16:27:32.521958  2611 net.cpp:150] Setting up relu4_1
I0428 16:27:32.521962  2611 net.cpp:157] Top shape: 8 512 38 38 (5914624)
I0428 16:27:32.521965  2611 net.cpp:165] Memory required for data: 1579786304
I0428 16:27:32.521966  2611 layer_factory.hpp:77] Creating layer conv4_2
I0428 16:27:32.521973  2611 net.cpp:100] Creating Layer conv4_2
I0428 16:27:32.521976  2611 net.cpp:434] conv4_2 <- conv4_1
I0428 16:27:32.521981  2611 net.cpp:408] conv4_2 -> conv4_2
I0428 16:27:32.535210  2611 net.cpp:150] Setting up conv4_2
I0428 16:27:32.535229  2611 net.cpp:157] Top shape: 8 512 38 38 (5914624)
I0428 16:27:32.535233  2611 net.cpp:165] Memory required for data: 1603444800
I0428 16:27:32.535243  2611 layer_factory.hpp:77] Creating layer relu4_2
I0428 16:27:32.535249  2611 net.cpp:100] Creating Layer relu4_2
I0428 16:27:32.535271  2611 net.cpp:434] relu4_2 <- conv4_2
I0428 16:27:32.535277  2611 net.cpp:395] relu4_2 -> conv4_2 (in-place)
I0428 16:27:32.535284  2611 net.cpp:150] Setting up relu4_2
I0428 16:27:32.535287  2611 net.cpp:157] Top shape: 8 512 38 38 (5914624)
I0428 16:27:32.535290  2611 net.cpp:165] Memory required for data: 1627103296
I0428 16:27:32.535292  2611 layer_factory.hpp:77] Creating layer conv4_3
I0428 16:27:32.535315  2611 net.cpp:100] Creating Layer conv4_3
I0428 16:27:32.535316  2611 net.cpp:434] conv4_3 <- conv4_2
I0428 16:27:32.535320  2611 net.cpp:408] conv4_3 -> conv4_3
I0428 16:27:32.548235  2611 net.cpp:150] Setting up conv4_3
I0428 16:27:32.548254  2611 net.cpp:157] Top shape: 8 512 38 38 (5914624)
I0428 16:27:32.548256  2611 net.cpp:165] Memory required for data: 1650761792
I0428 16:27:32.548262  2611 layer_factory.hpp:77] Creating layer relu4_3
I0428 16:27:32.548269  2611 net.cpp:100] Creating Layer relu4_3
I0428 16:27:32.548274  2611 net.cpp:434] relu4_3 <- conv4_3
I0428 16:27:32.548296  2611 net.cpp:395] relu4_3 -> conv4_3 (in-place)
I0428 16:27:32.548302  2611 net.cpp:150] Setting up relu4_3
I0428 16:27:32.548306  2611 net.cpp:157] Top shape: 8 512 38 38 (5914624)
I0428 16:27:32.548308  2611 net.cpp:165] Memory required for data: 1674420288
I0428 16:27:32.548311  2611 layer_factory.hpp:77] Creating layer conv4_3_relu4_3_0_split
I0428 16:27:32.548316  2611 net.cpp:100] Creating Layer conv4_3_relu4_3_0_split
I0428 16:27:32.548318  2611 net.cpp:434] conv4_3_relu4_3_0_split <- conv4_3
I0428 16:27:32.548323  2611 net.cpp:408] conv4_3_relu4_3_0_split -> conv4_3_relu4_3_0_split_0
I0428 16:27:32.548328  2611 net.cpp:408] conv4_3_relu4_3_0_split -> conv4_3_relu4_3_0_split_1
I0428 16:27:32.548373  2611 net.cpp:150] Setting up conv4_3_relu4_3_0_split
I0428 16:27:32.548382  2611 net.cpp:157] Top shape: 8 512 38 38 (5914624)
I0428 16:27:32.548387  2611 net.cpp:157] Top shape: 8 512 38 38 (5914624)
I0428 16:27:32.548388  2611 net.cpp:165] Memory required for data: 1721737280
I0428 16:27:32.548390  2611 layer_factory.hpp:77] Creating layer pool4
I0428 16:27:32.548395  2611 net.cpp:100] Creating Layer pool4
I0428 16:27:32.548398  2611 net.cpp:434] pool4 <- conv4_3_relu4_3_0_split_0
I0428 16:27:32.548403  2611 net.cpp:408] pool4 -> pool4
I0428 16:27:32.548430  2611 net.cpp:150] Setting up pool4
I0428 16:27:32.548436  2611 net.cpp:157] Top shape: 8 512 19 19 (1478656)
I0428 16:27:32.548439  2611 net.cpp:165] Memory required for data: 1727651904
I0428 16:27:32.548440  2611 layer_factory.hpp:77] Creating layer conv5_1
I0428 16:27:32.548447  2611 net.cpp:100] Creating Layer conv5_1
I0428 16:27:32.548451  2611 net.cpp:434] conv5_1 <- pool4
I0428 16:27:32.548455  2611 net.cpp:408] conv5_1 -> conv5_1
I0428 16:27:32.562036  2611 net.cpp:150] Setting up conv5_1
I0428 16:27:32.562059  2611 net.cpp:157] Top shape: 8 512 19 19 (1478656)
I0428 16:27:32.562063  2611 net.cpp:165] Memory required for data: 1733566528
I0428 16:27:32.562070  2611 layer_factory.hpp:77] Creating layer relu5_1
I0428 16:27:32.562077  2611 net.cpp:100] Creating Layer relu5_1
I0428 16:27:32.562080  2611 net.cpp:434] relu5_1 <- conv5_1
I0428 16:27:32.562105  2611 net.cpp:395] relu5_1 -> conv5_1 (in-place)
I0428 16:27:32.562111  2611 net.cpp:150] Setting up relu5_1
I0428 16:27:32.562114  2611 net.cpp:157] Top shape: 8 512 19 19 (1478656)
I0428 16:27:32.562117  2611 net.cpp:165] Memory required for data: 1739481152
I0428 16:27:32.562119  2611 layer_factory.hpp:77] Creating layer conv5_2
I0428 16:27:32.562155  2611 net.cpp:100] Creating Layer conv5_2
I0428 16:27:32.562157  2611 net.cpp:434] conv5_2 <- conv5_1
I0428 16:27:32.562162  2611 net.cpp:408] conv5_2 -> conv5_2
I0428 16:27:32.575173  2611 net.cpp:150] Setting up conv5_2
I0428 16:27:32.575207  2611 net.cpp:157] Top shape: 8 512 19 19 (1478656)
I0428 16:27:32.575209  2611 net.cpp:165] Memory required for data: 1745395776
I0428 16:27:32.575217  2611 layer_factory.hpp:77] Creating layer relu5_2
I0428 16:27:32.575223  2611 net.cpp:100] Creating Layer relu5_2
I0428 16:27:32.575227  2611 net.cpp:434] relu5_2 <- conv5_2
I0428 16:27:32.575251  2611 net.cpp:395] relu5_2 -> conv5_2 (in-place)
I0428 16:27:32.575258  2611 net.cpp:150] Setting up relu5_2
I0428 16:27:32.575261  2611 net.cpp:157] Top shape: 8 512 19 19 (1478656)
I0428 16:27:32.575263  2611 net.cpp:165] Memory required for data: 1751310400
I0428 16:27:32.575265  2611 layer_factory.hpp:77] Creating layer conv5_3
I0428 16:27:32.575273  2611 net.cpp:100] Creating Layer conv5_3
I0428 16:27:32.575275  2611 net.cpp:434] conv5_3 <- conv5_2
I0428 16:27:32.575280  2611 net.cpp:408] conv5_3 -> conv5_3
I0428 16:27:32.588258  2611 net.cpp:150] Setting up conv5_3
I0428 16:27:32.588281  2611 net.cpp:157] Top shape: 8 512 19 19 (1478656)
I0428 16:27:32.588286  2611 net.cpp:165] Memory required for data: 1757225024
I0428 16:27:32.588296  2611 layer_factory.hpp:77] Creating layer relu5_3
I0428 16:27:32.588310  2611 net.cpp:100] Creating Layer relu5_3
I0428 16:27:32.588316  2611 net.cpp:434] relu5_3 <- conv5_3
I0428 16:27:32.588325  2611 net.cpp:395] relu5_3 -> conv5_3 (in-place)
I0428 16:27:32.588335  2611 net.cpp:150] Setting up relu5_3
I0428 16:27:32.588346  2611 net.cpp:157] Top shape: 8 512 19 19 (1478656)
I0428 16:27:32.588351  2611 net.cpp:165] Memory required for data: 1763139648
I0428 16:27:32.588356  2611 layer_factory.hpp:77] Creating layer pool5
I0428 16:27:32.588363  2611 net.cpp:100] Creating Layer pool5
I0428 16:27:32.588367  2611 net.cpp:434] pool5 <- conv5_3
I0428 16:27:32.588374  2611 net.cpp:408] pool5 -> pool5
I0428 16:27:32.588418  2611 net.cpp:150] Setting up pool5
I0428 16:27:32.588425  2611 net.cpp:157] Top shape: 8 512 19 19 (1478656)
I0428 16:27:32.588429  2611 net.cpp:165] Memory required for data: 1769054272
I0428 16:27:32.588433  2611 layer_factory.hpp:77] Creating layer fc6
I0428 16:27:32.588445  2611 net.cpp:100] Creating Layer fc6
I0428 16:27:32.588450  2611 net.cpp:434] fc6 <- pool5
I0428 16:27:32.588459  2611 net.cpp:408] fc6 -> fc6
I0428 16:27:32.614226  2611 net.cpp:150] Setting up fc6
I0428 16:27:32.614249  2611 net.cpp:157] Top shape: 8 1024 19 19 (2957312)
I0428 16:27:32.614253  2611 net.cpp:165] Memory required for data: 1780883520
I0428 16:27:32.614262  2611 layer_factory.hpp:77] Creating layer relu6
I0428 16:27:32.614271  2611 net.cpp:100] Creating Layer relu6
I0428 16:27:32.614295  2611 net.cpp:434] relu6 <- fc6
I0428 16:27:32.614303  2611 net.cpp:395] relu6 -> fc6 (in-place)
I0428 16:27:32.614312  2611 net.cpp:150] Setting up relu6
I0428 16:27:32.614320  2611 net.cpp:157] Top shape: 8 1024 19 19 (2957312)
I0428 16:27:32.614325  2611 net.cpp:165] Memory required for data: 1792712768
I0428 16:27:32.614328  2611 layer_factory.hpp:77] Creating layer fc7
I0428 16:27:32.614338  2611 net.cpp:100] Creating Layer fc7
I0428 16:27:32.614342  2611 net.cpp:434] fc7 <- fc6
I0428 16:27:32.614382  2611 net.cpp:408] fc7 -> fc7
I0428 16:27:32.620517  2611 net.cpp:150] Setting up fc7
I0428 16:27:32.620535  2611 net.cpp:157] Top shape: 8 1024 19 19 (2957312)
I0428 16:27:32.620539  2611 net.cpp:165] Memory required for data: 1804542016
I0428 16:27:32.620549  2611 layer_factory.hpp:77] Creating layer relu7
I0428 16:27:32.620558  2611 net.cpp:100] Creating Layer relu7
I0428 16:27:32.620563  2611 net.cpp:434] relu7 <- fc7
I0428 16:27:32.620579  2611 net.cpp:395] relu7 -> fc7 (in-place)
I0428 16:27:32.620589  2611 net.cpp:150] Setting up relu7
I0428 16:27:32.620599  2611 net.cpp:157] Top shape: 8 1024 19 19 (2957312)
I0428 16:27:32.620602  2611 net.cpp:165] Memory required for data: 1816371264
I0428 16:27:32.620607  2611 layer_factory.hpp:77] Creating layer fc7_relu7_0_split
I0428 16:27:32.620615  2611 net.cpp:100] Creating Layer fc7_relu7_0_split
I0428 16:27:32.620620  2611 net.cpp:434] fc7_relu7_0_split <- fc7
I0428 16:27:32.620628  2611 net.cpp:408] fc7_relu7_0_split -> fc7_relu7_0_split_0
I0428 16:27:32.620638  2611 net.cpp:408] fc7_relu7_0_split -> fc7_relu7_0_split_1
I0428 16:27:32.620654  2611 net.cpp:408] fc7_relu7_0_split -> fc7_relu7_0_split_2
I0428 16:27:32.620663  2611 net.cpp:408] fc7_relu7_0_split -> fc7_relu7_0_split_3
I0428 16:27:32.620730  2611 net.cpp:150] Setting up fc7_relu7_0_split
I0428 16:27:32.620738  2611 net.cpp:157] Top shape: 8 1024 19 19 (2957312)
I0428 16:27:32.620746  2611 net.cpp:157] Top shape: 8 1024 19 19 (2957312)
I0428 16:27:32.620753  2611 net.cpp:157] Top shape: 8 1024 19 19 (2957312)
I0428 16:27:32.620759  2611 net.cpp:157] Top shape: 8 1024 19 19 (2957312)
I0428 16:27:32.620762  2611 net.cpp:165] Memory required for data: 1863688256
I0428 16:27:32.620767  2611 layer_factory.hpp:77] Creating layer conv6_1
I0428 16:27:32.620779  2611 net.cpp:100] Creating Layer conv6_1
I0428 16:27:32.620785  2611 net.cpp:434] conv6_1 <- fc7_relu7_0_split_0
I0428 16:27:32.620795  2611 net.cpp:408] conv6_1 -> conv6_1
I0428 16:27:32.622717  2611 net.cpp:150] Setting up conv6_1
I0428 16:27:32.622733  2611 net.cpp:157] Top shape: 8 256 19 19 (739328)
I0428 16:27:32.622738  2611 net.cpp:165] Memory required for data: 1866645568
I0428 16:27:32.622747  2611 layer_factory.hpp:77] Creating layer conv6_1_relu
I0428 16:27:32.622757  2611 net.cpp:100] Creating Layer conv6_1_relu
I0428 16:27:32.622763  2611 net.cpp:434] conv6_1_relu <- conv6_1
I0428 16:27:32.622771  2611 net.cpp:395] conv6_1_relu -> conv6_1 (in-place)
I0428 16:27:32.622779  2611 net.cpp:150] Setting up conv6_1_relu
I0428 16:27:32.622786  2611 net.cpp:157] Top shape: 8 256 19 19 (739328)
I0428 16:27:32.622790  2611 net.cpp:165] Memory required for data: 1869602880
I0428 16:27:32.622795  2611 layer_factory.hpp:77] Creating layer conv6_2
I0428 16:27:32.622807  2611 net.cpp:100] Creating Layer conv6_2
I0428 16:27:32.622817  2611 net.cpp:434] conv6_2 <- conv6_1
I0428 16:27:32.622825  2611 net.cpp:408] conv6_2 -> conv6_2
I0428 16:27:32.629688  2611 net.cpp:150] Setting up conv6_2
I0428 16:27:32.629709  2611 net.cpp:157] Top shape: 8 512 10 10 (409600)
I0428 16:27:32.629714  2611 net.cpp:165] Memory required for data: 1871241280
I0428 16:27:32.629730  2611 layer_factory.hpp:77] Creating layer conv6_2_relu
I0428 16:27:32.629740  2611 net.cpp:100] Creating Layer conv6_2_relu
I0428 16:27:32.629745  2611 net.cpp:434] conv6_2_relu <- conv6_2
I0428 16:27:32.629753  2611 net.cpp:395] conv6_2_relu -> conv6_2 (in-place)
I0428 16:27:32.629763  2611 net.cpp:150] Setting up conv6_2_relu
I0428 16:27:32.629792  2611 net.cpp:157] Top shape: 8 512 10 10 (409600)
I0428 16:27:32.629807  2611 net.cpp:165] Memory required for data: 1872879680
I0428 16:27:32.629825  2611 layer_factory.hpp:77] Creating layer conv6_2_conv6_2_relu_0_split
I0428 16:27:32.629850  2611 net.cpp:100] Creating Layer conv6_2_conv6_2_relu_0_split
I0428 16:27:32.629869  2611 net.cpp:434] conv6_2_conv6_2_relu_0_split <- conv6_2
I0428 16:27:32.629894  2611 net.cpp:408] conv6_2_conv6_2_relu_0_split -> conv6_2_conv6_2_relu_0_split_0
I0428 16:27:32.629926  2611 net.cpp:408] conv6_2_conv6_2_relu_0_split -> conv6_2_conv6_2_relu_0_split_1
I0428 16:27:32.629945  2611 net.cpp:408] conv6_2_conv6_2_relu_0_split -> conv6_2_conv6_2_relu_0_split_2
I0428 16:27:32.629952  2611 net.cpp:408] conv6_2_conv6_2_relu_0_split -> conv6_2_conv6_2_relu_0_split_3
I0428 16:27:32.630035  2611 net.cpp:150] Setting up conv6_2_conv6_2_relu_0_split
I0428 16:27:32.630045  2611 net.cpp:157] Top shape: 8 512 10 10 (409600)
I0428 16:27:32.630051  2611 net.cpp:157] Top shape: 8 512 10 10 (409600)
I0428 16:27:32.630056  2611 net.cpp:157] Top shape: 8 512 10 10 (409600)
I0428 16:27:32.630062  2611 net.cpp:157] Top shape: 8 512 10 10 (409600)
I0428 16:27:32.630067  2611 net.cpp:165] Memory required for data: 1879433280
I0428 16:27:32.630071  2611 layer_factory.hpp:77] Creating layer conv7_1
I0428 16:27:32.630085  2611 net.cpp:100] Creating Layer conv7_1
I0428 16:27:32.630092  2611 net.cpp:434] conv7_1 <- conv6_2_conv6_2_relu_0_split_0
I0428 16:27:32.630105  2611 net.cpp:408] conv7_1 -> conv7_1
I0428 16:27:32.630988  2611 net.cpp:150] Setting up conv7_1
I0428 16:27:32.631000  2611 net.cpp:157] Top shape: 8 128 10 10 (102400)
I0428 16:27:32.631005  2611 net.cpp:165] Memory required for data: 1879842880
I0428 16:27:32.631031  2611 layer_factory.hpp:77] Creating layer conv7_1_relu
I0428 16:27:32.631041  2611 net.cpp:100] Creating Layer conv7_1_relu
I0428 16:27:32.631045  2611 net.cpp:434] conv7_1_relu <- conv7_1
I0428 16:27:32.631052  2611 net.cpp:395] conv7_1_relu -> conv7_1 (in-place)
I0428 16:27:32.631074  2611 net.cpp:150] Setting up conv7_1_relu
I0428 16:27:32.631080  2611 net.cpp:157] Top shape: 8 128 10 10 (102400)
I0428 16:27:32.631084  2611 net.cpp:165] Memory required for data: 1880252480
I0428 16:27:32.631088  2611 layer_factory.hpp:77] Creating layer conv7_2
I0428 16:27:32.631099  2611 net.cpp:100] Creating Layer conv7_2
I0428 16:27:32.631108  2611 net.cpp:434] conv7_2 <- conv7_1
I0428 16:27:32.631117  2611 net.cpp:408] conv7_2 -> conv7_2
I0428 16:27:32.633039  2611 net.cpp:150] Setting up conv7_2
I0428 16:27:32.633061  2611 net.cpp:157] Top shape: 8 256 5 5 (51200)
I0428 16:27:32.633069  2611 net.cpp:165] Memory required for data: 1880457280
I0428 16:27:32.633076  2611 layer_factory.hpp:77] Creating layer conv7_2_relu
I0428 16:27:32.633103  2611 net.cpp:100] Creating Layer conv7_2_relu
I0428 16:27:32.633111  2611 net.cpp:434] conv7_2_relu <- conv7_2
I0428 16:27:32.633116  2611 net.cpp:395] conv7_2_relu -> conv7_2 (in-place)
I0428 16:27:32.633124  2611 net.cpp:150] Setting up conv7_2_relu
I0428 16:27:32.633131  2611 net.cpp:157] Top shape: 8 256 5 5 (51200)
I0428 16:27:32.633136  2611 net.cpp:165] Memory required for data: 1880662080
I0428 16:27:32.633139  2611 layer_factory.hpp:77] Creating layer conv7_2_conv7_2_relu_0_split
I0428 16:27:32.633147  2611 net.cpp:100] Creating Layer conv7_2_conv7_2_relu_0_split
I0428 16:27:32.633167  2611 net.cpp:434] conv7_2_conv7_2_relu_0_split <- conv7_2
I0428 16:27:32.633174  2611 net.cpp:408] conv7_2_conv7_2_relu_0_split -> conv7_2_conv7_2_relu_0_split_0
I0428 16:27:32.633183  2611 net.cpp:408] conv7_2_conv7_2_relu_0_split -> conv7_2_conv7_2_relu_0_split_1
I0428 16:27:32.633198  2611 net.cpp:408] conv7_2_conv7_2_relu_0_split -> conv7_2_conv7_2_relu_0_split_2
I0428 16:27:32.633209  2611 net.cpp:408] conv7_2_conv7_2_relu_0_split -> conv7_2_conv7_2_relu_0_split_3
I0428 16:27:32.633275  2611 net.cpp:150] Setting up conv7_2_conv7_2_relu_0_split
I0428 16:27:32.633282  2611 net.cpp:157] Top shape: 8 256 5 5 (51200)
I0428 16:27:32.633288  2611 net.cpp:157] Top shape: 8 256 5 5 (51200)
I0428 16:27:32.633293  2611 net.cpp:157] Top shape: 8 256 5 5 (51200)
I0428 16:27:32.633312  2611 net.cpp:157] Top shape: 8 256 5 5 (51200)
I0428 16:27:32.633316  2611 net.cpp:165] Memory required for data: 1881481280
I0428 16:27:32.633339  2611 layer_factory.hpp:77] Creating layer conv8_1
I0428 16:27:32.633350  2611 net.cpp:100] Creating Layer conv8_1
I0428 16:27:32.633371  2611 net.cpp:434] conv8_1 <- conv7_2_conv7_2_relu_0_split_0
I0428 16:27:32.633381  2611 net.cpp:408] conv8_1 -> conv8_1
I0428 16:27:32.633865  2611 net.cpp:150] Setting up conv8_1
I0428 16:27:32.633874  2611 net.cpp:157] Top shape: 8 128 5 5 (25600)
I0428 16:27:32.633879  2611 net.cpp:165] Memory required for data: 1881583680
I0428 16:27:32.633886  2611 layer_factory.hpp:77] Creating layer conv8_1_relu
I0428 16:27:32.633895  2611 net.cpp:100] Creating Layer conv8_1_relu
I0428 16:27:32.633899  2611 net.cpp:434] conv8_1_relu <- conv8_1
I0428 16:27:32.633906  2611 net.cpp:395] conv8_1_relu -> conv8_1 (in-place)
I0428 16:27:32.633914  2611 net.cpp:150] Setting up conv8_1_relu
I0428 16:27:32.633920  2611 net.cpp:157] Top shape: 8 128 5 5 (25600)
I0428 16:27:32.633924  2611 net.cpp:165] Memory required for data: 1881686080
I0428 16:27:32.633929  2611 layer_factory.hpp:77] Creating layer conv8_2
I0428 16:27:32.633952  2611 net.cpp:100] Creating Layer conv8_2
I0428 16:27:32.633957  2611 net.cpp:434] conv8_2 <- conv8_1
I0428 16:27:32.633965  2611 net.cpp:408] conv8_2 -> conv8_2
I0428 16:27:32.635929  2611 net.cpp:150] Setting up conv8_2
I0428 16:27:32.635944  2611 net.cpp:157] Top shape: 8 256 3 3 (18432)
I0428 16:27:32.635948  2611 net.cpp:165] Memory required for data: 1881759808
I0428 16:27:32.635957  2611 layer_factory.hpp:77] Creating layer conv8_2_relu
I0428 16:27:32.635964  2611 net.cpp:100] Creating Layer conv8_2_relu
I0428 16:27:32.635969  2611 net.cpp:434] conv8_2_relu <- conv8_2
I0428 16:27:32.635977  2611 net.cpp:395] conv8_2_relu -> conv8_2 (in-place)
I0428 16:27:32.635985  2611 net.cpp:150] Setting up conv8_2_relu
I0428 16:27:32.636006  2611 net.cpp:157] Top shape: 8 256 3 3 (18432)
I0428 16:27:32.636010  2611 net.cpp:165] Memory required for data: 1881833536
I0428 16:27:32.636014  2611 layer_factory.hpp:77] Creating layer conv8_2_conv8_2_relu_0_split
I0428 16:27:32.636021  2611 net.cpp:100] Creating Layer conv8_2_conv8_2_relu_0_split
I0428 16:27:32.636028  2611 net.cpp:434] conv8_2_conv8_2_relu_0_split <- conv8_2
I0428 16:27:32.636035  2611 net.cpp:408] conv8_2_conv8_2_relu_0_split -> conv8_2_conv8_2_relu_0_split_0
I0428 16:27:32.636044  2611 net.cpp:408] conv8_2_conv8_2_relu_0_split -> conv8_2_conv8_2_relu_0_split_1
I0428 16:27:32.636054  2611 net.cpp:408] conv8_2_conv8_2_relu_0_split -> conv8_2_conv8_2_relu_0_split_2
I0428 16:27:32.636065  2611 net.cpp:408] conv8_2_conv8_2_relu_0_split -> conv8_2_conv8_2_relu_0_split_3
I0428 16:27:32.636142  2611 net.cpp:150] Setting up conv8_2_conv8_2_relu_0_split
I0428 16:27:32.636149  2611 net.cpp:157] Top shape: 8 256 3 3 (18432)
I0428 16:27:32.636155  2611 net.cpp:157] Top shape: 8 256 3 3 (18432)
I0428 16:27:32.636162  2611 net.cpp:157] Top shape: 8 256 3 3 (18432)
I0428 16:27:32.636167  2611 net.cpp:157] Top shape: 8 256 3 3 (18432)
I0428 16:27:32.636170  2611 net.cpp:165] Memory required for data: 1882128448
I0428 16:27:32.636174  2611 layer_factory.hpp:77] Creating layer conv9_1
I0428 16:27:32.636186  2611 net.cpp:100] Creating Layer conv9_1
I0428 16:27:32.636205  2611 net.cpp:434] conv9_1 <- conv8_2_conv8_2_relu_0_split_0
I0428 16:27:32.636215  2611 net.cpp:408] conv9_1 -> conv9_1
I0428 16:27:32.636584  2611 net.cpp:150] Setting up conv9_1
I0428 16:27:32.636592  2611 net.cpp:157] Top shape: 8 128 3 3 (9216)
I0428 16:27:32.636596  2611 net.cpp:165] Memory required for data: 1882165312
I0428 16:27:32.636622  2611 layer_factory.hpp:77] Creating layer conv9_1_relu
I0428 16:27:32.636628  2611 net.cpp:100] Creating Layer conv9_1_relu
I0428 16:27:32.636634  2611 net.cpp:434] conv9_1_relu <- conv9_1
I0428 16:27:32.636656  2611 net.cpp:395] conv9_1_relu -> conv9_1 (in-place)
I0428 16:27:32.636662  2611 net.cpp:150] Setting up conv9_1_relu
I0428 16:27:32.636669  2611 net.cpp:157] Top shape: 8 128 3 3 (9216)
I0428 16:27:32.636675  2611 net.cpp:165] Memory required for data: 1882202176
I0428 16:27:32.636680  2611 layer_factory.hpp:77] Creating layer conv9_2
I0428 16:27:32.636690  2611 net.cpp:100] Creating Layer conv9_2
I0428 16:27:32.636694  2611 net.cpp:434] conv9_2 <- conv9_1
I0428 16:27:32.636703  2611 net.cpp:408] conv9_2 -> conv9_2
I0428 16:27:32.638810  2611 net.cpp:150] Setting up conv9_2
I0428 16:27:32.638855  2611 net.cpp:157] Top shape: 8 256 1 1 (2048)
I0428 16:27:32.638859  2611 net.cpp:165] Memory required for data: 1882210368
I0428 16:27:32.638897  2611 layer_factory.hpp:77] Creating layer conv9_2_relu
I0428 16:27:32.638907  2611 net.cpp:100] Creating Layer conv9_2_relu
I0428 16:27:32.638913  2611 net.cpp:434] conv9_2_relu <- conv9_2
I0428 16:27:32.638923  2611 net.cpp:395] conv9_2_relu -> conv9_2 (in-place)
I0428 16:27:32.638948  2611 net.cpp:150] Setting up conv9_2_relu
I0428 16:27:32.638954  2611 net.cpp:157] Top shape: 8 256 1 1 (2048)
I0428 16:27:32.638963  2611 net.cpp:165] Memory required for data: 1882218560
I0428 16:27:32.638968  2611 layer_factory.hpp:77] Creating layer conv9_2_conv9_2_relu_0_split
I0428 16:27:32.638975  2611 net.cpp:100] Creating Layer conv9_2_conv9_2_relu_0_split
I0428 16:27:32.638980  2611 net.cpp:434] conv9_2_conv9_2_relu_0_split <- conv9_2
I0428 16:27:32.638988  2611 net.cpp:408] conv9_2_conv9_2_relu_0_split -> conv9_2_conv9_2_relu_0_split_0
I0428 16:27:32.638998  2611 net.cpp:408] conv9_2_conv9_2_relu_0_split -> conv9_2_conv9_2_relu_0_split_1
I0428 16:27:32.639008  2611 net.cpp:408] conv9_2_conv9_2_relu_0_split -> conv9_2_conv9_2_relu_0_split_2
I0428 16:27:32.639088  2611 net.cpp:150] Setting up conv9_2_conv9_2_relu_0_split
I0428 16:27:32.639096  2611 net.cpp:157] Top shape: 8 256 1 1 (2048)
I0428 16:27:32.639101  2611 net.cpp:157] Top shape: 8 256 1 1 (2048)
I0428 16:27:32.639125  2611 net.cpp:157] Top shape: 8 256 1 1 (2048)
I0428 16:27:32.639129  2611 net.cpp:165] Memory required for data: 1882243136
I0428 16:27:32.639133  2611 layer_factory.hpp:77] Creating layer conv4_3_norm
I0428 16:27:32.639156  2611 net.cpp:100] Creating Layer conv4_3_norm
I0428 16:27:32.639163  2611 net.cpp:434] conv4_3_norm <- conv4_3_relu4_3_0_split_1
I0428 16:27:32.639171  2611 net.cpp:408] conv4_3_norm -> conv4_3_norm
I0428 16:27:32.639327  2611 net.cpp:150] Setting up conv4_3_norm
I0428 16:27:32.639333  2611 net.cpp:157] Top shape: 8 512 38 38 (5914624)
I0428 16:27:32.639338  2611 net.cpp:165] Memory required for data: 1905901632
I0428 16:27:32.639364  2611 layer_factory.hpp:77] Creating layer conv4_3_norm_conv4_3_norm_0_split
I0428 16:27:32.639371  2611 net.cpp:100] Creating Layer conv4_3_norm_conv4_3_norm_0_split
I0428 16:27:32.639376  2611 net.cpp:434] conv4_3_norm_conv4_3_norm_0_split <- conv4_3_norm
I0428 16:27:32.639384  2611 net.cpp:408] conv4_3_norm_conv4_3_norm_0_split -> conv4_3_norm_conv4_3_norm_0_split_0
I0428 16:27:32.639392  2611 net.cpp:408] conv4_3_norm_conv4_3_norm_0_split -> conv4_3_norm_conv4_3_norm_0_split_1
I0428 16:27:32.639400  2611 net.cpp:408] conv4_3_norm_conv4_3_norm_0_split -> conv4_3_norm_conv4_3_norm_0_split_2
I0428 16:27:32.639462  2611 net.cpp:150] Setting up conv4_3_norm_conv4_3_norm_0_split
I0428 16:27:32.639469  2611 net.cpp:157] Top shape: 8 512 38 38 (5914624)
I0428 16:27:32.639477  2611 net.cpp:157] Top shape: 8 512 38 38 (5914624)
I0428 16:27:32.639482  2611 net.cpp:157] Top shape: 8 512 38 38 (5914624)
I0428 16:27:32.639498  2611 net.cpp:165] Memory required for data: 1976877120
I0428 16:27:32.639503  2611 layer_factory.hpp:77] Creating layer conv4_3_norm_mbox_loc
I0428 16:27:32.639534  2611 net.cpp:100] Creating Layer conv4_3_norm_mbox_loc
I0428 16:27:32.639540  2611 net.cpp:434] conv4_3_norm_mbox_loc <- conv4_3_norm_conv4_3_norm_0_split_0
I0428 16:27:32.639564  2611 net.cpp:408] conv4_3_norm_mbox_loc -> conv4_3_norm_mbox_loc
I0428 16:27:32.640141  2611 net.cpp:150] Setting up conv4_3_norm_mbox_loc
I0428 16:27:32.640151  2611 net.cpp:157] Top shape: 8 16 38 38 (184832)
I0428 16:27:32.640154  2611 net.cpp:165] Memory required for data: 1977616448
I0428 16:27:32.640180  2611 layer_factory.hpp:77] Creating layer conv4_3_norm_mbox_loc_perm
I0428 16:27:32.640189  2611 net.cpp:100] Creating Layer conv4_3_norm_mbox_loc_perm
I0428 16:27:32.640194  2611 net.cpp:434] conv4_3_norm_mbox_loc_perm <- conv4_3_norm_mbox_loc
I0428 16:27:32.640202  2611 net.cpp:408] conv4_3_norm_mbox_loc_perm -> conv4_3_norm_mbox_loc_perm
I0428 16:27:32.640312  2611 net.cpp:150] Setting up conv4_3_norm_mbox_loc_perm
I0428 16:27:32.640328  2611 net.cpp:157] Top shape: 8 38 38 16 (184832)
I0428 16:27:32.640332  2611 net.cpp:165] Memory required for data: 1978355776
I0428 16:27:32.640355  2611 layer_factory.hpp:77] Creating layer conv4_3_norm_mbox_loc_flat
I0428 16:27:32.640364  2611 net.cpp:100] Creating Layer conv4_3_norm_mbox_loc_flat
I0428 16:27:32.640383  2611 net.cpp:434] conv4_3_norm_mbox_loc_flat <- conv4_3_norm_mbox_loc_perm
I0428 16:27:32.640390  2611 net.cpp:408] conv4_3_norm_mbox_loc_flat -> conv4_3_norm_mbox_loc_flat
I0428 16:27:32.640429  2611 net.cpp:150] Setting up conv4_3_norm_mbox_loc_flat
I0428 16:27:32.640436  2611 net.cpp:157] Top shape: 8 23104 (184832)
I0428 16:27:32.640440  2611 net.cpp:165] Memory required for data: 1979095104
I0428 16:27:32.640445  2611 layer_factory.hpp:77] Creating layer conv4_3_norm_mbox_conf
I0428 16:27:32.640496  2611 net.cpp:100] Creating Layer conv4_3_norm_mbox_conf
I0428 16:27:32.640501  2611 net.cpp:434] conv4_3_norm_mbox_conf <- conv4_3_norm_conv4_3_norm_0_split_1
I0428 16:27:32.640522  2611 net.cpp:408] conv4_3_norm_mbox_conf -> conv4_3_norm_mbox_conf
I0428 16:27:32.642948  2611 net.cpp:150] Setting up conv4_3_norm_mbox_conf
I0428 16:27:32.642964  2611 net.cpp:157] Top shape: 8 84 38 38 (970368)
I0428 16:27:32.642968  2611 net.cpp:165] Memory required for data: 1982976576
I0428 16:27:32.642995  2611 layer_factory.hpp:77] Creating layer conv4_3_norm_mbox_conf_perm
I0428 16:27:32.643004  2611 net.cpp:100] Creating Layer conv4_3_norm_mbox_conf_perm
I0428 16:27:32.643012  2611 net.cpp:434] conv4_3_norm_mbox_conf_perm <- conv4_3_norm_mbox_conf
I0428 16:27:32.643034  2611 net.cpp:408] conv4_3_norm_mbox_conf_perm -> conv4_3_norm_mbox_conf_perm
I0428 16:27:32.643142  2611 net.cpp:150] Setting up conv4_3_norm_mbox_conf_perm
I0428 16:27:32.643151  2611 net.cpp:157] Top shape: 8 38 38 84 (970368)
I0428 16:27:32.643157  2611 net.cpp:165] Memory required for data: 1986858048
I0428 16:27:32.643178  2611 layer_factory.hpp:77] Creating layer conv4_3_norm_mbox_conf_flat
I0428 16:27:32.643185  2611 net.cpp:100] Creating Layer conv4_3_norm_mbox_conf_flat
I0428 16:27:32.643190  2611 net.cpp:434] conv4_3_norm_mbox_conf_flat <- conv4_3_norm_mbox_conf_perm
I0428 16:27:32.643199  2611 net.cpp:408] conv4_3_norm_mbox_conf_flat -> conv4_3_norm_mbox_conf_flat
I0428 16:27:32.643225  2611 net.cpp:150] Setting up conv4_3_norm_mbox_conf_flat
I0428 16:27:32.643250  2611 net.cpp:157] Top shape: 8 121296 (970368)
I0428 16:27:32.643254  2611 net.cpp:165] Memory required for data: 1990739520
I0428 16:27:32.643277  2611 layer_factory.hpp:77] Creating layer conv4_3_norm_mbox_priorbox
I0428 16:27:32.643286  2611 net.cpp:100] Creating Layer conv4_3_norm_mbox_priorbox
I0428 16:27:32.643291  2611 net.cpp:434] conv4_3_norm_mbox_priorbox <- conv4_3_norm_conv4_3_norm_0_split_2
I0428 16:27:32.643297  2611 net.cpp:434] conv4_3_norm_mbox_priorbox <- data_data_0_split_1
I0428 16:27:32.643307  2611 net.cpp:408] conv4_3_norm_mbox_priorbox -> conv4_3_norm_mbox_priorbox
I0428 16:27:32.643352  2611 net.cpp:150] Setting up conv4_3_norm_mbox_priorbox
I0428 16:27:32.643362  2611 net.cpp:157] Top shape: 1 2 23104 (46208)
I0428 16:27:32.643365  2611 net.cpp:165] Memory required for data: 1990924352
I0428 16:27:32.643370  2611 layer_factory.hpp:77] Creating layer fc7_mbox_loc
I0428 16:27:32.643381  2611 net.cpp:100] Creating Layer fc7_mbox_loc
I0428 16:27:32.643388  2611 net.cpp:434] fc7_mbox_loc <- fc7_relu7_0_split_1
I0428 16:27:32.643414  2611 net.cpp:408] fc7_mbox_loc -> fc7_mbox_loc
I0428 16:27:32.644970  2611 net.cpp:150] Setting up fc7_mbox_loc
I0428 16:27:32.644981  2611 net.cpp:157] Top shape: 8 24 19 19 (69312)
I0428 16:27:32.644985  2611 net.cpp:165] Memory required for data: 1991201600
I0428 16:27:32.645011  2611 layer_factory.hpp:77] Creating layer fc7_mbox_loc_perm
I0428 16:27:32.645025  2611 net.cpp:100] Creating Layer fc7_mbox_loc_perm
I0428 16:27:32.645030  2611 net.cpp:434] fc7_mbox_loc_perm <- fc7_mbox_loc
I0428 16:27:32.645037  2611 net.cpp:408] fc7_mbox_loc_perm -> fc7_mbox_loc_perm
I0428 16:27:32.645160  2611 net.cpp:150] Setting up fc7_mbox_loc_perm
I0428 16:27:32.645169  2611 net.cpp:157] Top shape: 8 19 19 24 (69312)
I0428 16:27:32.645174  2611 net.cpp:165] Memory required for data: 1991478848
I0428 16:27:32.645177  2611 layer_factory.hpp:77] Creating layer fc7_mbox_loc_flat
I0428 16:27:32.645184  2611 net.cpp:100] Creating Layer fc7_mbox_loc_flat
I0428 16:27:32.645190  2611 net.cpp:434] fc7_mbox_loc_flat <- fc7_mbox_loc_perm
I0428 16:27:32.645217  2611 net.cpp:408] fc7_mbox_loc_flat -> fc7_mbox_loc_flat
I0428 16:27:32.645246  2611 net.cpp:150] Setting up fc7_mbox_loc_flat
I0428 16:27:32.645268  2611 net.cpp:157] Top shape: 8 8664 (69312)
I0428 16:27:32.645273  2611 net.cpp:165] Memory required for data: 1991756096
I0428 16:27:32.645297  2611 layer_factory.hpp:77] Creating layer fc7_mbox_conf
I0428 16:27:32.645308  2611 net.cpp:100] Creating Layer fc7_mbox_conf
I0428 16:27:32.645313  2611 net.cpp:434] fc7_mbox_conf <- fc7_relu7_0_split_2
I0428 16:27:32.645321  2611 net.cpp:408] fc7_mbox_conf -> fc7_mbox_conf
I0428 16:27:32.652081  2611 net.cpp:150] Setting up fc7_mbox_conf
I0428 16:27:32.652101  2611 net.cpp:157] Top shape: 8 126 19 19 (363888)
I0428 16:27:32.652106  2611 net.cpp:165] Memory required for data: 1993211648
I0428 16:27:32.652115  2611 layer_factory.hpp:77] Creating layer fc7_mbox_conf_perm
I0428 16:27:32.652127  2611 net.cpp:100] Creating Layer fc7_mbox_conf_perm
I0428 16:27:32.652133  2611 net.cpp:434] fc7_mbox_conf_perm <- fc7_mbox_conf
I0428 16:27:32.652142  2611 net.cpp:408] fc7_mbox_conf_perm -> fc7_mbox_conf_perm
I0428 16:27:32.652243  2611 net.cpp:150] Setting up fc7_mbox_conf_perm
I0428 16:27:32.652251  2611 net.cpp:157] Top shape: 8 19 19 126 (363888)
I0428 16:27:32.652256  2611 net.cpp:165] Memory required for data: 1994667200
I0428 16:27:32.652259  2611 layer_factory.hpp:77] Creating layer fc7_mbox_conf_flat
I0428 16:27:32.652267  2611 net.cpp:100] Creating Layer fc7_mbox_conf_flat
I0428 16:27:32.652272  2611 net.cpp:434] fc7_mbox_conf_flat <- fc7_mbox_conf_perm
I0428 16:27:32.652281  2611 net.cpp:408] fc7_mbox_conf_flat -> fc7_mbox_conf_flat
I0428 16:27:32.652309  2611 net.cpp:150] Setting up fc7_mbox_conf_flat
I0428 16:27:32.652318  2611 net.cpp:157] Top shape: 8 45486 (363888)
I0428 16:27:32.652320  2611 net.cpp:165] Memory required for data: 1996122752
I0428 16:27:32.652325  2611 layer_factory.hpp:77] Creating layer fc7_mbox_priorbox
I0428 16:27:32.652333  2611 net.cpp:100] Creating Layer fc7_mbox_priorbox
I0428 16:27:32.652338  2611 net.cpp:434] fc7_mbox_priorbox <- fc7_relu7_0_split_3
I0428 16:27:32.652345  2611 net.cpp:434] fc7_mbox_priorbox <- data_data_0_split_2
I0428 16:27:32.652354  2611 net.cpp:408] fc7_mbox_priorbox -> fc7_mbox_priorbox
I0428 16:27:32.652384  2611 net.cpp:150] Setting up fc7_mbox_priorbox
I0428 16:27:32.652392  2611 net.cpp:157] Top shape: 1 2 8664 (17328)
I0428 16:27:32.652396  2611 net.cpp:165] Memory required for data: 1996192064
I0428 16:27:32.652400  2611 layer_factory.hpp:77] Creating layer conv6_2_mbox_loc
I0428 16:27:32.652412  2611 net.cpp:100] Creating Layer conv6_2_mbox_loc
I0428 16:27:32.652421  2611 net.cpp:434] conv6_2_mbox_loc <- conv6_2_conv6_2_relu_0_split_1
I0428 16:27:32.652432  2611 net.cpp:408] conv6_2_mbox_loc -> conv6_2_mbox_loc
I0428 16:27:32.653571  2611 net.cpp:150] Setting up conv6_2_mbox_loc
I0428 16:27:32.653584  2611 net.cpp:157] Top shape: 8 24 10 10 (19200)
I0428 16:27:32.653589  2611 net.cpp:165] Memory required for data: 1996268864
I0428 16:27:32.653597  2611 layer_factory.hpp:77] Creating layer conv6_2_mbox_loc_perm
I0428 16:27:32.653606  2611 net.cpp:100] Creating Layer conv6_2_mbox_loc_perm
I0428 16:27:32.653611  2611 net.cpp:434] conv6_2_mbox_loc_perm <- conv6_2_mbox_loc
I0428 16:27:32.653622  2611 net.cpp:408] conv6_2_mbox_loc_perm -> conv6_2_mbox_loc_perm
I0428 16:27:32.653761  2611 net.cpp:150] Setting up conv6_2_mbox_loc_perm
I0428 16:27:32.653775  2611 net.cpp:157] Top shape: 8 10 10 24 (19200)
I0428 16:27:32.653780  2611 net.cpp:165] Memory required for data: 1996345664
I0428 16:27:32.653785  2611 layer_factory.hpp:77] Creating layer conv6_2_mbox_loc_flat
I0428 16:27:32.653806  2611 net.cpp:100] Creating Layer conv6_2_mbox_loc_flat
I0428 16:27:32.653811  2611 net.cpp:434] conv6_2_mbox_loc_flat <- conv6_2_mbox_loc_perm
I0428 16:27:32.653821  2611 net.cpp:408] conv6_2_mbox_loc_flat -> conv6_2_mbox_loc_flat
I0428 16:27:32.653853  2611 net.cpp:150] Setting up conv6_2_mbox_loc_flat
I0428 16:27:32.653861  2611 net.cpp:157] Top shape: 8 2400 (19200)
I0428 16:27:32.653865  2611 net.cpp:165] Memory required for data: 1996422464
I0428 16:27:32.653869  2611 layer_factory.hpp:77] Creating layer conv6_2_mbox_conf
I0428 16:27:32.653885  2611 net.cpp:100] Creating Layer conv6_2_mbox_conf
I0428 16:27:32.653892  2611 net.cpp:434] conv6_2_mbox_conf <- conv6_2_conv6_2_relu_0_split_2
I0428 16:27:32.653901  2611 net.cpp:408] conv6_2_mbox_conf -> conv6_2_mbox_conf
I0428 16:27:32.657539  2611 net.cpp:150] Setting up conv6_2_mbox_conf
I0428 16:27:32.657562  2611 net.cpp:157] Top shape: 8 126 10 10 (100800)
I0428 16:27:32.657567  2611 net.cpp:165] Memory required for data: 1996825664
I0428 16:27:32.657577  2611 layer_factory.hpp:77] Creating layer conv6_2_mbox_conf_perm
I0428 16:27:32.657608  2611 net.cpp:100] Creating Layer conv6_2_mbox_conf_perm
I0428 16:27:32.657629  2611 net.cpp:434] conv6_2_mbox_conf_perm <- conv6_2_mbox_conf
I0428 16:27:32.657636  2611 net.cpp:408] conv6_2_mbox_conf_perm -> conv6_2_mbox_conf_perm
I0428 16:27:32.657749  2611 net.cpp:150] Setting up conv6_2_mbox_conf_perm
I0428 16:27:32.657757  2611 net.cpp:157] Top shape: 8 10 10 126 (100800)
I0428 16:27:32.657763  2611 net.cpp:165] Memory required for data: 1997228864
I0428 16:27:32.657766  2611 layer_factory.hpp:77] Creating layer conv6_2_mbox_conf_flat
I0428 16:27:32.657791  2611 net.cpp:100] Creating Layer conv6_2_mbox_conf_flat
I0428 16:27:32.657796  2611 net.cpp:434] conv6_2_mbox_conf_flat <- conv6_2_mbox_conf_perm
I0428 16:27:32.657805  2611 net.cpp:408] conv6_2_mbox_conf_flat -> conv6_2_mbox_conf_flat
I0428 16:27:32.657833  2611 net.cpp:150] Setting up conv6_2_mbox_conf_flat
I0428 16:27:32.657856  2611 net.cpp:157] Top shape: 8 12600 (100800)
I0428 16:27:32.657860  2611 net.cpp:165] Memory required for data: 1997632064
I0428 16:27:32.657866  2611 layer_factory.hpp:77] Creating layer conv6_2_mbox_priorbox
I0428 16:27:32.657891  2611 net.cpp:100] Creating Layer conv6_2_mbox_priorbox
I0428 16:27:32.657896  2611 net.cpp:434] conv6_2_mbox_priorbox <- conv6_2_conv6_2_relu_0_split_3
I0428 16:27:32.657903  2611 net.cpp:434] conv6_2_mbox_priorbox <- data_data_0_split_3
I0428 16:27:32.657913  2611 net.cpp:408] conv6_2_mbox_priorbox -> conv6_2_mbox_priorbox
I0428 16:27:32.657958  2611 net.cpp:150] Setting up conv6_2_mbox_priorbox
I0428 16:27:32.657965  2611 net.cpp:157] Top shape: 1 2 2400 (4800)
I0428 16:27:32.657968  2611 net.cpp:165] Memory required for data: 1997651264
I0428 16:27:32.657974  2611 layer_factory.hpp:77] Creating layer conv7_2_mbox_loc
I0428 16:27:32.657986  2611 net.cpp:100] Creating Layer conv7_2_mbox_loc
I0428 16:27:32.657991  2611 net.cpp:434] conv7_2_mbox_loc <- conv7_2_conv7_2_relu_0_split_1
I0428 16:27:32.658000  2611 net.cpp:408] conv7_2_mbox_loc -> conv7_2_mbox_loc
I0428 16:27:32.658509  2611 net.cpp:150] Setting up conv7_2_mbox_loc
I0428 16:27:32.658516  2611 net.cpp:157] Top shape: 8 24 5 5 (4800)
I0428 16:27:32.658520  2611 net.cpp:165] Memory required for data: 1997670464
I0428 16:27:32.658527  2611 layer_factory.hpp:77] Creating layer conv7_2_mbox_loc_perm
I0428 16:27:32.658553  2611 net.cpp:100] Creating Layer conv7_2_mbox_loc_perm
I0428 16:27:32.658558  2611 net.cpp:434] conv7_2_mbox_loc_perm <- conv7_2_mbox_loc
I0428 16:27:32.658565  2611 net.cpp:408] conv7_2_mbox_loc_perm -> conv7_2_mbox_loc_perm
I0428 16:27:32.658687  2611 net.cpp:150] Setting up conv7_2_mbox_loc_perm
I0428 16:27:32.658694  2611 net.cpp:157] Top shape: 8 5 5 24 (4800)
I0428 16:27:32.658699  2611 net.cpp:165] Memory required for data: 1997689664
I0428 16:27:32.658702  2611 layer_factory.hpp:77] Creating layer conv7_2_mbox_loc_flat
I0428 16:27:32.658728  2611 net.cpp:100] Creating Layer conv7_2_mbox_loc_flat
I0428 16:27:32.658747  2611 net.cpp:434] conv7_2_mbox_loc_flat <- conv7_2_mbox_loc_perm
I0428 16:27:32.658756  2611 net.cpp:408] conv7_2_mbox_loc_flat -> conv7_2_mbox_loc_flat
I0428 16:27:32.658782  2611 net.cpp:150] Setting up conv7_2_mbox_loc_flat
I0428 16:27:32.658804  2611 net.cpp:157] Top shape: 8 600 (4800)
I0428 16:27:32.658808  2611 net.cpp:165] Memory required for data: 1997708864
I0428 16:27:32.658812  2611 layer_factory.hpp:77] Creating layer conv7_2_mbox_conf
I0428 16:27:32.658841  2611 net.cpp:100] Creating Layer conv7_2_mbox_conf
I0428 16:27:32.658846  2611 net.cpp:434] conv7_2_mbox_conf <- conv7_2_conv7_2_relu_0_split_2
I0428 16:27:32.658856  2611 net.cpp:408] conv7_2_mbox_conf -> conv7_2_mbox_conf
I0428 16:27:32.660820  2611 net.cpp:150] Setting up conv7_2_mbox_conf
I0428 16:27:32.660835  2611 net.cpp:157] Top shape: 8 126 5 5 (25200)
I0428 16:27:32.660840  2611 net.cpp:165] Memory required for data: 1997809664
I0428 16:27:32.660848  2611 layer_factory.hpp:77] Creating layer conv7_2_mbox_conf_perm
I0428 16:27:32.660876  2611 net.cpp:100] Creating Layer conv7_2_mbox_conf_perm
I0428 16:27:32.660881  2611 net.cpp:434] conv7_2_mbox_conf_perm <- conv7_2_mbox_conf
I0428 16:27:32.660892  2611 net.cpp:408] conv7_2_mbox_conf_perm -> conv7_2_mbox_conf_perm
I0428 16:27:32.661017  2611 net.cpp:150] Setting up conv7_2_mbox_conf_perm
I0428 16:27:32.661026  2611 net.cpp:157] Top shape: 8 5 5 126 (25200)
I0428 16:27:32.661029  2611 net.cpp:165] Memory required for data: 1997910464
I0428 16:27:32.661033  2611 layer_factory.hpp:77] Creating layer conv7_2_mbox_conf_flat
I0428 16:27:32.661041  2611 net.cpp:100] Creating Layer conv7_2_mbox_conf_flat
I0428 16:27:32.661064  2611 net.cpp:434] conv7_2_mbox_conf_flat <- conv7_2_mbox_conf_perm
I0428 16:27:32.661073  2611 net.cpp:408] conv7_2_mbox_conf_flat -> conv7_2_mbox_conf_flat
I0428 16:27:32.661114  2611 net.cpp:150] Setting up conv7_2_mbox_conf_flat
I0428 16:27:32.661134  2611 net.cpp:157] Top shape: 8 3150 (25200)
I0428 16:27:32.661137  2611 net.cpp:165] Memory required for data: 1998011264
I0428 16:27:32.661141  2611 layer_factory.hpp:77] Creating layer conv7_2_mbox_priorbox
I0428 16:27:32.661168  2611 net.cpp:100] Creating Layer conv7_2_mbox_priorbox
I0428 16:27:32.661175  2611 net.cpp:434] conv7_2_mbox_priorbox <- conv7_2_conv7_2_relu_0_split_3
I0428 16:27:32.661195  2611 net.cpp:434] conv7_2_mbox_priorbox <- data_data_0_split_4
I0428 16:27:32.661206  2611 net.cpp:408] conv7_2_mbox_priorbox -> conv7_2_mbox_priorbox
I0428 16:27:32.661237  2611 net.cpp:150] Setting up conv7_2_mbox_priorbox
I0428 16:27:32.661244  2611 net.cpp:157] Top shape: 1 2 600 (1200)
I0428 16:27:32.661247  2611 net.cpp:165] Memory required for data: 1998016064
I0428 16:27:32.661265  2611 layer_factory.hpp:77] Creating layer conv8_2_mbox_loc
I0428 16:27:32.661278  2611 net.cpp:100] Creating Layer conv8_2_mbox_loc
I0428 16:27:32.661283  2611 net.cpp:434] conv8_2_mbox_loc <- conv8_2_conv8_2_relu_0_split_1
I0428 16:27:32.661293  2611 net.cpp:408] conv8_2_mbox_loc -> conv8_2_mbox_loc
I0428 16:27:32.661713  2611 net.cpp:150] Setting up conv8_2_mbox_loc
I0428 16:27:32.661722  2611 net.cpp:157] Top shape: 8 16 3 3 (1152)
I0428 16:27:32.661748  2611 net.cpp:165] Memory required for data: 1998020672
I0428 16:27:32.661788  2611 layer_factory.hpp:77] Creating layer conv8_2_mbox_loc_perm
I0428 16:27:32.661798  2611 net.cpp:100] Creating Layer conv8_2_mbox_loc_perm
I0428 16:27:32.661803  2611 net.cpp:434] conv8_2_mbox_loc_perm <- conv8_2_mbox_loc
I0428 16:27:32.661815  2611 net.cpp:408] conv8_2_mbox_loc_perm -> conv8_2_mbox_loc_perm
I0428 16:27:32.662037  2611 net.cpp:150] Setting up conv8_2_mbox_loc_perm
I0428 16:27:32.662062  2611 net.cpp:157] Top shape: 8 3 3 16 (1152)
I0428 16:27:32.662066  2611 net.cpp:165] Memory required for data: 1998025280
I0428 16:27:32.662071  2611 layer_factory.hpp:77] Creating layer conv8_2_mbox_loc_flat
I0428 16:27:32.662092  2611 net.cpp:100] Creating Layer conv8_2_mbox_loc_flat
I0428 16:27:32.662098  2611 net.cpp:434] conv8_2_mbox_loc_flat <- conv8_2_mbox_loc_perm
I0428 16:27:32.662117  2611 net.cpp:408] conv8_2_mbox_loc_flat -> conv8_2_mbox_loc_flat
I0428 16:27:32.662173  2611 net.cpp:150] Setting up conv8_2_mbox_loc_flat
I0428 16:27:32.662180  2611 net.cpp:157] Top shape: 8 144 (1152)
I0428 16:27:32.662184  2611 net.cpp:165] Memory required for data: 1998029888
I0428 16:27:32.662189  2611 layer_factory.hpp:77] Creating layer conv8_2_mbox_conf
I0428 16:27:32.662200  2611 net.cpp:100] Creating Layer conv8_2_mbox_conf
I0428 16:27:32.662205  2611 net.cpp:434] conv8_2_mbox_conf <- conv8_2_conv8_2_relu_0_split_2
I0428 16:27:32.662230  2611 net.cpp:408] conv8_2_mbox_conf -> conv8_2_mbox_conf
I0428 16:27:32.663868  2611 net.cpp:150] Setting up conv8_2_mbox_conf
I0428 16:27:32.663882  2611 net.cpp:157] Top shape: 8 84 3 3 (6048)
I0428 16:27:32.663885  2611 net.cpp:165] Memory required for data: 1998054080
I0428 16:27:32.663893  2611 layer_factory.hpp:77] Creating layer conv8_2_mbox_conf_perm
I0428 16:27:32.663903  2611 net.cpp:100] Creating Layer conv8_2_mbox_conf_perm
I0428 16:27:32.663909  2611 net.cpp:434] conv8_2_mbox_conf_perm <- conv8_2_mbox_conf
I0428 16:27:32.663918  2611 net.cpp:408] conv8_2_mbox_conf_perm -> conv8_2_mbox_conf_perm
I0428 16:27:32.664031  2611 net.cpp:150] Setting up conv8_2_mbox_conf_perm
I0428 16:27:32.664037  2611 net.cpp:157] Top shape: 8 3 3 84 (6048)
I0428 16:27:32.664042  2611 net.cpp:165] Memory required for data: 1998078272
I0428 16:27:32.664064  2611 layer_factory.hpp:77] Creating layer conv8_2_mbox_conf_flat
I0428 16:27:32.664072  2611 net.cpp:100] Creating Layer conv8_2_mbox_conf_flat
I0428 16:27:32.664077  2611 net.cpp:434] conv8_2_mbox_conf_flat <- conv8_2_mbox_conf_perm
I0428 16:27:32.664099  2611 net.cpp:408] conv8_2_mbox_conf_flat -> conv8_2_mbox_conf_flat
I0428 16:27:32.664126  2611 net.cpp:150] Setting up conv8_2_mbox_conf_flat
I0428 16:27:32.664134  2611 net.cpp:157] Top shape: 8 756 (6048)
I0428 16:27:32.664137  2611 net.cpp:165] Memory required for data: 1998102464
I0428 16:27:32.664142  2611 layer_factory.hpp:77] Creating layer conv8_2_mbox_priorbox
I0428 16:27:32.664149  2611 net.cpp:100] Creating Layer conv8_2_mbox_priorbox
I0428 16:27:32.664155  2611 net.cpp:434] conv8_2_mbox_priorbox <- conv8_2_conv8_2_relu_0_split_3
I0428 16:27:32.664160  2611 net.cpp:434] conv8_2_mbox_priorbox <- data_data_0_split_5
I0428 16:27:32.664185  2611 net.cpp:408] conv8_2_mbox_priorbox -> conv8_2_mbox_priorbox
I0428 16:27:32.664228  2611 net.cpp:150] Setting up conv8_2_mbox_priorbox
I0428 16:27:32.664235  2611 net.cpp:157] Top shape: 1 2 144 (288)
I0428 16:27:32.664253  2611 net.cpp:165] Memory required for data: 1998103616
I0428 16:27:32.664258  2611 layer_factory.hpp:77] Creating layer conv9_2_mbox_loc
I0428 16:27:32.664269  2611 net.cpp:100] Creating Layer conv9_2_mbox_loc
I0428 16:27:32.664274  2611 net.cpp:434] conv9_2_mbox_loc <- conv9_2_conv9_2_relu_0_split_0
I0428 16:27:32.664284  2611 net.cpp:408] conv9_2_mbox_loc -> conv9_2_mbox_loc
I0428 16:27:32.664705  2611 net.cpp:150] Setting up conv9_2_mbox_loc
I0428 16:27:32.664713  2611 net.cpp:157] Top shape: 8 16 1 1 (128)
I0428 16:27:32.664717  2611 net.cpp:165] Memory required for data: 1998104128
I0428 16:27:32.664724  2611 layer_factory.hpp:77] Creating layer conv9_2_mbox_loc_perm
I0428 16:27:32.664734  2611 net.cpp:100] Creating Layer conv9_2_mbox_loc_perm
I0428 16:27:32.664739  2611 net.cpp:434] conv9_2_mbox_loc_perm <- conv9_2_mbox_loc
I0428 16:27:32.664760  2611 net.cpp:408] conv9_2_mbox_loc_perm -> conv9_2_mbox_loc_perm
I0428 16:27:32.664854  2611 net.cpp:150] Setting up conv9_2_mbox_loc_perm
I0428 16:27:32.664861  2611 net.cpp:157] Top shape: 8 1 1 16 (128)
I0428 16:27:32.664865  2611 net.cpp:165] Memory required for data: 1998104640
I0428 16:27:32.664870  2611 layer_factory.hpp:77] Creating layer conv9_2_mbox_loc_flat
I0428 16:27:32.664877  2611 net.cpp:100] Creating Layer conv9_2_mbox_loc_flat
I0428 16:27:32.664882  2611 net.cpp:434] conv9_2_mbox_loc_flat <- conv9_2_mbox_loc_perm
I0428 16:27:32.664890  2611 net.cpp:408] conv9_2_mbox_loc_flat -> conv9_2_mbox_loc_flat
I0428 16:27:32.664930  2611 net.cpp:150] Setting up conv9_2_mbox_loc_flat
I0428 16:27:32.664937  2611 net.cpp:157] Top shape: 8 16 (128)
I0428 16:27:32.664942  2611 net.cpp:165] Memory required for data: 1998105152
I0428 16:27:32.664947  2611 layer_factory.hpp:77] Creating layer conv9_2_mbox_conf
I0428 16:27:32.664958  2611 net.cpp:100] Creating Layer conv9_2_mbox_conf
I0428 16:27:32.664963  2611 net.cpp:434] conv9_2_mbox_conf <- conv9_2_conv9_2_relu_0_split_1
I0428 16:27:32.664973  2611 net.cpp:408] conv9_2_mbox_conf -> conv9_2_mbox_conf
I0428 16:27:32.666839  2611 net.cpp:150] Setting up conv9_2_mbox_conf
I0428 16:27:32.666851  2611 net.cpp:157] Top shape: 8 84 1 1 (672)
I0428 16:27:32.666854  2611 net.cpp:165] Memory required for data: 1998107840
I0428 16:27:32.666887  2611 layer_factory.hpp:77] Creating layer conv9_2_mbox_conf_perm
I0428 16:27:32.666895  2611 net.cpp:100] Creating Layer conv9_2_mbox_conf_perm
I0428 16:27:32.666900  2611 net.cpp:434] conv9_2_mbox_conf_perm <- conv9_2_mbox_conf
I0428 16:27:32.666910  2611 net.cpp:408] conv9_2_mbox_conf_perm -> conv9_2_mbox_conf_perm
I0428 16:27:32.667033  2611 net.cpp:150] Setting up conv9_2_mbox_conf_perm
I0428 16:27:32.667042  2611 net.cpp:157] Top shape: 8 1 1 84 (672)
I0428 16:27:32.667047  2611 net.cpp:165] Memory required for data: 1998110528
I0428 16:27:32.667068  2611 layer_factory.hpp:77] Creating layer conv9_2_mbox_conf_flat
I0428 16:27:32.667076  2611 net.cpp:100] Creating Layer conv9_2_mbox_conf_flat
I0428 16:27:32.667094  2611 net.cpp:434] conv9_2_mbox_conf_flat <- conv9_2_mbox_conf_perm
I0428 16:27:32.667102  2611 net.cpp:408] conv9_2_mbox_conf_flat -> conv9_2_mbox_conf_flat
I0428 16:27:32.667129  2611 net.cpp:150] Setting up conv9_2_mbox_conf_flat
I0428 16:27:32.667137  2611 net.cpp:157] Top shape: 8 84 (672)
I0428 16:27:32.667141  2611 net.cpp:165] Memory required for data: 1998113216
I0428 16:27:32.667145  2611 layer_factory.hpp:77] Creating layer conv9_2_mbox_priorbox
I0428 16:27:32.667152  2611 net.cpp:100] Creating Layer conv9_2_mbox_priorbox
I0428 16:27:32.667158  2611 net.cpp:434] conv9_2_mbox_priorbox <- conv9_2_conv9_2_relu_0_split_2
I0428 16:27:32.667165  2611 net.cpp:434] conv9_2_mbox_priorbox <- data_data_0_split_6
I0428 16:27:32.667196  2611 net.cpp:408] conv9_2_mbox_priorbox -> conv9_2_mbox_priorbox
I0428 16:27:32.667239  2611 net.cpp:150] Setting up conv9_2_mbox_priorbox
I0428 16:27:32.667261  2611 net.cpp:157] Top shape: 1 2 16 (32)
I0428 16:27:32.667265  2611 net.cpp:165] Memory required for data: 1998113344
I0428 16:27:32.667287  2611 layer_factory.hpp:77] Creating layer mbox_loc
I0428 16:27:32.667295  2611 net.cpp:100] Creating Layer mbox_loc
I0428 16:27:32.667315  2611 net.cpp:434] mbox_loc <- conv4_3_norm_mbox_loc_flat
I0428 16:27:32.667322  2611 net.cpp:434] mbox_loc <- fc7_mbox_loc_flat
I0428 16:27:32.667328  2611 net.cpp:434] mbox_loc <- conv6_2_mbox_loc_flat
I0428 16:27:32.667335  2611 net.cpp:434] mbox_loc <- conv7_2_mbox_loc_flat
I0428 16:27:32.667343  2611 net.cpp:434] mbox_loc <- conv8_2_mbox_loc_flat
I0428 16:27:32.667348  2611 net.cpp:434] mbox_loc <- conv9_2_mbox_loc_flat
I0428 16:27:32.667356  2611 net.cpp:408] mbox_loc -> mbox_loc
I0428 16:27:32.667384  2611 net.cpp:150] Setting up mbox_loc
I0428 16:27:32.667392  2611 net.cpp:157] Top shape: 8 34928 (279424)
I0428 16:27:32.667397  2611 net.cpp:165] Memory required for data: 1999231040
I0428 16:27:32.667400  2611 layer_factory.hpp:77] Creating layer mbox_conf
I0428 16:27:32.667407  2611 net.cpp:100] Creating Layer mbox_conf
I0428 16:27:32.667412  2611 net.cpp:434] mbox_conf <- conv4_3_norm_mbox_conf_flat
I0428 16:27:32.667418  2611 net.cpp:434] mbox_conf <- fc7_mbox_conf_flat
I0428 16:27:32.667424  2611 net.cpp:434] mbox_conf <- conv6_2_mbox_conf_flat
I0428 16:27:32.667430  2611 net.cpp:434] mbox_conf <- conv7_2_mbox_conf_flat
I0428 16:27:32.667436  2611 net.cpp:434] mbox_conf <- conv8_2_mbox_conf_flat
I0428 16:27:32.667441  2611 net.cpp:434] mbox_conf <- conv9_2_mbox_conf_flat
I0428 16:27:32.667448  2611 net.cpp:408] mbox_conf -> mbox_conf
I0428 16:27:32.667476  2611 net.cpp:150] Setting up mbox_conf
I0428 16:27:32.667492  2611 net.cpp:157] Top shape: 8 183372 (1466976)
I0428 16:27:32.667496  2611 net.cpp:165] Memory required for data: 2005098944
I0428 16:27:32.667500  2611 layer_factory.hpp:77] Creating layer mbox_priorbox
I0428 16:27:32.667507  2611 net.cpp:100] Creating Layer mbox_priorbox
I0428 16:27:32.667513  2611 net.cpp:434] mbox_priorbox <- conv4_3_norm_mbox_priorbox
I0428 16:27:32.667520  2611 net.cpp:434] mbox_priorbox <- fc7_mbox_priorbox
I0428 16:27:32.667546  2611 net.cpp:434] mbox_priorbox <- conv6_2_mbox_priorbox
I0428 16:27:32.667552  2611 net.cpp:434] mbox_priorbox <- conv7_2_mbox_priorbox
I0428 16:27:32.667557  2611 net.cpp:434] mbox_priorbox <- conv8_2_mbox_priorbox
I0428 16:27:32.667562  2611 net.cpp:434] mbox_priorbox <- conv9_2_mbox_priorbox
I0428 16:27:32.667569  2611 net.cpp:408] mbox_priorbox -> mbox_priorbox
I0428 16:27:32.667611  2611 net.cpp:150] Setting up mbox_priorbox
I0428 16:27:32.667618  2611 net.cpp:157] Top shape: 1 2 34928 (69856)
I0428 16:27:32.667623  2611 net.cpp:165] Memory required for data: 2005378368
I0428 16:27:32.667626  2611 layer_factory.hpp:77] Creating layer mbox_conf_reshape
I0428 16:27:32.667635  2611 net.cpp:100] Creating Layer mbox_conf_reshape
I0428 16:27:32.667640  2611 net.cpp:434] mbox_conf_reshape <- mbox_conf
I0428 16:27:32.667649  2611 net.cpp:408] mbox_conf_reshape -> mbox_conf_reshape
I0428 16:27:32.667708  2611 net.cpp:150] Setting up mbox_conf_reshape
I0428 16:27:32.667716  2611 net.cpp:157] Top shape: 8 8732 21 (1466976)
I0428 16:27:32.667721  2611 net.cpp:165] Memory required for data: 2011246272
I0428 16:27:32.667738  2611 layer_factory.hpp:77] Creating layer mbox_conf_softmax
I0428 16:27:32.667762  2611 net.cpp:100] Creating Layer mbox_conf_softmax
I0428 16:27:32.667767  2611 net.cpp:434] mbox_conf_softmax <- mbox_conf_reshape
I0428 16:27:32.667775  2611 net.cpp:408] mbox_conf_softmax -> mbox_conf_softmax
I0428 16:27:32.667855  2611 net.cpp:150] Setting up mbox_conf_softmax
I0428 16:27:32.667861  2611 net.cpp:157] Top shape: 8 8732 21 (1466976)
I0428 16:27:32.667865  2611 net.cpp:165] Memory required for data: 2017114176
I0428 16:27:32.667870  2611 layer_factory.hpp:77] Creating layer mbox_conf_flatten
I0428 16:27:32.667877  2611 net.cpp:100] Creating Layer mbox_conf_flatten
I0428 16:27:32.667881  2611 net.cpp:434] mbox_conf_flatten <- mbox_conf_softmax
I0428 16:27:32.667887  2611 net.cpp:408] mbox_conf_flatten -> mbox_conf_flatten
I0428 16:27:32.667927  2611 net.cpp:150] Setting up mbox_conf_flatten
I0428 16:27:32.667933  2611 net.cpp:157] Top shape: 8 183372 (1466976)
I0428 16:27:32.667937  2611 net.cpp:165] Memory required for data: 2022982080
I0428 16:27:32.667942  2611 layer_factory.hpp:77] Creating layer detection_out
I0428 16:27:32.667956  2611 net.cpp:100] Creating Layer detection_out
I0428 16:27:32.667963  2611 net.cpp:434] detection_out <- mbox_loc
I0428 16:27:32.667968  2611 net.cpp:434] detection_out <- mbox_conf_flatten
I0428 16:27:32.667973  2611 net.cpp:434] detection_out <- mbox_priorbox
I0428 16:27:32.667984  2611 net.cpp:408] detection_out -> detection_out
I0428 16:27:32.671036  2611 net.cpp:150] Setting up detection_out
I0428 16:27:32.671054  2611 net.cpp:157] Top shape: 1 1 1 7 (7)
I0428 16:27:32.671059  2611 net.cpp:165] Memory required for data: 2022982108
I0428 16:27:32.671064  2611 layer_factory.hpp:77] Creating layer detection_eval
I0428 16:27:32.671073  2611 net.cpp:100] Creating Layer detection_eval
I0428 16:27:32.671080  2611 net.cpp:434] detection_eval <- detection_out
I0428 16:27:32.671087  2611 net.cpp:434] detection_eval <- label
I0428 16:27:32.671094  2611 net.cpp:408] detection_eval -> detection_eval
I0428 16:27:32.672683  2611 net.cpp:150] Setting up detection_eval
I0428 16:27:32.672693  2611 net.cpp:157] Top shape: 1 1 21 5 (105)
I0428 16:27:32.672698  2611 net.cpp:165] Memory required for data: 2022982528
I0428 16:27:32.672703  2611 net.cpp:228] detection_eval does not need backward computation.
I0428 16:27:32.672724  2611 net.cpp:228] detection_out does not need backward computation.
I0428 16:27:32.672755  2611 net.cpp:228] mbox_conf_flatten does not need backward computation.
I0428 16:27:32.672761  2611 net.cpp:228] mbox_conf_softmax does not need backward computation.
…
